training/runs/WalkBot/nn/last_WalkBot_ep_125_rew_3.7043602.pth (torch, 267394 bytes, 30 tensors)

running_mean f8 [30]
0.1839468302295739 -0.14809025325115255 -0.0867582293641057 -0.30670589205105353 -0.401285966637215 -0.23159931331483116 0.05693548376611646 4.257975811938381
1.5989565728507613 -4.512155027813119 -0.007877609042884847 0.0026066615379785117 -0.05592810545618779 -0.4385384390278627 0.3627574467106315 0.07134688592368836
-0.32451459796095533 0.4301161934210087 -0.08403862314009077 -0.015528439092129866 0.07178234093202733 0.022250251166163935 -0.021928286267272827 -0.0663862605864369
0.021314086294099765 -0.0786686109199634 0.21081503339116642 -0.03207022510328467 -0.29548430977042806 0.05197471066338069
00000000: 27fa 04da 918b c73f a8f7 4815 9ff4 c2bf
00000010: 6717 c78d c935 b6bf d162 f6bf 11a1 d3bf
00000020: cb3c c355 abae d9bf 034c 3bda 0ba5 cdbf
00000030: 20cb 83d1 a526 ad3f d1bc adcf 2a08 1140
00000040: 66e4 c17c 5395 f93f dcc1 1b5e 720c 12c0
00000050: 53cd adc9 2222 80bf 0fe2 d5c1 905a 653f
00000060: 241f b9cf 9ba2 acbf c677 6a87 0311 dcbf
00000070: 022b 8002 6b37 d73f 03b4 b61d ca43 b23f
00000080: f347 54e0 d8c4 d4bf 9c49 0e12 0687 db3f
00000090: a5d0 fc21 8e83 b5bf c110 78d0 5fcd 8fbf
000000a0: c3be bbd6 5360 b23f f688 5814 c5c8 963f
000000b0: de44 8061 5e74 96bf de5a 1fa2 b0fe b0bf
000000c0: 9322 4f1e 5cd3 953f 5b7c 1f47 a023 b4bf
000000d0: 5ec9 f5ac fcfb ca3f 19e9 fc2f 826b a0bf
000000e0: e07c bc05 37e9 d2bf 545c 09e5 6d9c aa3f

running_var f8 [30]
0.0005426292032112321 0.0441476919262692 0.11886504730167134 0.0769300393988225 10.72710528679548 5.241751809817985 14.129542015861835 2.9132214967529246
0.07489663618466795 1.3870205098404436 0.08235273528568698 0.07689495138375034 0.06540252069737587 0.10802451836332426 0.0543095526808326 0.05301570363578682
0.04864821897776528 0.12486631211797239 3.186433832907197 4.561615959124626 4.862329959982378 2.9437247659033954 2.7806020955543955 4.543719490346255
0.6327905593254317 0.6007836540342552 0.5743493825579816 0.6411722773516417 0.42305603662857316 0.6674309464415592
00000000: a233 4057 e7c7 413f aecf 08ba 869a a63f
00000010: f754 cc92 f06d be3f 6945 4ce3 afb1 b33f
00000020: 1112 e724 4774 2540 11ab 53c9 8df7 1440
00000030: 432b c354 5342 2c40 bf76 7412 474e 0740
00000040: e359 fe0a 6d2c b33f d155 0a6b 3c31 f63f
00000050: 90c5 c9a0 1115 b53f 27b4 6b35 63af b33f
00000060: 12a0 7837 38be b03f 8760 89ad 7ea7 bb3f
00000070: 01c7 3f31 76ce ab3f 468c 94d2 df24 ab3f
00000080: c04a 095b 6be8 a83f c837 eb16 3df7 bf3f
00000090: 7da2 7905 d17d 0940 6368 0541 183f 1240
000000a0: f3f0 01a0 0673 1340 bcd7 ef91 bf8c 0740
000000b0: f6c2 bc4f ac3e 0640 98f0 54cd c42c 1240
000000c0: 1ca6 b0fc d13f e43f 598d 41a4 9e39 e33f
000000d0: f10e d2f4 1161 e23f f477 4ab9 7b84 e43f
000000e0: 847c 6ca0 5913 db3f 1fc1 e924 985b e53f

count f8 []
8192001.0
00000000: 0000 0040 0040 5f41

running_mean f8 [1]
0.8662814676491747
00000000: 0be4 95e9 93b8 eb3f

running_var f8 [1]
0.7167164055138189
00000000: 6808 463e 57ef e63f

count f8 []
2048001.0
00000000: 0000 0000 0140 3f41

a2c_network.sigma f4 [6]
-1.0392158 -0.9257581 -0.35545132 -0.9502655 -1.0343263 -0.6711348
00000000: 0605 85bf 7cfe 6cbf b7fd b5be 9a44 73bf
00000010: ce64 84bf 7ecf 2bbf

a2c_network.actor_mlp.0.weight f4 [128, 30]
0.21240686 -0.43508023 0.11741142 0.1652592 -0.06301854 0.16636556 0.1749393 0.00039385987
0.19119963 0.07151032 -0.05834702 -0.00040529444 0.29141253 0.2015611 0.16267444 -0.2831387
0.06924171 -0.08083402 0.16773565 -0.057301883 -0.13639076 -0.04376083 -0.027131692 0.1697466
0.1276917 0.015826352 0.04418097 0.032660898 0.19496994 -0.021732088 0.017076643 -0.30006376
0.10252875 -0.42098737 -0.06574591 0.12171734 0.18356627 -0.07278197 -0.29027912 -0.04115305
0.21427177 0.11184545 0.15272093 -0.46988562 -0.22994986 -0.061985455 -0.4395104 -0.27326003
-0.23069738 0.12241989 -0.13432819 -0.21064714 0.24964109 -0.08510594 0.081889085 -0.030674402
-0.0018762148 -0.06994699 -0.060353026 0.20912509 0.13186 0.18058246 0.006445329 0.15018567
-0.121218026 -0.19136141 0.12144209 -0.17762531 -0.011439597 -0.2061793 -0.053729184 0.006278265
-0.024519237 -0.3101699 -0.08670183 -0.17978984 -0.23486164 -0.20780572 -0.09370061 -0.12856433
0.07859359 0.07706888 0.01637743 -0.06859431 -0.08816987 -0.029584737 0.09339743 -0.22264509
-0.12576742 -0.12271446 0.2214137 -0.05676113 0.25111142 -0.2587651 -0.04831324 0.1059639
-0.035482705 0.034815527 -0.02281735 -0.16370128 0.36793566 0.12086494 -0.015862377 0.29979244
0.09823965 0.021780256 -0.1924531 -0.24999192 -0.07561184 0.014142894 0.07022777 -0.031107655
0.31100962 -0.18443002 -0.061991144 -0.13203944 0.27754188 0.14847042 0.24343526 -0.030215167
0.04333582 -0.3406882 -0.063040115 -0.16427225 0.057126522 -0.19827724 0.15449919 0.16080073
-0.2610587 0.034444474 0.39164653 0.14708264 0.15392812 -0.3299295 -0.29947722 -0.05105396
-0.07966993 -0.04739091 0.101733506 -0.16817962 -0.00012664915 -0.040947437 0.09121407 0.06516598
-0.119321905 0.14993638 0.0060464395 -0.025665686 0.111974575 -0.14260693 0.29719952 -0.17201272
0.19586432 -0.046705794 0.2064775 0.1306566 0.054851875 -0.032806195 0.018044477 -0.04585645
-0.05393984 -0.16843294 0.13957044 0.22026566 -0.16944937 -0.087584406 0.027702494 0.20791209
0.12595165 0.16362679 -0.09987057 0.038386267 0.119504176 -0.07110474 -0.18655175 -0.16266578
0.0029581222 -0.16944832 -0.11526835 -0.10992339 0.11598274 0.081913345 -0.11598477 -0.12771715
-0.12956774 -0.034880165 0.06391584 -0.06529244 0.16110826 -0.08700005 -0.20600922 0.07173938
-0.008278164 -0.26372224 -0.20463102 -0.23244204 0.12096312 0.08864016 0.007685918 -0.22723189
-0.24867931 0.16554801 0.15023066 0.1535946 0.0554701 0.07307376 -0.04551223 -0.26352072
-0.026102053 -0.27658984 0.30436522 -0.19839193 -0.1112699 -0.09398633 0.10849311 0.06936746
0.0066167754 0.1010388 -0.041348986 0.1546852 -0.021214683 -0.07111269 -0.09716357 0.061558172
-0.043062802 -0.09323878 -0.0009939068 -0.15278913 0.058223438 0.10258018 0.18541902 -0.10385788
0.09931758 -0.07083924 0.2081297 0.042602662 -0.050879907 0.10437118 -0.09729086 -0.014509568
0.14994135 -0.1577234 0.3325587 0.53973794 0.26392323 -0.12475307 -0.1547365 0.2570868
0.31919664 0.01651265 -0.33008146 -0.11850489 0.07370843 0.12935092 -0.05022255 -0.21021031
00000000: 2f81 593e d6c2 debe 6675 f03d b539 293e
00000010: dd0f 81bd bc5b 2a3e 4a23 333e fa7e ce39
00000020: d6c9 433e 0174 923d 49fd 6ebd b37d d4b9
00000030: 0634 953e 0866 4e3e 2194 263e 8ef7 90be
00000040: 99ce 8d3d 4f8c a5bd e5c2 2b3e 61b5 6abd
00000050: 05aa 0bbe 8e3e 33bd 4843 debc 0dd2 2d3e
00000060: 9dc1 023e 44a6 813c 1bf7 343d 6fc7 053d
00000070: 33a6 473e 7e07 b2bc 51e4 8b3c f5a1 99be
00000080: 98fa d13d a88b d7be cba5 86bd f146 f93d
00000090: ccf8 3b3e b70e 95bd 779f 94be 1a90 28bd
000000a0: 0f6a 5b3e 3a0f e53d e062 1c3e d994 f0be
000000b0: fa77 6bbe 76e4 7dbd 8207 e1be bde8 8bbe
000000c0: ef3b 6cbe 47b7 fa3d 548d 09be e2b3 57be
000000d0: eaa1 7f3e 064c aebd 77b5 a73d e248 fbbc
000000e0: 52eb f5ba 5e40 8fbd bc34 77bd e324 563e
000000f0: 4f06 073e 9cea 383e 5733 d33b 46ca 193e
00000100: 2841 f8bd 3ff4 43be a1b6 f83d 69e3 35be
00000110: 266d 3bbc ab20 53be 2213 5cbd e7b9 cd3b
00000120: 91dc c8bc 97ce 9ebe bb90 b1bd d41a 38be
00000130: 927f 70be 06cb 54be 1be6 bfbd 5ea6 03be
00000140: adf5 a03d 4ad6 9d3d f629 863c 2c7b 8cbd
00000150: 6892 b4bd b15b f2bc 2747 bf3d 13fd 63be
00000160: 2dc9 00be b851 fbbd 46ba 623e 5c7e 68bd
00000170: ad91 803e dc7c 84be 1be4 45bd 9a03 d93d
00000180: 5056 11bd ba9a 0e3d 74eb babc 4fa1 27be
00000190: 1062 bc3e 0a88 f73d d1f1 81bc 657e 993e
000001a0: df31 c93d 826c b23c 6d12 45be e2fd 7fbe
000001b0: 61da 9abd 99b7 673c 94d3 8f3d 7bd5 febc
000001c0: a73c 9f3e 39db 3cbe 6dea 7dbd 5935 07be
000001d0: f819 8e3e a108 183e 1847 793e cc85 f7bc
000001e0: e780 313d af6e aebe 2d1b 81bd fc36 28be
000001f0: 80fd 693d 3009 4bbe 0935 1e3e f2a8 243e
00000200: 7ca9 85be a615 0d3d e585 c83e d59c 163e
00000210: 559f 1d3e 85ec a8be 1455 99be f51d 51bd
00000220: fd29 a3bd f91c 42bd a859 d03d 4737 2cbe
00000230: 1fcd 04b9 80b8 27bd 71ce ba3d be75 853d
00000240: 0b5f f4bd ec88 193e 3621 c63b d840 d2bc
00000250: ed52 e53d 8d07 12be 892a 983e 1a24 30be
00000260: a890 483e 934e 3fbd d66e 533e d8ca 053e
00000270: 5cac 603d ca5f 06bd 03d2 933c f9d3 3bbd
00000280: 06f0 5cbd af79 2cbe 8eeb 0e3e 528d 613e
00000290: 2384 2dbe 745f b3bd 57f0 e23c e8e6 543e
000002a0: 78f9 003e c88d 273e f188 ccbd eb3a 1d3d
000002b0: 9bbe f43d 5d9f 91bd 6c07 3fbe dc91 26be
000002c0: 0edd 413b dc83 2dbe d011 ecbd 841f e1bd
000002d0: 5c88 ed3d 2fc2 a73d 6c89 edbd 49c8 02be
000002e0: 68ad 04be 81de 0ebd 4fe6 823d 0bb8 85bd
000002f0: 90f9 243e 152d b2bd 15f4 52be 19ec 923d
00000300: 23a1 07bc 9a06 87be cb8a 51be 4905 6ebe
00000310: 83bb f73d f988 b53d 27da fb3b 7aaf 68be
00000320: caa5 7ebe 6b85 293e 11d6 193e e747 1d3e
00000330: 9e34 633d b2a7 953d 086b 3abd 30ec 86be
00000340: f9d3 d5bc 2f9d 8dbe c2d5 9b3e 4127 4bbe
00000350: 79e1 e3bd e87b c0bd a331 de3d 8710 8e3d
00000360: 89d1 d83b 6eed ce3d 8e5d 29bd cc65 1e3e
00000370: 6aca adbc 88a3 91bd b2fd c6bd 6c24 7c3d
00000380: 9f62 30bd f9f3 bebd fa45 82ba c174 1cbe
00000390: b37b 6e3d 8f15 d23d 7cde 3d3e 71b3 d4bd
000003a0: 0467 cb3d 2a14 91bd f41f 553e 2180 2e3d
000003b0: 7367 50bd 8fc0 d53d 6e40 c7bd 8ab9 6dbc
000003c0: 3a8a 193e 3e82 21be 2245 aa3e 442c 0a3f
000003d0: f220 873e 8a7e ffbd 3f73 1ebe e2a0 833e
000003e0: be6d a33e 8945 873c 7000 a9be b1b2 f2bd
000003f0: 72f4 963d 9174 043e 29b6 4dbd 5f41 57be

a2c_network.actor_mlp.0.bias f4 [128]
-0.4055589 0.20729674 0.23632517 0.2836245 0.21132451 -0.11966471 -0.2149176 -0.10436765
-0.36919764 -0.10433491 -0.004907068 -0.1473857 0.18173705 -0.2159272 0.21081147 0.20182954
0.041805442 -0.27802974 -0.25734437 -0.10758803 -0.2035038 -0.15465236 -0.16186866 -0.30615053
-0.084888235 0.29175475 -0.06380437 0.00738093 -0.23952349 -0.2329429 0.19634545 0.036576387
-0.07783271 -0.0782893 -0.22497895 -0.26202834 -0.27145532 -0.2921848 -0.13735603 -0.29387605
0.07218813 -0.2313533 -0.082321234 -0.22297698 -0.0792059 -0.07254429 0.0846046 -0.15477458
-0.17212886 -0.17440708 -0.19429377 -0.18812396 0.21358497 -0.038522176 0.035356473 -0.34837767
-0.39604902 -0.20110713 -0.1525854 -0.045931194 -0.17384137 0.2557913 0.2501457 -0.33297876
0.032973893 0.25358036 0.25397947 -0.06833098 -0.08915089 -0.40785363 -0.037546504 -0.18734927
0.09753177 -0.15058523 0.30239657 -0.116747476 -0.30952138 -0.41848367 0.008136844 0.0725332
0.07842421 -0.31678316 0.16852067 0.04648555 0.054772355 0.19512318 0.13618925 0.040561017
0.11835227 -0.20141524 -0.014708331 -0.41546717 0.1331411 -0.30843365 -0.17910466 -0.07714155
0.15088102 -0.3345946 0.046019547 -0.29628438 -0.12415898 -0.02930052 -0.23982693 -0.054062083
-0.2926784 -0.11575802 0.20967491 -0.23074761 -0.17981882 0.17486726 0.09123131 0.24747494
-0.04418109 -0.27039754 0.09557283 0.04277887 -0.11882679 0.23493592 -0.24420242 -0.012686434
0.0841549 0.22005315 0.055712722 -0.29615104 0.17437722 -0.21296333 0.15041071 -0.20296788
00000000: 6ba5 cfbe 9945 543e 3aff 713e 3b37 913e
00000010: 7465 583e c512 f5bd 5c13 5cbe b5be d5bd
00000020: 7907 bdbe 8bad d5bd 78cb a0bb 47ec 16be
00000030: 4719 3a3e 051c 5dbe f6de 573e 67ac 4e3e
00000040: 2f3c 2b3d ea59 8ebe a4c2 83be 1d57 dcbd
00000050: 4d63 50be 305d 1ebe e6c0 25be c3bf 9cbe
00000060: e2d9 adbd e160 953e deab 82bd badb f13b
00000070: a545 75be 9588 6ebe c80e 493e 1fd1 153d
00000080: c266 9fbd 2456 a0bd e260 66be 9428 86be
00000090: 31fc 8abe 3f99 95be 0fa7 0cbe ec76 96be
000000a0: 5fd7 933d e1e7 6cbe 0998 a8bd 1454 64be
000000b0: b436 a2bd 1a92 94bd 2d45 ad3d 3a7d 1ebe
000000c0: 8c42 30be c597 32be f2f4 46be 91a3 40be
000000d0: 05b6 5a3e 6ec9 1dbd f3d1 103d 8f5e b2be
000000e0: f0c6 cabe 07ef 4dbe 593f 1cbe 5922 3cbd
000000f0: 7903 32be 14f7 823e 1913 803e 317c aabe
00000100: a20f 073d 49d5 813e 9909 823e 1df1 8bbd
00000110: be94 b6bd 31d2 d0be 5dca 19bd 7dd8 3fbe
00000120: bdbe c73d 0433 1abe b9d3 9a3e 4d19 efbd
00000130: 9679 9ebe 7e43 d6be 6650 053c 498c 943d
00000140: df9c a03d 6731 a2be af90 2c3e a267 3e3d
00000150: fa58 603d 5fce 473e 3275 0b3e 4f23 263d
00000160: ad62 f23d cc3f 4ebe 36fb 70bc 1db8 d4be
00000170: 2456 083e 04eb 9dbe 3667 37be 64fc 9dbd
00000180: 8e80 1a3e fc4f abbe fe7e 3c3d 96b2 97be
00000190: 1047 febd a507 f0bc 3195 75be 3470 5dbd
000001a0: f1d9 95be 8a12 edbd 05b5 563e 1a49 6cbe
000001b0: 6d22 38be 6710 333e 7bd7 ba3d 126a 7d3e
000001c0: 3bf7 34bd 8c71 8abe b0bb c33d e538 2f3d
000001d0: 765b f3bd 0b93 703e 3310 7abe c3da 4fbc
000001e0: 6759 ac3d 9d55 613e 0633 643d 1ca1 97be
000001f0: f18f 323e 0f13 5abe 4405 1a3e d0d6 4fbe

a2c_network.actor_mlp.2.weight f4 [128, 128]
0.24015412 -0.3793263 -0.0028752584 -0.11941156 -0.2527992 0.19963865 0.052125704 0.027239725
0.19167824 -0.05322907 -0.034487095 -0.16749455 0.012552472 0.14455464 -0.12658295 -0.03876577
0.07838111 0.119357325 0.1729977 -0.19456214 0.2419516 0.07783813 0.040578205 0.18403512
-0.15872985 -0.076737426 -0.06233434 0.10104219 0.13771087 0.09055766 -0.11571484 -0.033740055
-0.030287642 -0.14183086 0.21537784 -0.13919596 0.09044222 0.095238455 0.05074603 0.19738926
0.062836714 0.06899425 0.08139163 0.10290668 0.042722426 -0.018866954 -0.17054015 -0.00019532809
0.06772256 0.16177899 -0.026386105 -0.027392546 -0.11187589 0.17640632 -0.044306185 0.20790425
0.03871048 0.1654598 0.051214755 -0.030582564 0.060617857 -0.020256776 -0.062748015 0.22635141
-0.08863803 0.002623805 -0.0883632 -0.12669848 0.0644088 0.09111758 0.15581289 0.058191314
-0.11841799 0.08478057 -0.1854979 -0.043516673 0.16781509 0.13156809 0.029714648 -0.25999895
-0.071898445 0.26172173 -0.09223675 -0.033202317 0.024655355 -0.04406336 -0.026406784 -0.19354744
-0.2812904 0.13901983 0.010089579 0.0056423596 -0.2857525 0.24498908 -0.13478817 -0.01662408
-0.20879321 0.100529544 -0.2221887 0.10720974 0.15326823 0.103021756 0.09144529 0.043452132
-0.008317021 -0.0005777064 -0.12043688 -0.054138325 -0.03393993 -0.20853548 -0.12493044 -0.09202708
-0.044074554 0.22612295 -0.13562259 0.01340552 0.08065739 -0.07140013 0.035870336 0.067184985
-0.021770323 -0.095387325 -0.02214391 0.0135341715 -0.01751791 0.040161658 -0.20376208 -0.022049608
-0.025600536 -0.03893053 -0.017419336 -0.01938151 -0.015448074 0.03120116 -0.002248539 0.03535344
0.0019044193 -0.11083324 -0.12561211 -0.015422826 0.05349068 0.04510656 0.060405612 -0.13200124
0.01168584 0.07410389 0.048937388 -0.021015843 0.0076979483 0.16144119 -0.09999747 -0.033030625
0.0968039 -0.115280844 -0.0396946 -0.07061831 0.026379032 0.024629574 -0.05233534 -0.05121414
0.05331345 0.100734934 0.18480192 -0.050481126 0.054686487 -0.08415905 0.08381461 0.15443082
0.05217268 -0.018882772 0.088396885 -0.04409951 0.06704225 0.0062739947 -0.060126062 0.01046225
0.0011494741 0.028405566 0.045849144 0.068915665 -0.0069458457 0.19399175 0.08495161 0.12273672
0.097084515 -0.036534496 -0.096296325 0.045549862 0.10974157 -0.08215832 -0.01959124 -0.03878008
0.12027202 0.14564121 0.03278529 0.042247392 0.012797342 0.00560985 -0.008187528 0.027168447
-0.02530143 -0.08908776 0.021072648 0.019217877 0.016782336 -0.0072601773 -0.012142923 0.059566516
-0.09198619 0.082030036 0.048418947 -0.034822468 -0.123021625 -0.054150052 -0.060263008 0.11580462
0.1357594 -0.06543443 0.03743815 0.054347474 0.10792203 -0.0067974445 -0.093925305 -0.05709394
0.089887574 0.058578767 -0.070474476 -0.0033688708 0.023339914 0.07197022 0.020584168 -0.12825605
0.16100426 -0.0962882 0.061642263 0.015404101 0.06169404 0.06861254 -0.070910804 -0.0865183
0.08534032 -0.030392163 0.028469216 -0.07084301 -0.01719379 0.084091395 0.06741147 -0.142479
0.050129592 -0.08606906 0.046826318 -0.017536646 0.041893683 0.057129018 0.006941718 0.09908399
00000000: f6ea 753e 0f37 c2be d56e 3cbb 0c8e f4bd
00000010: e66e 81be 136e 4c3e c381 553d d825 df3c
00000020: 4d47 443e ba06 5abd 5742 0dbd b183 2bbe
00000030: e2a8 4d3c 2206 143e f69e 01be dbc8 1ebd
00000040: 4786 a03d 9d71 f43d 4f26 313e 4c3b 47be
00000050: 29c2 773e 9969 9f3d 5535 263d b473 3c3e
00000060: 148a 22be 8328 9dbd 4b52 7fbd 35ef ce3d
00000070: 1404 0d3e 4b76 b93d e7fb ecbd 0333 0abd
00000080: ca1d f8bc 1c3c 11be 028c 5c3e 6389 0ebe
00000090: c539 b93d 610c c33d 12db 4f3d 6920 4a3e
000000a0: 89b0 803d db4c 8d3d a8b0 a63d bdc0 d23d
000000b0: b6fd 2e3d df8e 9abc 14a2 2ebe fcd0 4cb9
000000c0: 20b2 8a3d 64a9 253e ac27 d8bc 5566 e0bc
000000d0: 301f e5bd dca3 343e 677a 35bd dae4 543e
000000e0: e18e 1e3d 4b6e 293e 90c6 513d 4988 fabc
000000f0: 6e4a 783d 8af1 a5bc 0882 80bd aac8 673e
00000100: db87 b5bd 25f4 2b3b c4f7 b4bd 3fbd 01be
00000110: c3e8 833d db9b ba3d 6a8d 1f3e 045a 6e3d
00000120: 2285 f2bd 6fa1 ad3d 29f3 3dbe 8a3e 32bd
00000130: b8d7 2b3e c9b9 063e 226c f33c 951e 85be
00000140: 7e3f 93bd 6400 863e 9fe6 bcbd 27ff 07bd
00000150: 07fa c93c c87b 34bd 0a53 d8bc 4d31 46be
00000160: 4c05 90be 375b 0e3e c34e 253c 8be3 b83b
00000170: 274e 92be 6bde 7a3e e905 0abe 392f 88bc
00000180: e3cd 55be 6fe2 cd3d 6f85 63be c890 db3d
00000190: 59f2 1c3e 12fd d23d ab47 bb3d ddfa 313d
000001a0: 1d44 08bc 3871 17ba 9ca7 f6bd 26c0 5dbd
000001b0: 9904 0bbd 538a 55be 88db ffbd b278 bcbd
000001c0: 8587 34bd c68c 673e a6e0 0abe d3a2 5b3c
000001d0: b42f a53d 3b3a 92bd c6ec 123d 4898 893d
000001e0: ad57 b2bc 6e5a c3bd 2567 b5bc 6ebe 5d3c
000001f0: b881 8fbc 8d80 243d 02a7 50be 61a1 b4bc
00000200: 37b8 d1bc 9f75 1fbd ffb2 8ebc f9c5 9ebc
00000210: eb19 7dbc 9399 ff3c 395c 13bb c5ce 103d
00000220: b59d f93a 8afc e2bd 76a0 00be 05b0 7cbc
00000230: 0b19 5b3d a8c1 383d e06b 773d 552b 07be
00000240: f775 3f3c c8c3 973d 9272 483d 6b29 acbc
00000250: 123f fc3b d750 253e 79cb ccbd 1f4b 07bd
00000260: 2041 c63d 5d18 ecbd ce96 22bd 55a0 90bd
00000270: d718 d83c f6c3 c93c 955d 56bd ebc5 51bd
00000280: 345f 5a3d 1e4e ce3d b73c 3d3e 4cc5 4ebd
00000290: f0fe 5f3d 945b acbd ffa6 ab3d 1d23 1e3e
000002a0: 05b3 553d 0bb0 9abc 6d09 b53d b0a1 34bd
000002b0: 724d 893d 1596 cd3b bf46 76bd db69 2b3c
000002c0: f3a9 963a cab2 e83c 50cc 3b3d a823 8d3d
000002d0: fa99 e3bb c6a5 463e 1cfb ad3d 645d fb3d
000002e0: 3fd4 c63d 32a5 15bd 0237 c5bd 7e92 3a3d
000002f0: 30c0 e03d 9f42 a8bd cf7d a0bc dcd7 1ebd
00000300: 2d51 f63d f822 153e de49 063d 9a0b 2d3d
00000310: f1ab 513c d5d2 b73b fb24 06bc 5d90 de3c
00000320: f244 cfbc a573 b6bd 8ca0 ac3c cf6e 9d3c
00000330: 1c7b 893c c8e6 edbb 1cf3 46bc 05fc 733d
00000340: 4163 bcbd 5dff a73d f252 463d 01a2 0ebd
00000350: c3f2 fbbd 72cc 5dbd 58d6 76bd f92a ed3d
00000360: 8304 0b3e 7d02 86bd bf58 193d 759b 5e3d
00000370: 3a06 dd3d 19bd debb e95b c0bd 56db 69bd
00000380: fa16 b83d 4af0 6f3d ec54 90bd 46c8 5cbb
00000390: 5933 bf3c 1f65 933d 21a0 a83c 8e55 03be
000003a0: 4dde 243e bf32 c5bd 997c 7c3d 7c61 7c3c
000003b0: e4b2 7c3d bb84 8c3d af39 91bd 8230 b1bd
000003c0: e8c6 ae3d fcf8 f8bc 4638 e93c 2416 91bd
000003d0: fed9 8cbc 1c38 ac3d 060f 8a3d 04e6 11be
000003e0: b054 4d3d fa44 b0bd f4cc 3f3d 03a9 8fbc
000003f0: b698 2b3d 1e00 6a3d 5a77 e33b 8cec ca3d

a2c_network.actor_mlp.2.bias f4 [128]
-0.22698365 -0.029479245 -0.06785719 0.08548799 -0.038372654 0.008226304 -0.104480244 -0.09461868
-0.09536743 0.03612768 -0.2662693 -0.016096111 -0.1868687 -0.18183832 0.0458283 -0.17599073
0.0029184185 -0.12230498 -0.064105585 -0.10244678 -0.14312074 -0.12254542 -0.066333815 -0.02328311
0.06342027 -0.15203589 -0.1938877 -0.082050055 -0.21859328 -0.057390038 -0.03486254 -0.123166405
0.003320586 -0.15327103 -0.045887843 -0.06687717 -0.0700672 0.100461304 -0.093344465 0.055211514
-0.21155524 0.10366877 0.067601405 -0.13272625 0.18017049 -0.042338062 -0.081666335 0.0007142515
0.03019711 -0.12670532 0.11530013 -0.020693911 0.025336947 0.009404537 -0.14077213 0.059695024
0.04920733 0.055378307 0.08580747 0.06140673 -0.07169227 -0.08814308 -0.13578667 0.115312226
-0.100487754 -0.18813875 -0.077560216 0.017403804 -0.053041417 -0.03004321 -0.073386624 -0.08150786
-0.03513333 -0.27647516 0.04789446 -0.09755313 -0.17000222 -0.009250232 0.013578535 -0.15731563
-0.24382734 -0.07163419 0.026501698 0.054182466 0.082845554 0.03967073 0.027829261 -0.10472445
-0.040343843 -0.17975898 -0.03146369 -0.26248956 -0.21574172 -0.011856024 -0.17637207 -0.17193756
-0.11438269 0.11132102 0.031625498 -0.12113892 0.010323193 0.022011213 -0.09458144 -0.0105041675
-0.3961853 -0.10609582 -0.22885725 0.032343853 -0.08090729 -0.04307031 -0.010038456 -0.10498815
-0.08546485 0.08002095 0.037504718 0.066806585 -0.15341437 0.03284096 0.041546315 0.03184462
0.10577768 -0.09306383 -0.06019443 -0.30067158 0.025100935 -0.21195842 0.01252009 -0.095215686
00000000: 676e 68be 757e f1bc b6f8 8abd 5414 af3d
00000010: a52c 1dbd 9fc7 063c bdf9 d5bd 70c7 c1bd
00000020: 0050 c3bd 9efa 133d 7354 88be fedb 83bc
00000030: 825a 3fbe d333 3abe 75b6 3b3d ea36 34be
00000040: f042 3f3b 097b fabd ca49 83bd 9ecf d1bd
00000050: 3e8e 12be 18f9 fabd 06da 87bd 38bc bebc
00000060: 7de2 813d 4caf 1bbe 7f8a 46be dc09 a8bd
00000070: ebd6 5fbe d111 6bbd 06cc 0ebd ab3e fcbd
00000080: 309e 593b 15f3 1cbe e4f4 3bbd e6f6 88bd
00000090: 647f 8fbd a8be cd3d 622b bfbd 7825 623d
000000a0: f0a1 58be 4b50 d43d 9b72 8a3d 64e9 07be
000000b0: 9d7e 383e ad6a 2dbd ae40 a7bd 9b3c 3b3a
000000c0: ee5f f73c 0abf 01be 7922 ec3d 4786 a9bc
000000d0: 6e8f cf3c 7d15 1a3c 9226 10be c582 743d
000000e0: a08d 493d 5dd4 623d d4bb af3d a085 7b3d
000000f0: 66d3 92bd 5c84 b4bd a90b 0bbe d128 ec3d
00000100: 86cc cdbd 72a7 40be e4d7 9ebd 6c92 8e3c
00000110: f541 59bd 2e1d f6bc ba4b 96bd 98ed a6bd
00000120: f7e7 0fbd 278e 8dbe fb2c 443d efc9 c7bd
00000130: 1015 2ebe 498e 17bc 8178 5e3c 5917 21be
00000140: e0ad 79be f2b4 92bd 171a d93c 6fee 5d3d
00000150: eeaa a93d c67d 223d 31fa e33c c679 d6bd
00000160: 963f 25bd bd12 38be 12e0 00bd 0865 86be
00000170: 66eb 5cbe c53f 42bc e19a 34be 6610 30be
00000180: 7941 eabd 46fc e33d bd89 013d af17 f8bd
00000190: 9c22 293c dc50 b43c eab3 c1bd ac19 2cbc
000001a0: cdd8 cabe c448 d9bd 8e59 6abe fd7a 043d
000001b0: b9b2 a5bd 7e6a 30bd 5678 24bc 0704 d7bd
000001c0: 3208 afbd 06e2 a33d 8c9e 193d e4d1 883d
000001d0: a818 1dbe 3e84 063d 782c 2a3d 816f 023d
000001e0: f8a1 d83d 4098 bebd 6f8e 76bd a0f1 99be
000001f0: 7aa0 cd3c a10b 59be 1021 4d3c 7100 c3bd

a2c_network.value.weight f4 [1, 128]
-0.13367859 -0.0077811307 0.026654534 0.11334745 -0.03902009 -0.02379582 0.002984965 0.035859827
-0.077171594 -0.012649251 -0.059005126 0.066735566 -0.16930494 -0.06312749 -0.006556285 0.014324384
-0.09318015 -0.0323456 0.013256187 0.06981818 0.010203508 -0.044491265 -0.14451505 -0.008691593
0.09424955 0.0388689 0.011311644 0.059485484 -0.1461773 -0.12797137 -0.080964565 -0.048859462
-0.09582868 -0.03643123 -0.08326485 -0.04895537 -0.004386578 -0.06493583 -0.021608038 0.061444137
-0.1292877 0.16692439 0.08896772 -0.042792175 0.11566843 0.05769552 0.011205435 -0.032952566
0.0099761095 0.08563374 0.14663364 0.07830475 0.09399385 0.016677542 -0.11720307 0.14738414
-0.001922417 0.102748506 0.0017380472 0.10060312 -0.13740268 -0.10427287 -0.111829005 0.05453337
0.009363367 -0.07335114 0.04490174 0.062406406 0.04431721 -0.0068267332 -0.13785587 0.09542405
-0.12934582 -0.097353525 -0.1497002 -0.044759974 -0.001276494 0.13681725 -0.017488655 -0.12109476
-0.13091639 -0.056093793 -0.05801971 0.08364832 0.19529837 -0.031122811 -0.13343349 -0.0120364865
0.037281178 -0.2045189 -0.03626702 -0.013660427 -0.11164682 0.05101789 -0.13313577 -0.10926971
-0.003821006 0.14345369 0.03383464 0.025120672 0.035304826 -0.10198123 -0.027117094 -0.020080218
-0.10788021 -0.11646956 -0.05675481 0.11466871 -0.02652209 -0.02287653 0.04135968 -0.11482274
-0.04884138 0.091413915 0.16825458 0.19088787 -0.11404972 0.16491947 0.0058030705 0.08798494
0.13100743 -0.14095698 -0.16416848 -0.13455069 0.031693514 -0.035977926 0.09438835 -0.027618976
00000000: 0ae3 08be dbf8 febb 9c5a da3c b522 e83d
00000010: 88d3 1fbd 74ef c2bc 679f 433b c1e1 123d
00000020: 240c 9ebd ce3e 4fbc 5caf 71bd a8ac 883d
00000030: 465e 2dbe fc48 81bd 1bd6 d6bb d2b0 6a3c
00000040: 3cd5 bebd d27c 04bd 7a30 593c d5fc 8e3d
00000050: 9d2c 273c 793c 36bd c1fb 13be 2f67 0ebc
00000060: e805 c13d ff34 1f3d 7954 393c 0da7 733d
00000070: 81af 15be ed0a 03be c0d0 a5bd dc20 48bd
00000080: d441 c4bd ea38 15bd c386 aabd 6d85 48bd
00000090: 49bd 8fbb 14fd 84bd 5703 b1bc d9ac 7b3d
000000a0: ff63 04be 3aee 2a3e b534 b63d d946 2fbd
000000b0: 92e3 ec3d 2352 6c3d 0097 373c 45f9 06bd
000000c0: d672 233c be60 af3d 2127 163e 3e5e a03d
000000d0: d97f c03d 579f 883c 2a08 f0bd deeb 163e
000000e0: 9cf9 fbba cf6d d23d 30cf e33a 0209 ce3d
000000f0: 4ab3 0cbe 048d d5bd 9b06 e5bd 625e 5f3d
00000100: cf68 193c 1f39 96bd e3ea 373d dc9d 7f3d
00000110: f685 353d cab2 dfbb 172a 0dbe af6d c33d
00000120: 3b73 04be 4961 c7bd 024b 19be 3c56 37bd
00000130: 0850 a7ba d219 0c3e 5e44 8fbc 8800 f8bd
00000140: f20e 06be 9bc2 65bd 13a6 6dbd cf4f ab3d
00000150: 4cfc 473e 44f5 febc caa2 08be af34 45bc
00000160: 26b4 183d 676d 51be ba8c 14bd fccf 5fbc
00000170: 17a7 e4bd 23f8 503d be54 08be ccc8 dfbd
00000180: d869 7abb 86e5 123e 3196 0a3d dec9 cd3c
00000190: cb9b 103d 89db d0bd ab24 debc 457f a4bc
000001a0: 4df0 dcbd 9887 eebd bb77 68bd 6ed7 ea3d
000001b0: db44 d9bc 9067 bbbc c568 293d 2f28 ebbd
000001c0: e60d 48bd 3837 bb3d ee4a 2c3e 1c78 433e
000001d0: e692 e9bd a6e0 283e af27 be3b 7331 b43d
000001e0: d026 063e 0757 10be c81b 28be a8c7 09be
000001f0: 0fd1 013d 975d 13bd ae4e c13d 3141 e2bc

a2c_network.mu.weight f4 [6, 128]
-0.027985856 -0.018632783 0.06964611 0.02437006 0.03192536 0.11119008 0.02121764 -0.050887767
-0.04843459 -0.010123496 0.013276239 -0.07199711 0.02383303 0.04468767 0.009655073 -0.010909818
0.050685022 0.06429186 0.14235759 -0.006742529 -0.02843438 -0.048020583 0.009203475 -0.005907404
0.028042221 0.08275211 -0.012245729 -0.032541577 -0.044071794 0.08352821 -0.1151796 -0.0012320479
0.047893506 -0.1458449 0.039006677 0.05208625 0.16497067 -0.008675562 -0.013471167 0.21883543
-0.049351774 -0.026994029 -0.015228634 0.0713423 0.074782215 0.06373879 -0.022787113 -0.038614016
0.01467059 0.09411009 -0.063596204 0.005578168 0.051837 0.06714787 -0.08456928 -0.005644372
-0.06285627 -0.026612524 -0.00043948193 0.0805636 -0.10092527 -0.038951688 0.024892673 0.012083548
0.006955882 0.038979996 -0.11067642 -0.027124401 0.010883887 0.019718094 -0.010668266 -0.014735699
-0.0036079374 -0.17921074 -0.081829794 0.013891908 0.018053913 -0.05994348 -0.04527807 0.0404139
-0.026761837 -0.004286826 -0.021842461 0.011983295 -0.027532464 -0.07131314 0.057302002 -0.030247964
-0.0515987 0.03402741 -0.0041091717 -0.06281595 -0.15321288 -0.026098577 0.10090219 0.16398652
-0.116328225 0.0024170482 0.012683002 -0.19239837 0.04070917 0.027472485 0.03623376 -0.054938115
-0.11493287 0.029091837 -0.037399363 0.03927251 -0.07354673 0.009185743 -0.07354939 -0.003953559
-0.035435323 0.069421224 -0.0032705895 -0.0036946293 -0.079357915 -0.10583535 0.025862848 0.045185518
0.10000405 0.087356575 -0.04023918 -0.015605272 0.03333933 -0.05744207 0.043764766 0.019356094
-0.12533955 0.002296886 0.0038137503 0.12499426 -0.041007813 -0.0296054 -0.08461969 -0.058275845
-0.1751147 -0.02916613 0.07485079 -0.0049703787 0.027313521 0.034381296 -0.027969046 0.06820733
-0.03452164 0.05273859 -0.0020461741 0.053709477 0.038528524 -0.043207224 0.086961195 0.0029391244
-0.044033967 -0.09531006 -0.14654599 0.01921359 -0.11344066 0.022547267 0.007088209 0.030322287
0.011364959 0.011774893 -0.03739356 -0.013253206 -0.020124884 -0.042821348 0.010250255 -0.13381465
0.0067693116 -0.077814244 -0.040194277 0.038661104 0.03196939 -0.10247692 0.043653898 0.007800797
0.041331638 -0.09518427 -0.071948744 -0.04322065 0.01242148 -0.13434975 -0.11003041 -0.112883724
-0.044697203 0.006651742 0.056902632 -0.0017763347 0.003989668 -0.042021558 0.024102008 -0.051478647
-0.03564866 0.039711654 0.010539132 -0.10461398 0.0366296 -0.04268007 -0.015518105 -0.06140495
0.005083846 0.13682562 -0.035660185 0.057369683 0.15300661 0.019393152 0.0019856233 0.028751353
0.06498348 -0.023259625 0.070832394 -0.09307582 0.060420938 -0.007370642 -0.082605 0.07872058
0.14386295 -0.03996727 -0.021175517 0.07842147 0.09216078 -0.05099932 -0.018627701 -0.07412007
0.086916596 0.023735922 -0.018392825 0.104223184 -0.026719801 -0.065098725 0.0688274 -0.014360653
0.17408983 0.14288841 -0.041781045 0.10466265 0.0343274 -0.09258816 0.00022611141 -0.042595033
0.11518831 -0.043982755 -0.04116884 0.032743737 0.044666674 -0.068643406 -0.028173974 -0.058992773
-0.052607954 -0.005038532 -0.016627645 -0.08540492 -0.030436335 0.08824267 0.002280972 -0.008078152
00000000: 9842 e5bc c7a3 98bc 9fa2 8e3d b8a3 c73c
00000010: 2bc4 023d a0b7 e33d 9ed0 ad3c b16f 50bd
00000020: 5963 46bd 05dd 25bc 9584 593c 3973 93bd
00000030: 7d3d c33c 6b0a 373d 5030 1e3c 18bf 32bc
00000040: 199b 4f3d 73ab 833d 30c6 113e 6ff0 dcbb
00000050: 38ef e8bc 3bb1 44bd 2cca 163c e592 c1bb
00000060: cdb8 e53c f079 a93d 4fa2 48bc 514a 05bd
00000070: a084 34bd d710 ab3d 48e3 ebbd ab7c a1ba
00000080: fb2b 443d 5e58 15be 77c5 1f3d 6458 553d
00000090: 12ee 283e f223 0ebc 2bb6 5cbc 6516 603e
000000a0: 1625 4abd 9522 ddbc 8581 79bc e91b 923d
000000b0: 6b27 993d 7c89 823d 0aac babc bb29 1ebd
000000c0: ea5c 703c cabc c03d ba3e 82bd 11c9 b63b
000000d0: 0953 543d d384 893d a932 adbd 6df4 b8bb
000000e0: caba 80bd 8202 dabc 446a e6b9 87fe a43d
000000f0: e8b1 cebd ce8b 1fbd b8eb cb3c 13fa 453c
00000100: 2bee e33b 7da9 1f3d 52aa e2bd fe33 debc
00000110: 5552 323c d787 a13c f3c9 2ebc 006e 71bc
00000120: 2573 6cbb 0583 37be 6196 a7bd e39a 633c
00000130: cde5 933c 4b87 75bd 7f75 39bd 0c89 253d
00000140: a43b dbbc 8178 8cbb f6ee b2bc 9555 443c
00000150: c38b e1bc a00c 92bd 81b5 6a3d 94ca f7bc
00000160: 2959 53bd 5360 0b3d 3ba6 86bb a6a5 80bd
00000170: d6e3 1cbe afcc d5bc cfa5 ce3d 15ec 273e
00000180: 7e3d eebd 5767 1e3b 5ecc 4f3c 1404 45be
00000190: a9be 263d fa0d e13c da69 143d ca06 61bd
000001a0: ed61 ebbd 0152 ee3c 1330 19bd 36dc 203d
000001b0: ab9f 96bd cc7f 163c 10a1 96bd db8c 81bb
000001c0: a124 11bd b72c 8e3d 6357 56bb 9821 72bb
000001d0: 6786 a2bd 34c0 d8bd 53de d33c 7314 393d
000001e0: ecce cc3d 01e8 b23d d7d1 24bd 41ad 7fbc
000001f0: d28e 083d 6048 6bbd af42 333d ac90 9e3c
00000200: 0359 00be 5a87 163b 1df0 793b fefc ff3d
00000210: cff7 27bd 0687 f2bc 174d adbd a7b2 6ebd
00000220: 4551 33be cfed eebc 5f4b 993d 8fde a2bb
00000230: 9bc0 df3c 67d3 0c3d 571f e5bc 49b0 8b3d
00000240: 9066 0dbd 6b04 583d 1b19 06bb 78fe 5b3d
00000250: 16d0 1d3d 0ffa 30bd b618 b23d 539e 403b
00000260: f65c 34bd ec31 c3bd 2710 16be d265 9d3c
00000270: 9453 e8bd 0cb5 b83c 3544 e83b 7266 f83c
00000280: 1834 3a3c 7beb 403c fd29 19bd fa23 59bc
00000290: f1dc a4bc 7065 2fbd b0f0 273c b506 09be
000002a0: 1ad1 dd3b 135d 9fbd c1a2 24bd 1b5b 1e3d
000002b0: 56f2 023d 6bdf d1bd 6ece 323d d49d ff3b
000002c0: 5d4b 293d f8ef c2bd dd59 93bd 2308 31bd
000002d0: 7783 4b3c fb92 09be a057 e1bd 952f e7bd
000002e0: 6a14 37bd dbf6 d93b bc12 693d e7d3 e8ba
000002f0: c3bb 823b cc1e 2cbd 9371 c53c 46db 52bd
00000300: 5404 12bd b0a8 223d 53ac 2c3c db3f d6bd
00000310: eb08 163d 4cd1 2ebd a63f 7ebc c283 7bbd
00000320: 6496 a63b 041c 0c3e 6a10 12bd 79fc 6a3d
00000330: c4ad 1c3e 63de 9e3c 3b21 023b f587 eb3c
00000340: 0f16 853d f88a bebc 9310 913d 899e bebd
00000350: f27b 773d 6d85 f1bb cf2c a9bd 4138 a13d
00000360: cf50 133e b8b4 23bd 4778 adbc 709b a03d
00000370: cbbe bc3d aae4 50bd 1f99 98bc 43cc 97bd
00000380: 5401 b23d d671 c23c 8dac 96bc f772 d53d
00000390: 7ce3 dabc 7b52 85bd 61f5 8c3d f248 6bbc
000003a0: 9b44 323e 5751 123e 9a22 2bbd 5f59 d63d
000003b0: e39a 0c3d dc9e bdbd 5218 6d39 2178 2ebd
000003c0: d9e7 eb3d 4327 34bd a8a0 28bd 4c1e 063d
000003d0: 67f4 363d ea94 8cbd 1bcd e6bc 68a2 71bd
000003e0: 707b 57bd 451a a5bb b336 88bc c6e8 aebd
000003f0: 9f55 f9bc 93b8 b43d 5c7c 153b 3a5a 04bc

a2c_network.mu.bias f4 [6]
0.009533719 -0.121757515 0.07705625 -0.096971795 -0.11680717 0.0742231
00000000: 5133 1c3c 015c f9bd abcf 9d3d 2699 c6bd
00000010: 9938 efbd 4802 983d

exp_avg f4 [6]
-0.0020593477 -0.0020447145 -0.0013646503 0.004051802 0.0052953213 0.0061377343
00000000: 1ff6 06bb 9e00 06bb 11de b2ba fbc4 843b
00000010: 6084 ad3b 0c1f c93b

exp_avg_sq f4 [6]
6.147029e-05 5.9557155e-05 4.1386917e-05 5.997041e-05 7.523402e-05 5.5246746e-05
00000000: 9ce9 8038 02cd 7938 dd96 2d38 bd88 7b38
00000010: f5c6 9d38 beb8 6738

exp_avg f4 [128, 30]
0.0016579785 0.0011923735 0.00034221323 -1.86351e-05 0.0010684042 0.0014371068 0.0003672691 0.000794698
0.00058094255 -0.0011862197 -0.0005887848 -0.00026789436 -0.0009199082 -0.0002792895 -0.0006575593 -0.00030997948
0.0005092918 -0.00021891027 0.0010138925 -0.00031929213 -0.0010743291 0.0017975396 0.00067631877 0.00077990524
-0.00018875196 -0.0013864505 -0.0020585149 0.0015214158 0.0008729664 0.0010562777 1.5909623e-05 0.0017749299
-0.00031123732 -0.0005106152 -0.0014634413 0.0015737874 0.0006778431 0.00021974502 -0.0010281525 0.0017493664
0.0012097793 2.6305604e-05 0.0013582823 0.0009137318 -0.0011564612 0.0024280923 -0.0017026967 0.0010991489
-0.00024246723 0.00047845428 0.000801707 0.00088048534 -0.0020769015 0.0009715898 -8.866677e-05 0.0011943384
-9.9213146e-05 -1.9067431e-05 -0.0013337543 0.00060224533 -0.0009175859 0.0011928892 0.0008092633 0.001355182
-0.00025451946 0.0016681097 -0.0005147057 -0.00010727805 -0.0013815861 -3.4732024e-05 0.0015336798 0.001243817
-0.00052719825 7.9300575e-05 -0.0014268189 0.000777809 0.0043482543 -0.002106005 -9.3530423e-07 -0.00073764886
0.0012533299 -0.00055313675 0.000113400245 0.0010704065 0.0005839846 0.00023496957 0.00056909217 -0.00038718793
0.0010881416 0.0001823969 -0.00034161579 -0.00060487393 1.741006e-05 7.7990895e-05 -0.00017049206 0.00050272857
0.0004054146 0.0010386894 -0.00011242104 -0.0005691824 9.4379495e-05 -0.00035481746 -0.00033560395 0.00063176616
1.6952119e-05 -0.00028949714 -0.000121067045 -6.285466e-05 -0.00012812817 -0.0001316791 0.00030187936 0.00019921955
-0.0005768372 -0.00058074674 5.4276225e-05 -0.00033122202 -0.00024180261 -0.00041147042 -0.00018084967 -0.0007740817
-0.0005925222 0.002036114 -0.0015532365 -0.00070453144 -0.000753938 -0.0006403291 -9.8507815e-05 -0.000927485
-0.00017410686 -0.00014733565 0.00037213071 -0.0004599519 0.0010956182 0.0008256529 -0.0020685908 0.002433847
-0.0006367536 0.00030294718 -0.0005625495 0.00030729393 -8.9927904e-05 -0.0005155748 -0.0013005391 0.00019520655
-0.00036988576 0.00073238043 0.0005577337 -9.8305405e-05 -0.00026449474 0.0002825911 8.929902e-06 0.00018502462
-2.0112837e-05 0.0014540404 0.0008731176 -0.00038108887 0.0011452084 -0.00055953534 0.00028414433 -6.042408e-05
-0.0006031698 -0.0003176834 -0.00032221506 -4.947378e-05 2.9435145e-05 -0.0011437602 0.00045582547 -0.0006332638
0.0007140975 -0.00046961816 0.000592212 0.0009922223 0.00018965264 -0.0012411053 0.00025956155 -0.0004244644
-0.0005887268 0.0014624057 0.0003440627 -0.00058577006 -0.00014432902 0.0015795148 -0.000559664 0.0008201914
0.00067661004 -7.1379836e-05 -0.00064156216 -0.0002463811 0.000921635 -0.0004460128 -0.0006067335 0.0006007494
-0.0002859874 -0.0014382432 -0.0006288567 -0.00066812936 0.00103418 -0.000582199 0.0005452818 -0.0013810513
-0.0003695537 0.000114199596 0.00044456226 0.00027268584 -0.0003440642 0.00012642478 -0.00024858522 0.0020647603
0.00028118026 0.0009672058 4.3581585e-06 0.00043301546 0.00032713884 0.00018098598 -0.0007075128 0.00014620497
-0.00048640155 -0.00053090596 -0.00013573382 0.000532431 3.9384187e-05 0.00017497779 -0.00022589404 0.00034929637
0.0012783335 -0.0005241505 -0.0001854675 -0.00029441976 -0.0004202306 0.00015441391 0.00063146465 0.0001799659
0.00091537915 -0.00040816842 1.2023033e-05 -0.0003078331 -0.00049411366 -0.00014795816 0.00048018302 -0.0002901562
0.0009099102 0.0009881872 -0.0020654511 -0.0015477797 0.0003813433 -0.0008041016 0.0007545013 -3.1458625e-05
0.0014519598 -0.0015315405 -0.0011244566 -0.0010019084 -0.00019046277 0.00070243113 0.00011994779 0.00035138772
00000000: 8750 d93a 6a49 9c3a 156b b339 9352 9cb7
00000010: b209 8c3a 4d5d bc3a 068e c039 4853 503a
00000020: 654a 183a ee7a 9bba ae58 1aba 2c74 8cb9
00000030: ff25 71ba 9a6d 92b9 0f60 2cba be84 a2b9
00000040: ff81 053a 478b 65b9 96e4 843a aa66 a7b9
00000050: 81d0 8cba 6c9b eb3a fc4a 313a 8e72 4c3a
00000060: b8eb 45b9 8fb9 b5ba 26e8 06bb 3e6a c73a
00000070: c9d7 643a cc72 8a3a a875 8537 c4a4 e83a
00000080: 912d a3b9 ceda 05ba f1d0 bfba 8b47 ce3a
00000090: 48b1 313a 5b6b 6639 13c3 86ba ff4a e53a
000000a0: 7591 9e3a dbaa dc37 6408 b23a 8187 6f3a
000000b0: 6694 97ba a120 1f3b 052d dfba 5111 903a
000000c0: cd3e 7eb9 0cd9 fa39 a529 523a 5fd0 663a
000000d0: a01c 08bb 4ab2 7e3a 9cf2 b9b8 598b 9c3a
000000e0: a710 d0b8 fff2 9fb7 5ed1 aeba 00e0 1d3a
000000f0: 268a 70ba b85a 9c3a be24 543a 5da0 b13a
00000100: 0671 85b9 79a4 da3a 51ed 06ba 77fa e0b8
00000110: 5616 b5ba 3aad 11b8 c105 c93a 9307 a33a
00000120: ad33 0aba 2c4e a638 1904 bbba e1e5 4b3a
00000130: cd7b 8e3b e704 0abb 9e11 7bb5 c75e 41ba
00000140: c646 a43a 6100 11ba 4bd1 ed38 e24c 8c3a
00000150: 8b16 193a 2a62 7639 212f 153a 7cff cab9
00000160: f99f 8e3a cc41 3f39 e51a b3b9 6790 1eba
00000170: d20b 9237 0b8f a338 1dc6 32b9 8bc9 033a
00000180: d48d d439 a224 883a 96c3 ebb8 2f35 15ba
00000190: 9bed c538 cb06 bab9 00f4 afb9 1c9d 253a
000001a0: 6634 8e37 a6c7 97b9 60e5 fdb8 d7d0 83b8
000001b0: 255a 06b9 5713 0ab9 9045 9e39 97e5 5039
000001c0: e436 17ba 413d 18ba a7a6 6338 dea7 adb9
000001d0: 658c 7db9 a0ba d7b9 77a2 3db9 beeb 4aba
000001e0: 7e53 1bba 5370 053b f895 cbba 4eb0 38ba
000001f0: eca3 45ba c2db 27ba fb95 ceb8 7722 73ba
00000200: 7490 36b9 1d7e 1ab9 8a1a c339 b325 f1b9
00000210: d99a 8f3a a170 583a 3291 07bb 2d81 1f3b
00000220: d0eb 26ba e2d4 9e39 0f78 13ba 4b1c a139
00000230: ad97 bcb8 a427 07ba da76 aaba 5cb0 4c39
00000240: 3aed c1b9 38fd 3f3a e034 123a 5029 ceb8
00000250: e2ab 8ab9 bc28 9439 a3d1 1537 2b03 4239
00000260: fdb7 a8b7 8095 be3a eee1 643a e2cc c7b9
00000270: d11a 963a c8ad 12ba 35f9 9439 dd6f 7db8
00000280: 0a1e 1eba bf8e a6b9 f9ee a8b9 1182 4fb8
00000290: 7eeb f637 39ea 95ba dcfb ee39 9d01 26ba
000002a0: 4632 3b3a 1537 f6b9 ad3e 1b3a 750d 823a
000002b0: 7edd 4639 95ac a2ba c315 8839 a68a deb9
000002c0: c954 1aba 31ae bf3a 5063 b439 5d8e 19ba
000002d0: 0757 17b9 b907 cf3a 6ab6 12ba 1d02 573a
000002e0: 885e 313a c2b1 95b8 822e 28ba b62c 81b9
000002f0: e199 713a d3d6 e9b9 320d 1fba 9c7b 1d3a
00000300: 94f0 95b9 6f83 bcba dcd9 24ba 6725 2fba
00000310: 538d 873a b79e 18ba 3ef1 0e3a 6404 b5ba
00000320: a8c0 c1b9 717e ef38 2314 e939 46f7 8e39
00000330: 8463 b4b9 e590 0439 8b54 82b9 ee50 073b
00000340: 606b 9339 158c 7d3a 4c3c 9236 5a06 e339
00000350: d583 ab39 0ec7 3d39 6178 39ba 994e 1939
00000360: b603 ffb9 7f2c 0bba c553 0eb9 d792 0b3a
00000370: 7330 2538 3e7a 3739 f8dd 6cb9 c421 b739
00000380: c18d a73a 2567 09ba 0e7a 42b9 5a5c 9ab9
00000390: 6552 dcb9 2bea 2139 e088 253a 3ab5 3c39
000003a0: 0ef6 6f3a 70ff d5b9 89b6 4937 a964 a1b9
000003b0: 6887 01ba 3725 1bb9 13c1 fb39 1b20 98b9
000003c0: 0a87 6e3a 0f86 813a 855c 07bb dede caba
000003d0: 08ef c739 58ca 52ba bac9 453a 71f2 03b8
000003e0: b04f be3a f9bd c8ba 8162 93ba 7852 83ba
000003f0: f6b6 47b9 5b23 383a 7b8c fb38 763a b839

exp_avg_sq f4 [128, 30]
2.9996267e-05 2.2735327e-05 2.4860135e-05 2.5901041e-05 2.9060371e-05 1.1987563e-05 2.6766165e-05 1.934683e-05
2.8952527e-05 1.9408253e-05 2.6797068e-05 2.2989645e-05 2.2654462e-05 3.664929e-05 2.5421561e-05 1.976804e-05
1.9762494e-05 1.8952376e-05 2.4685813e-05 2.0263966e-05 7.737293e-06 2.1269485e-05 1.1929499e-05 1.1872696e-05
2.0794907e-05 1.4913915e-05 6.5644836e-06 1.4969482e-05 1.0093687e-05 1.6352575e-05 1.6898737e-05 3.985325e-05
3.3678276e-05 2.6552423e-05 3.8402784e-05 3.4499917e-05 4.3940978e-05 2.5495852e-05 5.253311e-05 2.6935175e-05
4.494297e-05 3.3920624e-05 4.7816673e-05 4.3251217e-05 2.066571e-05 3.4930206e-05 3.287222e-05 3.9176517e-05
4.596458e-05 3.0110292e-05 1.3211633e-05 4.626405e-05 1.684786e-05 2.1128415e-05 4.0675448e-05 2.7725991e-05
1.7580573e-05 4.0327373e-05 1.9644736e-05 3.890197e-05 1.0475727e-05 2.5604259e-05 1.694889e-05 2.1866437e-05
2.0249874e-05 1.8578741e-05 2.3213333e-05 1.4240034e-05 1.8594925e-05 1.5554757e-05 1.5069241e-05 1.3867727e-05
2.4514417e-05 1.9231571e-05 8.484056e-06 2.3085022e-05 1.29224045e-05 2.2347152e-05 2.3704895e-05 1.929165e-05
7.663465e-06 2.5104197e-05 9.9049375e-06 1.677715e-05 2.1339965e-05 1.6086395e-05 1.0665959e-05 2.1781552e-05
1.2097626e-05 2.4383595e-05 4.1021844e-06 8.363124e-06 3.5091623e-06 6.073608e-06 5.8201686e-06 4.3416044e-06
4.696929e-06 2.521065e-06 6.238347e-06 2.498685e-06 4.568141e-06 3.717595e-06 4.9132686e-06 4.819659e-06
3.0399644e-06 5.0167228e-06 3.7704217e-06 5.388506e-06 4.9477676e-06 4.1126764e-06 1.9040447e-06 4.5955326e-06
2.9982975e-06 2.821736e-06 4.471111e-06 4.283319e-06 2.056081e-06 3.871731e-06 2.8364311e-06 4.295488e-06
1.3046945e-05 3.3309243e-05 2.4853052e-05 1.8412578e-05 2.4842268e-05 1.8933752e-05 2.7451646e-05 1.233653e-05
2.7010881e-05 1.2727485e-05 2.2733153e-05 1.8576258e-05 2.8303199e-05 2.231878e-05 1.2148175e-05 2.246675e-05
1.8571676e-05 2.6109827e-05 2.786996e-05 2.3359991e-05 9.688996e-06 2.7960758e-05 1.279766e-05 1.3815841e-05
2.5897723e-05 1.7602593e-05 1.0681559e-05 2.5020767e-05 1.4045703e-05 2.4651961e-05 6.757341e-06 1.33846e-05
1.4319616e-05 1.058144e-05 1.41399905e-05 1.0161553e-05 1.5565973e-05 9.765479e-06 1.41682085e-05 1.0249537e-05
1.2242229e-05 1.1782093e-05 1.2345614e-05 1.086987e-05 6.14808e-06 1.0816738e-05 8.995745e-06 1.458831e-05
1.642561e-05 1.3482561e-05 5.7794578e-06 1.643767e-05 7.342158e-06 7.07171e-06 1.4267651e-05 1.1610264e-05
7.075427e-06 1.4195736e-05 7.624495e-06 1.2962629e-05 1.1832381e-05 2.7111746e-05 2.2062282e-05 2.5681538e-05
2.7373486e-05 2.0407486e-05 3.2513402e-05 1.436536e-05 3.4362838e-05 1.4944889e-05 2.9649374e-05 2.0267542e-05
3.358454e-05 3.1757736e-05 9.6974945e-06 2.5828325e-05 2.1270122e-05 3.1133153e-05 3.756963e-05 2.6315463e-05
1.4917626e-05 3.2486405e-05 1.5635012e-05 1.4832052e-05 3.0642503e-05 2.2856491e-05 1.5187376e-05 2.7100969e-05
1.4022471e-05 2.826003e-05 5.6470335e-06 2.0375248e-05 9.934769e-06 1.9140007e-05 1.18873195e-05 8.581881e-06
1.4811643e-05 4.5431325e-06 1.8560573e-05 4.92524e-06 1.3277745e-05 1.0169331e-05 1.5429823e-05 1.1588039e-05
3.930026e-06 1.4621102e-05 8.302406e-06 7.741855e-06 1.4204191e-05 9.703188e-06 4.7840385e-06 1.6314401e-05
5.1987713e-06 1.0451924e-05 1.4123244e-05 9.466768e-06 7.0372193e-06 1.3697699e-05 6.838466e-06 1.5216913e-05
6.6580833e-06 3.3075474e-05 2.1282196e-05 1.29655855e-05 2.2853546e-05 2.248246e-05 3.200218e-05 1.0947505e-05
1.48067575e-05 1.1864016e-05 1.307573e-05 1.2510594e-05 3.0130506e-05 1.9874235e-05 8.5943875e-06 2.5694164e-05
00000000: 7ea0 fb37 beb7 be37 bc8a d037 1046 d937
00000010: acc6 f337 311e 4937 e787 e037 004b a237
00000020: 14df f237 e8ce a237 44ca e037 e3d9 c037
00000030: 160a be37 e0b7 1938 6340 d537 8bd3 a537
00000040: a2c7 a537 ebfb 9e37 6114 cf37 89fc a937
00000050: 6ccf 0137 df6b b237 cf24 4837 d730 4737
00000060: b970 ae37 c736 7a37 7c44 dc36 7025 7b37
00000070: 0e58 2937 e32c 8937 c3c1 8d37 1a28 2738
00000080: c641 0d38 e5bc de37 ad12 2138 01b4 1038
00000090: 444d 3838 eddf d537 ff56 5c38 d9f2 e137
000000a0: 2681 3c38 fe45 0e38 c38e 4838 a468 3538
000000b0: 465b ad37 0682 1238 47e0 0938 7751 2438
000000c0: 18ca 4038 5c95 fc37 88a7 5d37 a50b 4238
000000d0: 8154 8d37 ed3c b137 ee9a 2a38 1d95 e837
000000e0: fe79 9337 3025 2938 c0ca a437 ac2a 2338
000000f0: e8c0 2f37 bac8 d637 772d 8e37 d16d b737
00000100: 46de a937 8bd9 9b37 41ba c237 7be8 6e37
00000110: 4cfc 9b37 967b 8237 e6d1 7c37 6fa9 6837
00000120: 4fa4 cd37 7c53 a137 be56 0e37 b5a6 c137
00000130: 4ecd 5837 2576 bb37 e0d9 c637 81d4 a137
00000140: 5592 0037 da96 d237 622d 2637 a8bc 8c37
00000150: 3a03 b337 45f1 8637 f2f1 3237 87b7 b637
00000160: e8f6 4a37 5f8b cc37 7fa5 8936 584f 0c37
00000170: f37e 6b36 e5cb cb36 de4a c336 19ae 9136
00000180: 509a 9d36 912f 2936 fe52 d136 15af 2736
00000190: 0848 9936 cc7b 7936 a8dc a436 8eb8 a136
000001a0: 3102 4c36 5255 a836 5a07 7d36 eace b436
000001b0: 0005 a636 9fff 8936 7a8e ff35 5333 9a36
000001c0: 5c36 4936 0e5d 3d36 8d06 9636 6eb9 8f36
000001d0: 34fb 0936 ebe9 8136 8459 3e36 f621 9036
000001e0: 34e4 5a37 87b5 0b38 867b d037 b674 9a37
000001f0: 5d64 d037 ecd3 9e37 f647 e637 fef8 4e37
00000200: 6d95 e237 2288 5537 13b3 be37 36d4 9b37
00000210: a86c ed37 3739 bb37 04d0 4b37 fa76 bc37
00000220: 5fca 9b37 6d06 db37 49ca e937 33f5 c337
00000230: ec8d 2237 458d ea37 88b5 5637 96ca 6737
00000240: f03e d937 48a9 9337 f234 3337 b0e3 d137
00000250: d6a5 6b37 afcb ce37 1ebd e236 6b8e 6037
00000260: 483e 7037 f086 3137 cc3a 6d37 8a7b 2a37
00000270: ac93 8237 6ad6 2337 feb3 6d37 6df5 2b37
00000280: f963 4d37 b4ab 4537 0220 4f37 bc5d 3637
00000290: 9b4b ce36 8979 3537 6eec 1637 50c0 7437
000002a0: bbc9 8937 2933 6237 2aed c136 a1e3 8937
000002b0: a85c f636 8749 ed36 185f 6f37 b4c9 4237
000002c0: 7569 ed36 392a 6e37 ead5 ff36 117a 5937
000002d0: b083 4637 086e e337 6412 b937 af6e d737
000002e0: 1da0 e537 be30 ab37 005f 0838 c002 7137
000002f0: d120 1038 cfbb 7a37 8cb7 f837 3704 aa37
00000300: 20dd 0c38 9c33 0538 6cb2 2237 e8a9 d837
00000310: 3d6d b237 f894 0238 1594 1d38 07c0 dc37
00000320: b746 7a37 0342 0838 ef27 8337 2ed7 7837
00000330: 2386 0038 f1bb bf37 49cd 7e37 e356 e337
00000340: 0e42 6b37 f40f ed37 a67b bd36 83eb aa37
00000350: 82ad 2637 da8e a037 a66f 4737 e6fa 0f37
00000360: 867f 7837 3671 9836 87b2 9b37 7d43 a536
00000370: 7bc3 5e37 f29c 2a37 4b6f 8137 406a 4237
00000380: abde 8336 284d 7537 904a 0b37 04e3 0137
00000390: 894e 6e37 e0ca 2237 9486 a036 e9da 8837
000003a0: 1b71 ae36 ac5a 2f37 dff2 6c37 75d3 1e37
000003b0: 4121 ec36 2bcf 6537 fa75 e536 254c 7f37
000003c0: 8068 df36 85ba 0a38 2b87 b237 c486 5937
000003d0: 9eb5 bf37 b798 bc37 143a 0638 2dab 3737
000003e0: 8a6a 7837 900b 4737 d55f 5b37 98e4 5137
000003f0: c5c0 fc37 98b7 a637 9d30 1037 cc89 d737

exp_avg f4 [128]
0.0002674774 -0.0014109717 -0.0003943753 -0.00065450947 -0.0008712177 -0.00058751355 8.0866404e-05 -2.6872665e-05
-0.00064898795 -0.00043100186 -0.0009680769 1.2119145e-05 -8.2924555e-05 -0.00085336587 -0.0004760565 0.000549189
0.0003434473 1.5817399e-05 0.00042878883 -0.00043351416 0.0006709537 -0.000110504465 -0.000907076 -9.1674556e-05
-0.0007044216 -0.0007729216 -0.0007884851 -0.00028353106 -0.0005226721 0.0009497807 -0.0006686231 0.00059327186
-0.0013589875 -0.0011556234 0.00033382382 -3.2821164e-05 -4.7606038e-05 -2.968217e-05 -0.0006842783 0.00066804735
-2.532872e-05 -0.00014100892 -0.0010022207 0.0004078582 0.00018115256 6.742119e-05 -0.00096408214 -0.0008593358
-0.00050386175 0.0013881584 -0.0009912958 0.00024691026 -0.0007911235 -0.0007828665 -0.0005406205 0.00026414305
-0.0007040903 0.00024255551 -0.0002826707 -0.00018148003 -0.00096711505 8.912212e-05 -3.4688295e-05 -0.00037883394
-0.0003545788 9.462144e-05 -0.00082814414 5.848231e-05 -0.00039259373 0.00031511698 0.0013679987 -0.0005494539
-0.00077804766 -0.00041229368 -0.0020491704 0.00024161294 -6.818326e-05 0.0009009725 -0.0004857603 -0.0003193124
-0.00026759447 0.0014507812 -4.4493227e-05 0.0010149375 -0.00047293986 -0.00033352408 0.00050128764 -2.2418417e-05
0.00022840624 0.0014744551 0.00098537 0.00017577497 -0.0019605295 0.0024730675 -0.00014896538 0.00037920914
-0.0004934136 -0.0012888642 -0.00020892911 0.000576208 0.00058472966 0.0011310141 0.0006932679 -0.0007602943
-0.000335881 -0.0016284839 -0.00077552686 -0.0005446166 -0.0008295953 -0.00042859188 -0.0004010598 0.00017285685
0.00024297646 -0.0008923831 0.001147227 -0.00043549115 -0.0019417746 -0.0006450831 0.00089378294 -0.00070199993
0.00028391357 -0.00023603962 -0.0011401313 0.0014501463 -0.00063126313 -0.00045148534 0.0009745879 -0.00019944571
00000000: 353c 8c39 5bf0 b8ba 28c4 ceb9 6393 2bba
00000010: 6e62 64ba 5e03 1aba d296 a938 9c6c e1b7
00000020: d820 2aba 17f8 e1b9 8bc6 7dba 5553 4b37
00000030: c8e7 adb8 6ab4 5fba 3997 f9b9 73f7 0f3a
00000040: b710 b439 9baf 8437 10cf e039 4949 e3b9
00000050: f1e2 2f3a a2be e7b8 d7c8 6dba 6741 c0b8
00000060: efa8 38ba e49d 4aba 57b2 4eba e5a6 94b9
00000070: ee03 09ba b4fa 783a 8946 2fba cd85 1b3a
00000080: 0e20 b2ba 4978 97ba 1305 af39 75a9 09b8
00000090: 98ac 47b8 fafd f8b7 2461 33ba e61f 2f3a
000000a0: 0379 d4b7 cbdb 13b9 f25c 83ba cdd5 d539
000000b0: c5f3 3d39 7a64 8d38 75ba 7cba 0d45 61ba
000000c0: 9715 04ba def2 b53a 5eee 81ba bc73 8139
000000d0: 6663 4fba 4839 4dba 6db8 0dba ae7c 8a39
000000e0: b392 38ba 8056 7e39 6b33 94b9 ad4b 3eb9
000000f0: fe85 7dba 13e7 ba38 467e 11b8 3b9e c6b9
00000100: c3e6 b9b9 806f c638 d017 59ba e74a 7538
00000110: 0ad5 cdb9 4936 a539 6b4e b33a 3a09 10ba
00000120: e5f5 4bba 1f29 d8b9 604b 06bb 7b59 7d39
00000130: 9cfd 8eb8 3e2f 6c3a a5ad feb9 6369 a7b9
00000140: ec4b 8cb9 2428 be3a 3d9e 3ab8 a707 853a
00000150: eaf4 f7b9 d8dc aeb9 d868 033a 2f0f bcb7
00000160: 5580 6f39 8142 c13a 8827 813a 3c50 3839
00000170: 3a7c 00bb 3013 223b 9733 1cb9 97d0 c639
00000180: 6d58 01ba 1bef a8ba fb13 5bb9 aa0c 173a
00000190: 8b48 193a 893e 943a 6cbc 353a 7d4e 47ba
000001a0: 2f19 b0b9 da72 d5ba ba4c 4bba 9ac4 0eba
000001b0: 3379 59ba a1b4 e0b9 5645 d2b9 e840 3539
000001c0: 7fc7 7e39 d1ee 69ba 8d5e 963a a252 e4b9
000001d0: 2583 feba cb1a 29ba c24c 6a3a 6b06 38ba
000001e0: 3cda 9439 6781 77b9 7570 95ba d612 be3a
000001f0: 5a7b 25ba 56b5 ecb9 7d7b 7f3a 4d22 51b9
