training/runs/WalkBot/nn/last_WalkBot_ep_175_rew_17.95512.pth (torch, 267394 bytes, 30 tensors)

running_mean f8 [30]
000000 c9 e2 c4 fd 68 66 c7 3f 4b f9 c2 97 f7 7a c6 bf
       0.1828128089053023 -0.1756276598952787
000010 61 b5 8d 03 21 82 b4 bf d2 2d e2 a9 c2 ba d4 bf
       -0.08011061035877766 -0.32389895048319517
000020 d2 c3 cf 28 f9 00 d0 bf 85 06 ce 72 29 95 bd bf
       -0.25005940423494366 -0.11555728009082074
000030 f6 b3 d5 f6 e9 5f a7 3f 7a 86 66 15 ea 6e 11 40
       0.04565364015693511 4.358314833052299
000040 eb c4 41 5e 0a 11 fa 3f 01 87 89 be fc 5f 12 c0
       1.62916027850252 -4.59373758043671
000050 3b 17 8a 1e 9a 46 a5 bf 78 d6 e7 5f 84 70 9e bf
       -0.04155427573009126 -0.02972609362946918
000060 d3 ec 2c 1f 4a b3 a6 bf e5 6e 25 36 69 6c de bf
       -0.044336620622254984 -0.4753668812534058
000070 70 c7 8d ab 14 0a d9 3f 2e d9 70 8b db 25 a9 3f
       0.3912402797060315 0.04911695553930638
000080 c8 17 31 c5 70 61 d7 bf fe 2f 0c 38 ab 7b e0 3f
       -0.3653222966862555 0.5150962919883566
000090 a6 fb a5 f8 88 fe af bf f1 48 3d 1f 1b 1d 83 bf
       -0.06248882327326237 -0.009332858935213713
0000a0 5f f3 5d 96 c6 89 a0 3f 0e 36 e7 fd f1 26 93 3f
       0.032301145415636105 0.018703251955051008
0000b0 5a a4 39 aa 98 16 92 bf 29 6d c2 63 17 f6 b8 bf
       -0.017664323224753843 -0.09750505624326834
0000c0 1e b4 a1 d8 75 39 9d 3f c6 fd 45 84 27 f2 bd bf
       0.0285395062896222 -0.11697623233157292
0000d0 de 34 fa db f5 2f cc 3f dd 16 c1 60 01 d6 a6 bf
       0.22021363488275986 -0.044601481495687635
0000e0 c5 0e 4a e5 9f d8 d5 bf 02 87 e9 bb 5c 44 b9 3f
       -0.34134671584636705 0.09869937503529161

running_var f8 [30]
000000 58 65 aa 10 57 0e 3d 3f c8 02 83 2a ad de a4 3f
       0.00044335961926263634 0.04076138633673093
000010 04 98 f3 ff 72 3e bc 3f 68 80 e9 27 15 65 b0 3f
       0.1103278994447408 0.06404239868561634
000020 6a 9f cd 5c 11 3e 25 40 e7 67 9b b2 88 d8 15 40
       10.621226215458325 5.46145896028063
000030 b2 59 a7 59 c3 62 2c 40 72 11 3b bb 16 0a 04 40
       14.192896653822434 2.504926169147603
000040 6a 34 48 cc 6f e7 b0 3f 1c 18 e5 2b c0 f4 f2 3f
       0.0660314439521287 1.1847535814899919
000050 62 c7 3b a5 99 7c b2 3f 43 6d 73 2b 53 0d b1 3f
       0.07221374782582538 0.0666095715600266
000060 61 c5 1b e8 90 62 b0 3f 25 6e 06 e6 39 9b b9 3f
       0.06400399843893957 0.10002481332633602
000070 58 c7 de 93 92 b8 a9 3f 88 8e 2e e0 bc 27 aa 3f
       0.05023630194717893 0.05108442532153129
000080 17 55 05 1d 67 d5 a7 3f a3 81 5e 09 25 de bf 3f
       0.0465500090528314 0.12448340872516055
000090 d2 a7 5b af da ec 0a 40 27 09 28 47 99 9b 11 40
       3.365651483521085 4.401951896494473
0000a0 1a 8e 3a de 2d 22 13 40 58 e0 e5 b4 c6 71 08 40
       4.783378097843093 3.0555547840740864
0000b0 1a 3f 6d b2 5a 6d 05 40 85 34 0a 7d c0 9b 11 40
       2.6783956470097907 4.402101472614167
0000c0 35 30 e2 3a 3f 52 e4 3f 63 aa f9 ff 0e e0 e2 3f
       0.635039916045122 0.589850902511284
0000d0 20 1a ee e5 26 27 e2 3f 4b c0 99 3c 34 ad e4 3f
       0.5672792902776713 0.6461430724721223
0000e0 ec 65 c2 ba f2 59 d9 3f 8b cb 97 1c 6f 12 e6 3f
       0.39611500013560774 0.6897502478080794

count f8 []
000000 00 00 00 20 00 e0 65 41
       11468801.0

running_mean f8 [1]
000000 12 66 d9 ce 68 ec f5 3f
       1.3702171402022754

running_var f8 [1]
000000 6a 61 53 02 45 9a f6 3f
       1.412663468441759

count f8 []
000000 00 00 00 80 00 e0 45 41
       2867201.0

a2c_network.sigma f4 [6]
000000 8b e6 95 bf 48 ca 81 bf 93 e0 01 bf aa 3a 9b bf
       -1.1710981 -1.0139856 -0.507333 -1.2127278
000010 06 0d 92 bf ca a3 2a bf
       -1.1410224 -0.6665617

a2c_network.actor_mlp.0.weight f4 [128, 30]
000000 25 4e 74 3e a2 46 e6 be 97 4a f9 3d 5c 6e 26 3e
       0.23857935 -0.44975764 0.1217243 0.16253036
000010 9d 19 55 bd 84 d7 22 3e 53 9c 2a 3e 04 10 94 3c
       -0.05202638 0.15902525 0.16661195 0.018074043
000020 55 97 54 3e ed 6e b7 3d 62 b5 08 bd 81 15 25 3c
       0.20760854 0.08956704 -0.033376105 0.010075928
000030 f5 92 91 3e 05 7d 4f 3e 55 ab 0f 3e bc 20 a2 be
       0.28432432 0.20262535 0.14030202 -0.316656
000040 54 32 77 3d eb 62 9c bd bf 00 2c 3e ea bf a7 bd
       0.06035073 -0.076360546 0.1679716 -0.081909016
000050 5b 41 0c be 21 23 3d bd 1a 10 49 bc bb 38 11 3e
       -0.13696806 -0.04617608 -0.012271905 0.14181797
000060 7f 5b 0a 3e 43 53 d1 3c 0b 9d 4e 3d 34 ce 09 3d
       0.13511465 0.025552398 0.050442737 0.033643916
000070 23 0c 19 3e 94 4b 70 bd 7b df 58 bc 1f da 83 be
       0.14946036 -0.058665827 -0.013236876 -0.2575235
000080 bb f6 e4 3d 90 cc c7 be a0 69 b7 bd 40 d5 fb 3d
       0.111798726 -0.39023256 -0.08955693 0.122965336
000090 3d e6 1e 3e d2 ed fb bd 26 78 92 be 07 89 3f bd
       0.15517516 -0.1230122 -0.2860729 -0.04676154
0000a0 56 28 52 3e 66 1a f8 3d 9d df 16 3e 21 b0 ff be
       0.205232 0.1211441 0.14733739 -0.49939063
0000b0 27 87 3c be 24 02 7d bd b9 93 d0 be ea de 95 be
       -0.18410932 -0.06176962 -0.40737703 -0.29271632
0000c0 9f e0 83 be bd f5 18 3e cb a4 fc bd a3 71 54 be
       -0.2575731 0.14937492 -0.12336119 -0.20746474
0000d0 23 25 77 3e dd 3a 9d bd e9 e5 8a 3d 67 8d ed bc
       0.2413526 -0.07677243 0.06782133 -0.02899809
0000e0 32 19 04 3d 9e cb 8e bd f1 21 8d bd f2 b3 3c 3e
       0.03225059 -0.06972431 -0.068912394 0.18428019
0000f0 7a 64 05 3e 24 48 40 3e b0 9e 1c bd 6b c9 34 3e
       0.1302661 0.1877752 -0.038237274 0.1765496
000100 1f 30 e9 bd da e3 62 be cf 8a d9 3d 73 b0 50 be
       -0.113861315 -0.22157231 0.10622179 -0.2037981
000110 8c 7e 82 bb 1e a2 6e be 82 ea 45 bd 35 d8 1a 3d
       -0.0039823707 -0.2330403 -0.048319347 0.037803847
000120 ad 94 a5 3b 75 fa a6 be 43 de 68 bd b6 50 42 be
       0.005053124 -0.3261296 -0.05685259 -0.18976101
000130 f7 78 7a be ca fb 47 be ac 84 bd bd ae 49 0d be
       -0.24460207 -0.19529644 -0.09253821 -0.13797638
000140 63 8c c1 3d 4d bc cc 3d 94 72 89 3c 2f ce a8 bd
       0.09450605 0.09996853 0.016778268 -0.082424514
000150 f2 89 ba bd 0a 00 56 bd 23 8b b3 3d 60 d4 55 be
       -0.09108342 -0.05224613 0.087667726 -0.20881796
000160 21 39 02 be 40 2d 10 be 0b 6b 7b 3e 42 72 82 bc
       -0.12717105 -0.14079762 0.24552552 -0.015923623
000170 19 e5 81 3e 97 16 58 be e2 e9 39 bd f9 d4 04 3e
       0.253701 -0.21102367 -0.045389064 0.12971868
000180 e6 ba 68 bd f6 49 44 3a d7 15 e9 bc 07 42 09 be
       -0.056818865 0.00074878277 -0.028452797 -0.13404094
000190 40 a8 bf 3e ca 7a 01 3e 44 1b 14 bd af b2 94 3e
       0.37433052 0.12644497 -0.036158815 0.29042575
0001a0 70 8b a1 3d ab b1 5a 3d 75 d3 f4 bd d5 1f a3 be
       0.07887924 0.053392094 -0.11954395 -0.31860223
0001b0 ac 84 8e bd 3f 82 2a 3d 4f 56 38 3d 2e 34 ef bc
       -0.06958899 0.04162812 0.045004185 -0.029199686
0001c0 3d 9e 91 3e 03 a7 12 be 1e 26 7c bd d3 29 f8 bd
       0.2844104 -0.14321522 -0.06155979 -0.12117352
0001d0 14 46 8b 3e 8e ec 07 3e 34 c1 9b 3e 5d 68 5b bd
       0.27201903 0.13273832 0.3042084 -0.053566325
0001e0 f2 a5 9f 3c 81 08 ab be 59 5a 80 bd c8 86 09 be
       0.019488309 -0.33404925 -0.062672324 -0.13430321
0001f0 c7 53 f9 3c 94 bb 64 be 30 0d 1b 3e 05 35 14 3e
       0.030435456 -0.2233718 0.1514175 0.1447335
000200 04 df 84 be 4c ec 5c 3d 41 5d be 3e 01 20 2d 3e
       -0.25951397 0.053936288 0.37180522 0.1690674
000210 55 da 2b 3e bc a1 b5 be ae 9d 97 be 4f 8c 30 bd
       0.16782506 -0.35474956 -0.29612488 -0.04310256
000220 e4 e3 87 bd 9d 12 5e bd 63 70 ab 3d 01 c6 2d be
       -0.066352636 -0.05421697 0.083710454 -0.16970064
000230 0f 24 93 3b 3d 65 3c bd 6f a3 f7 3d 1d 47 9a 3d
       0.0044903825 -0.045994986 0.12091719 0.07533095
000240 db 80 ee bd d5 8d 2e 3e c8 01 61 bc ae 91 e3 bc
       -0.11645671 0.17046292 -0.013733335 -0.027779426
000250 60 88 01 3e 21 8f 0f be 02 fa b8 3e bb 39 3e be
       0.12649679 -0.14019443 0.3612824 -0.1857671
000260 b4 ad 74 3e 76 cc 2c bd fb d7 58 3e 44 bc 11 3e
       0.23894387 -0.042187177 0.2117614 0.14231974
000270 26 69 3f 3d 76 12 50 bd 2d 4f c7 bb 20 dd 77 ba
       0.046731137 -0.050798856 -0.0060824365 -0.00094552524
000280 82 bc 86 ba a8 37 30 be 7c 86 ce 3d 15 7b 7b 3e
       -0.0010279568 -0.17208731 0.100842446 0.24558671
000290 5a ce 56 be e5 fc df bd 9e 4f 0d 3d 95 e3 5c 3e
       -0.20977154 -0.10936908 0.034499757 0.2157119
0002a0 f7 55 15 3e f0 bc 4d 3e 13 8e c1 bd 9d 30 e9 3c
       0.14583574 0.20091605 -0.09450927 0.028465563
0002b0 6c a6 15 3e c3 3c 32 bd 17 ec 36 be da dc 31 be
       0.14614266 -0.04351498 -0.17863499 -0.17369404
0002c0 0c 3a 18 3d 9d d5 56 be f9 35 b9 bd 80 b2 ef bd
       0.037164733 -0.20979924 -0.090434976 -0.11703968
0002d0 21 74 bc 3d 01 17 5c 3d 5d a5 05 be cf 44 19 be
       0.09201837 0.053732876 -0.13051362 -0.14967655
0002e0 65 4c 0f be 1c d7 d0 bc bd e3 6c 3d 0b 48 44 bd
       -0.13993986 -0.025493197 0.057834376 -0.047920268
0002f0 92 47 10 3e 8e d5 ca bd 1d f2 41 be 84 c8 a8 3d
       0.14089802 -0.099040136 -0.18940015 0.0824137
000300 37 19 b7 3b 5e a4 76 be be e9 5d be a4 85 5e be
       0.0055877226 -0.24086139 -0.21671197 -0.21730667
000310 e3 7c 0b 3e c6 73 b7 3d c1 5f 04 bc e8 7e 6d be
       0.13621859 0.08957629 -0.00807947 -0.23192942
000320 e1 dc 6c be 39 4b 33 3e dc d1 3b 3e 87 96 dc 3d
       -0.23131134 0.17509164 0.18341774 0.10770898
000330 dd be 61 3d a9 ce ac 3d 2b cf 81 bd fe fa 80 be
       0.055113662 0.08437855 -0.06338342 -0.25191492
000340 29 d3 a5 bc 7d a2 8e be f6 f2 a8 3e 8c 33 63 be
       -0.02024229 -0.27858344 0.32997864 -0.22187632
000350 d5 b2 a1 bd 54 4c e1 bd 42 68 f3 3d f6 5d 48 3d
       -0.07895438 -0.110008866 0.1188512 0.048917733
000360 37 7c 0a 3c b4 58 22 3e 95 b2 21 bd b1 18 24 3e
       0.008452467 0.1585415 -0.03947695 0.16025044
000370 4e b6 15 bc 32 7a d8 bd 01 4f e4 bd 42 08 a1 3d
       -0.009137703 -0.10570182 -0.11147881 0.07862903
000380 76 21 44 bd d7 de ee bd 9a f0 1c bd 60 0f 27 be
       -0.047883473 -0.11663597 -0.038315393 -0.16314459
000390 2f 38 62 3d 56 c7 c6 3d 0a 7e 2e 3e 1f 41 b3 bd
       0.055229362 0.09705989 0.17040268 -0.08752655
0003a0 d7 41 eb 3d 47 b4 6b bd 7d 7e 54 3e 53 b1 50 3d
       0.11487167 -0.057544973 0.20751376 0.05095036
0003b0 90 4d 1d bd 37 90 f2 3d fa a7 e2 bd d1 b8 73 bc
       -0.038404047 0.11843913 -0.11067195 -0.014875607
0003c0 69 82 23 3e c6 79 45 be eb 00 b6 3e 44 25 0b 3f
       0.15967716 -0.19284734 0.35547575 0.5435374
0003d0 b7 0f 87 3e 2a c2 0f be 7e 67 22 be aa 27 49 3e
       0.26379177 -0.14038911 -0.15859792 0.19644037
0003e0 4f dc 95 3e 70 59 c8 3d 7a 31 af be 72 a5 1c be
       0.29269645 0.09782684 -0.34217435 -0.15297487
0003f0 70 c1 a2 3d 69 ac 0d 3e 1e 3f 07 bd ab 10 7b be
       0.079470515 0.138353 -0.033019178 -0.24518077

a2c_network.actor_mlp.0.bias f4 [128]
000000 0e c9 d8 be b2 00 4c 3e ce 70 7b 3e 9c c6 89 3e
       -0.42340893 0.1992214 0.2455475 0.2690934
000010 77 51 49 3e 02 e4 f0 bd 54 fc 5c be 79 93 da bd
       0.19659983 -0.11762239 -0.2158063 -0.106726594
000020 fa 31 b7 be f7 5e fb bd 6c b2 db bc 92 b4 3c be
       -0.35780317 -0.122739725 -0.026818477 -0.18428257
000030 3a d3 3f 3e db f9 71 be 4c 06 61 3e c3 c3 67 3e
       0.1873292 -0.23630469 0.21975058 0.22633271
000040 17 09 86 3d d2 1d 8e be 00 27 90 be 97 6f dd bd
       0.065447025 -0.27757126 -0.28154755 -0.108123
000050 75 f1 5b be 05 8a 23 be 81 a5 39 be 21 d7 aa be
       -0.21478827 -0.15970619 -0.18129541 -0.33367255
000060 55 1c cf bd b5 5b 9d 3e 6c 4b 67 bd 19 ed 5d 3c
       -0.10112826 0.3073403 -0.056468412 0.013545298
000070 b4 ca 94 be 06 fa 7f be c7 a7 5f 3e ee d7 89 3c
       -0.290609 -0.2499772 0.21841346 0.016826596
000080 c2 9e a7 bd 62 3f a4 bd a9 9f 5e be cd f0 81 be
       -0.081845775 -0.08019902 -0.21740593 -0.2537903
000090 f1 0a 8d be 97 fb 8f be 04 cd 08 be 52 dc a5 be
       -0.2754741 -0.28121635 -0.13359457 -0.32394654
0000a0 7c 2e 9d 3d f7 59 8b be b1 b5 a2 bd 49 15 77 be
       0.07674882 -0.27217075 -0.07944811 -0.24129213
0000b0 eb cf ad bd c8 d3 75 bd 30 83 63 3d 45 ce 44 be
       -0.08486923 -0.060016423 0.055545032 -0.1921931
0000c0 f5 27 2f be bf 2c 40 be 7e 77 55 be 22 0f 63 be
       -0.17105086 -0.1876707 -0.20846364 -0.22173741
0000d0 8d 3a 55 3e 06 4d 2c bd a1 0e 11 3d e0 af be be
       0.20823117 -0.042065643 0.03541434 -0.37243557
0000e0 e3 3b d5 be 8f a0 61 be 0f 3b 29 be 4c 58 dd bc
       -0.41647252 -0.22033904 -0.16526435 -0.027019642
0000f0 0f a8 23 be f5 42 89 3e 1f 87 69 3e 23 79 a8 be
       -0.15982078 0.26808897 0.22805451 -0.3290492
000100 df 34 64 3d e3 34 81 3e 07 51 86 3e 49 60 7d bd
       0.055714484 0.25235662 0.26233694 -0.061859403
000110 a4 87 af bd f2 b2 d7 be 02 ad a9 bd b0 1e 3c be
       -0.08570793 -0.42128712 -0.08284952 -0.18371081
000120 12 2f c0 3d dd 1f 25 be 80 89 9f 3e dc 20 0d be
       0.09383978 -0.16125436 0.31159592 -0.13782066
000130 c3 8e ad be 93 2a dd be e1 93 e1 3b eb c7 bb 3d
       -0.3389798 -0.43196544 0.0068840836 0.09168991
000140 de 27 b1 3d 56 c8 a6 be 5a 17 13 3e d4 c2 45 3d
       0.08650182 -0.3257472 0.14364377 0.048281506
000150 d3 7e 93 3d 36 5d 5d 3e 4b 1a 1b 3e 35 1e 36 3d
       0.07201924 0.21617588 0.15146749 0.0444624
000160 d1 8a c1 3d 44 f3 4d be 26 7a ed bc 44 32 df be
       0.09450305 -0.2011233 -0.028988909 -0.43593037
000170 0e 44 0d 3e 66 f4 9e be 6a 29 46 be a6 9d ab bd
       0.13795492 -0.31045836 -0.19351736 -0.083796784
000180 f0 59 10 3e 0e 6f c3 be 04 93 9f 3c b2 86 99 be
       0.14096808 -0.38170666 0.019479282 -0.29985577
000190 4c 59 0c be 14 fd 07 bd 86 ec 85 be eb 98 1b bd
       -0.13705939 -0.03320034 -0.26157016 -0.03798763
0001a0 44 24 9e be 26 24 e7 bd 99 e3 55 3e 9d 88 73 be
       -0.30887043 -0.11286192 0.20887603 -0.23782583
0001b0 68 df 33 be e1 cf 3f 3e d3 93 a1 3d 6c fa 8b 3e
       -0.17565691 0.18731643 0.07889523 0.27339494
0001c0 e1 aa 1a bd b2 ca 89 be 4e 3c d9 3d 7b 5e 6c 3d
       -0.03776062 -0.26912457 0.10607205 0.05770729
0001d0 ff f6 00 be 99 a9 85 3e 40 6b 70 be 20 2f 32 bb
       -0.12594222 0.26105955 -0.23478413 -0.0027188733
0001e0 45 b9 be 3d 29 df 75 3e e2 3d 55 3d 73 14 a1 be
       0.09312681 0.2401091 0.05206097 -0.31460914
0001f0 ca dc 36 3e 57 fd 7b be 1b c4 07 3e 9e 8f 64 be
       0.17857662 -0.2460836 0.13258402 -0.2232041

a2c_network.actor_mlp.2.weight f4 [128, 128]
000000 7c 98 8c 3e b3 fe ba be 52 a3 71 bc 16 53 b5 bd
       0.27460086 -0.36522445 -0.014748411 -0.08853738
000010 d2 2c 5e be d4 ff 6f 3e 5b 87 18 3d e8 40 82 3d
       -0.21696785 0.23437434 0.03723846 0.06360036
000020 12 71 56 3e 32 a1 6d bd f0 da 8e bd ae b8 20 be
       0.2094157 -0.058015056 -0.06975353 -0.1569545
000030 c8 a5 0c 3d 79 2a 1f 3e 3c 98 18 be 0e b7 5e bd
       0.03433779 0.15543546 -0.14901823 -0.054373793
000040 11 84 b2 3d b7 09 ff 3d 92 70 38 3e b7 8a 3a be
       0.08716596 0.12453025 0.18011692 -0.18216978
000050 f8 35 90 3e e6 9b 89 3d 6a 84 49 3d 84 7c 38 3e
       0.28166175 0.067191884 0.049198546 0.18016249
000060 33 cc 2f be 28 f7 82 bd 32 ca 35 bd b8 b9 ac 3d
       -0.1716774 -0.063947976 -0.04438228 0.084338605
000070 ee 6c 21 3e 8f 6d d4 3d 86 16 0a be 7a 9e 7e bd
       0.1576421 0.10372459 -0.13485155 -0.062162854
000080 84 bb cc bc ce d8 3e be 7e 0d 7c 3e 39 6c e5 bd
       -0.024991758 -0.18637392 0.24614522 -0.112022825
000090 68 b4 ee 3d 0b fa d1 3d 61 77 90 3d f9 ef 7b 3e
       0.116555035 0.1025277 0.0705402 0.24603261
0000a0 10 18 61 3d fd 0a 6c 3d f5 90 93 3d a2 84 0b 3e
       0.05495459 0.057627667 0.07205383 0.13624814
0000b0 1c 28 52 3d f6 06 51 bd 09 3b 2b be 4e 5b 09 3c
       0.051307783 -0.05103203 -0.16721739 0.008383585
0000c0 6a 7d a7 3d 6e c5 26 3e 9b a8 83 bd 28 9c c8 bc
       0.08178218 0.16286251 -0.06428643 -0.024488524
0000d0 4f 07 df bd c5 74 60 3e 7b 21 6a bd 6e 5c 7d 3e
       -0.10890066 0.21919544 -0.057160836 0.2474229
0000e0 40 17 8a 3d 8e e1 33 3e 23 f7 47 3d cb a2 5e bd
       0.06742716 0.17566511 0.048819672 -0.05435447
0000f0 cd 81 cc 3c 41 c3 81 bb 77 bc d4 bd ff e2 7c 3e
       0.024964238 -0.0039600437 -0.10387509 0.24695967
000100 ad 55 c5 bd b2 7e 67 3c c5 ed ba bd ae fa 02 be
       -0.09635482 0.014129328 -0.09127382 -0.12790939
000110 fa 04 bc 3d 7b 70 c2 3d ff 69 22 3e a6 3a aa 3d
       0.09180637 0.0949411 0.15860747 0.083119676
000120 5a 4f f2 bd 83 72 88 3d 37 f5 22 be 68 53 05 bd
       -0.11831541 0.066624664 -0.15913855 -0.032550246
000130 28 02 35 3e 70 83 fe 3d 66 b7 af 3c 1d a6 85 be
       0.17676604 0.124274135 0.021449756 -0.26103297
000140 d2 17 ba bd ba 5f 87 3e f8 56 dd bd ee 0c 43 bd
       -0.090865746 0.2644022 -0.108076036 -0.047619753
000150 1f 92 9b 3d 3a 76 52 bd ed 78 48 bd 69 03 34 be
       0.0759623 -0.05138228 -0.04894345 -0.17579426
000160 e8 0e af be 98 9e e5 3d 8e 78 55 bb a3 c9 ae bc
       -0.3419106 0.1121189 -0.0032573077 -0.021336382
000170 d1 2b 83 be 44 a7 6a 3e 84 bf 13 be 39 61 76 bc
       -0.25619367 0.2291537 -0.14428526 -0.015037828
000180 ca 60 2d be b5 54 ed 3d 8a 9f 42 be 88 39 c4 3d
       -0.16931453 0.11588422 -0.19006172 0.09581286
000190 40 68 14 3e 20 f0 04 3e 36 46 c2 3d af 28 c7 3d
       0.14492893 0.12982225 0.09486048 0.09724557
0001a0 33 48 a1 3c 66 90 51 3c c7 c2 19 be 04 99 78 bd
       0.019687748 0.012790775 -0.15015708 -0.060692802
0001b0 98 6d 6d bd 90 65 5d be 1d 3c d7 bd aa da e5 bd
       -0.057965845 -0.21620774 -0.105095126 -0.112233475
0001c0 cd 25 50 bd ac bf 5f 3e 16 d0 20 be 8b 89 37 bc
       -0.0508173 0.21850461 -0.15704378 -0.011202226
0001d0 67 35 b9 3d 6e 50 af bd 72 6f 57 3d ef 66 b2 3d
       0.09043389 -0.085602626 0.052596517 0.08711039
0001e0 19 d0 9e 37 4f 8c d4 bd 94 41 16 bd 1a a8 1a bd
       1.893197e-05 -0.10378324 -0.036683634 -0.03775797
0001f0 ec d4 5f bc aa 73 40 3d 53 ad 64 be 0a 1c e5 bc
       -0.013661604 0.046985306 -0.22331743 -0.027967472
000200 a6 dd c5 bc 20 bf d6 bc cb 71 f5 bc 08 72 64 bc
       -0.024153542 -0.026214182 -0.029961487 -0.013943203
000210 71 7c e0 bc 1c 20 03 3d 0b cd 1b bc 98 34 1f 3d
       -0.027403088 0.032013044 -0.009509335 0.038868517
000220 65 a0 eb 3b 06 f0 b1 bd ba d7 13 be 60 62 ed 3a
       0.0071907514 -0.08688359 -0.14437762 0.0018110983
000230 f2 d5 81 3d 13 d0 52 3d 77 de 80 3d bb e4 04 be
       0.06339635 0.051467966 0.06292432 -0.12977879
000240 9e ae 7d 3c e5 bb af 3d 63 69 a4 3c fe 5c 25 bd
       0.0154835265 0.0858076 0.020069784 -0.040371887
000250 e1 ca 12 3c 37 62 1f 3e 7b 39 dc bd c8 01 26 bd
       0.008959503 0.1556481 -0.10753151 -0.040529042
000260 49 1e c4 3d 35 10 05 be ce a8 06 bd 99 92 96 bd
       0.09576089 -0.12994464 -0.03287583 -0.0735218
000270 0d 6c 7c 3c 81 a9 b0 3c da 1c 65 bd 31 e6 ce bc
       0.015406621 0.0215652 -0.055935718 -0.025256248
000280 3f 93 41 3d 6c a9 cf 3d ae 22 39 3e 89 93 1b bd
       0.047259565 0.101397365 0.18079636 -0.037982497
000290 78 75 7a 3d ec 84 c9 bd 6b 48 cf 3d e0 52 0d 3e
       0.061147183 -0.09839806 0.101212345 0.13801146
0002a0 4a e9 53 3d a9 dd a1 bc 60 6b 8d 3d 2a b3 65 bd
       0.051736154 -0.019759016 0.06905246 -0.056079067
0002b0 4b 93 5e 3d 8e 29 5c 3c 51 f5 a9 bd 70 38 ff bc
       0.05433969 0.013437642 -0.082987435 -0.031154841
0002c0 24 53 f3 bb ea 61 10 3d a0 ce 0e 3d 9c 28 64 3d
       -0.0074256826 0.035249628 0.03486502 0.05570279
0002d0 1e a3 0d 3b 84 99 4d 3e f4 52 a6 3d c5 7c df 3d
       0.0021612118 0.20078093 0.08121291 0.1091247
0002e0 bb 64 a8 3d 9b 39 06 bd 47 6e 8a bd 9a f3 23 3d
       0.08222338 -0.03276978 -0.06759315 0.04002724
0002f0 58 2e e1 3d b7 c8 88 bd e3 30 08 bd 6b d7 13 bd
       0.109951675 -0.06678908 -0.033249747 -0.03609411
000300 a0 1d 14 3e 91 f8 1f 3e 3e 4b aa 3c 86 e7 1f 3d
       0.14464426 0.15622164 0.020787831 0.039039157
000310 7f 91 5b 3c 1b 39 93 39 67 3b e6 bb af bf 1c 3d
       0.013401388 0.00028080572 -0.0070261243 0.03826874
000320 28 b3 a9 bc ca 19 c7 bd df bd d4 3c ad a7 c7 3c
       -0.020715311 -0.09721716 0.025969444 0.024371946
000330 7e c4 20 3c fa 7f 7a 3b 07 75 8e bc 62 30 9d 3d
       0.009812472 0.0038223253 -0.017389787 0.07675244
000340 bb 8b 8e bd 5a 92 a7 3d 92 12 24 3d 31 b4 11 bd
       -0.06960245 0.08182211 0.040056773 -0.035572235
000350 da 69 0b be 44 3c 6d bd 90 6a 76 bd 85 5e 06 3e
       -0.13614598 -0.057918802 -0.06016022 0.13121994
000360 c8 97 f7 3d 4a af 9b bd d6 d2 05 3d bc 8d 37 3d
       0.12089497 -0.07601793 0.032671772 0.044812903
000370 e2 d7 d7 3d a5 26 40 bc 0d e7 d3 bd 71 82 90 bd
       0.10539223 -0.011727964 -0.10346804 -0.0705613
000380 7c 7f a9 3d 4b 95 3a 3d c7 83 a0 bd 9f 11 62 bc
       0.08276269 0.045552533 -0.078376345 -0.0137981465
000390 cd 60 71 3c fa 5b 95 3d 95 35 e5 3c e0 49 07 be
       0.014732552 0.07292934 0.027979651 -0.13211775
0003a0 6a 14 28 3e 8a 13 d1 bd 10 69 8b 3d e1 4b 68 3c
       0.16414037 -0.10208805 0.068071485 0.014178247
0003b0 34 ca 61 3d 72 d8 81 3d 0b 4f a4 bd 8f 88 b3 bd
       0.055124477 0.06340112 -0.08022889 -0.08766281
0003c0 7c 1d 96 3d 5e b6 13 bd 2a 1e eb 3c 64 c6 9d bd
       0.073298424 -0.03606259 0.028700907 -0.07703856
0003d0 68 f3 02 bd 7f 43 a8 3d 2a 77 61 3d 82 0e 0e be
       -0.03197041 0.08215999 0.055045284 -0.13872722
0003e0 70 96 4e 3d 98 02 c8 bd 7c fe 29 3d d7 21 02 3c
       0.050436437 -0.0976612 0.04150246 0.007942638
0003f0 09 a0 d4 3c cd bd 5c 3d 95 2a 8a 3b 55 f4 c3 3d
       0.025955217 0.053891946 0.004216502 0.09568087

a2c_network.actor_mlp.2.bias f4 [128]
000000 f6 3e 72 be 60 8b f3 bc 3c f1 97 bd de 23 b9 3d
       -0.2365683 -0.029729545 -0.07419059 0.09040044
000010 3c 29 23 bd c9 0c e9 3b de ed d5 bd 7d cd b8 bd
       -0.039834246 0.00711212 -0.1044576 -0.09023569
000020 1e 56 ce bd e7 aa 04 3d 47 02 8a be 69 95 ed bc
       -0.10075019 0.032389548 -0.26954862 -0.029001908
000030 db 40 4c be 43 28 36 be 34 bc 45 3d a6 ab 35 be
       -0.19946615 -0.17788796 0.048275188 -0.1774126
000040 ea d1 02 ba f7 7d 0e be d9 69 83 bd 14 6e dc bd
       -0.0004990386 -0.1391524 -0.06416673 -0.10763183
000050 80 3b 1c be 78 5e fd bd 5e dc 20 bd c0 ea 9b bc
       -0.15257072 -0.12371534 -0.03927266 -0.019032836
000060 3f 2d 9d 3d 2e 02 23 be 4e 74 50 be ae a3 bb bd
       0.07674646 -0.159188 -0.20356867 -0.09162079
000070 b1 b5 4b be 14 f5 2a bd 16 55 0f bd 6b 8f 01 be
       -0.19893529 -0.04173763 -0.034993254 -0.12652366
000080 d1 91 b8 bb 97 c3 24 be 48 ab 8b bd 4c c7 8e bd
       -0.005632617 -0.16090237 -0.06819779 -0.069716066
000090 7a bb a9 bd 71 39 dd 3d 16 d5 c1 bd f9 e9 4e 3d
       -0.082877114 0.10801972 -0.09464471 0.050516102
0000a0 92 d1 55 be 66 37 a9 3d 9f c7 6d 3d 6b d4 10 be
       -0.20880726 0.082625195 0.0580517 -0.14143531
0000b0 e2 95 33 3e 2c 04 15 bd 8e 0d a3 bd 7a 24 6e 3c
       0.17537645 -0.03638093 -0.0796157 0.014535064
0000c0 01 9c 00 3d 8b c3 06 be 57 90 f4 3d 0d 93 00 bd
       0.031398777 -0.13160531 0.11941593 -0.03139024
0000d0 32 8a f4 3c 9f 7c 8b 3b 54 1e 0b be 20 29 83 3d
       0.029851053 0.0042567994 -0.13585788 0.06404328
0000e0 1d a8 5e 3d 55 41 65 3d ff 11 a6 3d a2 8b 91 3d
       0.054359544 0.05597051 0.08108901 0.07106711
0000f0 fe a7 97 bd a6 f6 a3 bd 5c 41 03 be dd 39 f1 3d
       -0.07405089 -0.08006029 -0.12817901 0.11778615
000100 d4 dd dd bd 37 d5 49 be 82 49 88 bd 00 23 90 3c
       -0.10833326 -0.19710241 -0.066546455 0.017594814
000110 a2 99 6f bd 65 a3 db bc 79 bc bb bd ef 6f a4 bd
       -0.058496125 -0.026811311 -0.09166808 -0.08029162
000120 6b d1 b7 bb 72 8a 93 be 82 f2 23 3d d3 ff d9 bd
       -0.0056096814 -0.28816563 0.040026195 -0.10644498
000130 90 ee 36 be cd 56 b8 bc df 63 41 3c 7c c4 2c be
       -0.17864442 -0.022502327 0.011803596 -0.16871828
000140 bb 4c 72 be 39 8d a3 bd a5 b8 87 3c 4a fa 12 3d
       -0.23662083 -0.079859205 0.016567538 0.035883226
000150 34 a7 ad 3d 04 41 45 3d 18 4c 14 3d 01 28 de bd
       0.08479157 0.048157707 0.03620538 -0.10847474
000160 bb de 2f bd bb 46 0d be c0 fb c6 bc 77 8e 8d be
       -0.04293702 -0.13796513 -0.024289966 -0.27647755
000170 aa 07 69 be 3f 8d 80 bc 4d 1d 23 be 44 21 3e be
       -0.2275683 -0.015692351 -0.15929146 -0.18567377
000180 2c 0a f6 bd 6c 40 f4 3d a4 c5 e0 3c 51 5f fe bd
       -0.12013659 0.1192635 0.027437992 -0.12420524
000190 c7 15 12 3c a9 60 b6 3c 78 8c d2 bd 44 8d 7a bc
       0.008916325 0.022262888 -0.102806985 -0.015292469
0001a0 8b ec e3 be 93 db c2 bd 71 df 80 be 6c ab c6 3c
       -0.44516405 -0.09514537 -0.25170472 0.024251662
0001b0 e7 1f b2 bd 9f 81 44 bd 55 4c 26 bc 63 ef 10 be
       -0.08697491 -0.04797518 -0.010150035 -0.14153819
0001c0 20 52 e2 bd bc 5e aa 3d de 21 09 ba e7 86 2d 3d
       -0.1105082 0.083188504 -0.0005231182 0.04236498
0001d0 fe 48 22 be ec 8d 79 3c 51 e5 1d 3d e6 b0 f9 3c
       -0.15848157 0.015231591 0.03854877 0.03047986
0001e0 e3 c4 dc 3d 6b 23 cc bd c3 7e 7c bd 17 fa 97 be
       0.10779741 -0.09967693 -0.061644327 -0.2968299
0001f0 75 ad a1 3c 7d 31 69 be a0 be 7d bc e3 e6 c4 bd
       0.019736031 -0.22772785 -0.015487343 -0.09614351

a2c_network.value.weight f4 [1, 128]
000000 1a ea 06 be 49 d7 1e 3a 50 19 24 3d db ae d5 3d
       -0.1317524 0.00060593017 0.040063202 0.10433742
000010 38 02 73 bd 58 41 ad bc 0f ee 36 3c d5 a3 18 3d
       -0.059328288 -0.021149322 0.011165156 0.037265617
000020 82 b7 93 bd dd 1c 02 bc 00 92 54 bd 58 d0 79 3d
       -0.07212736 -0.007941452 -0.05189705 0.060989708
000030 c1 f7 33 be f5 a9 79 bd a9 56 84 bc 96 f7 ec 3b
       -0.1757498 -0.0609531 -0.016154604 0.007231663
000040 fc e8 d7 bd 36 f9 1f bd d7 5a bb 3b a0 5a 9b 3d
       -0.10542485 -0.039056025 0.005717616 0.07585645
000050 ec 4e 3d 3c 73 62 50 bd 5f 19 24 be 57 f9 14 bb
       0.011554461 -0.05087514 -0.16025303 -0.0022731626
000060 8f 73 bb 3d f8 00 e3 3c 6c be a6 3c ec 68 83 3d
       0.091529004 0.027710423 0.020354472 0.06416497
000070 1e 00 24 be e6 98 08 be 83 82 a4 bd 95 23 4e bd
       -0.1601567 -0.13339576 -0.08032706 -0.050326902
000080 d9 3b e0 bd 4d 6d 87 bc b1 e3 aa bd e2 88 75 bd
       -0.10948915 -0.01653161 -0.0834421 -0.059944995
000090 f4 5d 8a 3b 2e 5b 89 bd d5 41 a6 bc 49 ec 6d 3d
       0.004222626 -0.06706844 -0.020295063 0.058086667
0000a0 3b bd 04 be 28 c6 3d 3e ad cb c3 3d 48 ed 5b bd
       -0.1296281 0.18532622 0.095603324 -0.053693086
0000b0 27 a8 c1 3d 48 aa 6e 3d 73 89 14 3c c8 3a 13 bd
       0.09455901 0.05826786 0.009065974 -0.03594473
0000c0 4e a5 9a 3c 2f bb b1 3d cd 25 08 3e 6b fc bb 3d
       0.018877652 0.086782806 0.1329567 0.09179004
0000d0 95 8e aa 3d c5 91 cf 3c be af 0c be 90 52 11 3e
       0.083279766 0.025338063 -0.13738915 0.14191651
0000e0 6b af bb 3b 4f f6 ba 3d 8e 3a 38 bc cc de cd 3d
       0.0057276986 0.09129011 -0.011244429 0.10052261
0000f0 d8 3a 18 be 27 82 d7 bd 33 6d 11 be e1 ca 37 3d
       -0.14866197 -0.105228715 -0.14201812 0.044871215
000100 e4 9e 14 3c 66 be a0 bd 33 e2 04 3d 80 d4 55 3d
       0.009071086 -0.078488156 0.032442283 0.05220461
000110 5d 17 26 3d 6e 7d 31 bc 85 f5 07 be 04 bb d4 3d
       0.040549625 -0.010833127 -0.13277252 0.10387233
000120 a7 8e 11 be c5 ed db bd 22 ba 19 be 8a e8 86 bd
       -0.14214574 -0.1073871 -0.1501241 -0.06587322
000130 ed c3 32 3c 91 28 0d 3e da ea e8 bc 40 0f de bd
       0.01091097 0.13785006 -0.028432298 -0.108427525
000140 b2 e1 0a be 49 62 3e bd 2e 23 aa bd 97 79 b2 3d
       -0.13562658 -0.04648045 -0.08307491 0.08714598
000150 c5 d8 3e 3e 60 04 2a bd 58 3b 17 be bf 66 70 bb
       0.18637379 -0.04150808 -0.14768732 -0.0036682335
000160 64 47 5e 3d 1f 61 4b be 45 1e ea bc 0f 3d bd bb
       0.054267302 -0.19861268 -0.028578887 -0.005775101
000170 73 5d d3 bd cb e5 45 3d a6 6f fa bd 3a de 04 be
       -0.103205584 0.04831485 -0.122283265 -0.12975398
000180 58 9d 0d 3b 45 4c 0c 3e e9 ae 9c 3c 3e 98 72 3c
       0.0021608677 0.1370097 0.019126372 0.014806805
000190 c5 40 3d 3d 30 01 db bd 98 88 0c bc 3a e6 99 bc
       0.046204347 -0.10693586 -0.008577488 -0.018786538
0001a0 97 0e fe bd 48 ea dd bd ae 22 9d bc 05 67 d6 3d
       -0.124051265 -0.10835701 -0.019181576 0.10468868
0001b0 f7 83 55 bc 00 04 80 bc 57 5b 24 3d 29 31 e8 bd
       -0.013031951 -0.015626907 0.04012617 -0.113375016
0001c0 d7 d2 7a bd f1 82 ae 3d 3b 42 26 3e bc 6e 3c 3e
       -0.06123623 0.08521069 0.16236202 0.18401617
0001d0 12 92 cf bd da 23 42 3e 6a 36 4a 3a a7 0f b6 3d
       -0.101352826 0.18958989 0.0007713797 0.08889704
0001e0 56 01 fe 3d c5 92 16 be 7f 27 44 be f1 f9 02 be
       0.124025986 -0.14704426 -0.19155692 -0.12790658
0001f0 a5 87 04 3d 2d 6f 2b bd 0b bd c4 3d 85 e5 b2 bc
       0.032355923 -0.041854072 0.096063696 -0.021837959

a2c_network.mu.weight f4 [6, 128]
000000 ad 03 5c bc 46 85 d4 3a 25 d7 86 3d eb c0 9f 3c
       -0.013428611 0.0016214035 0.06584004 0.01950117
000010 ef e8 d3 3c 54 a9 d5 3d 26 4f 80 3c ad bb 1f bd
       0.025867907 0.104326874 0.01566274 -0.03899734
000020 04 b2 8d bd c7 5b 65 bc 52 47 8a 3c 9f 65 89 bd
       -0.069187194 -0.013998932 0.016879711 -0.06708836
000030 04 f7 9b 3c 9d 54 36 3d d3 81 8d 3c 59 50 3d bc
       0.019038685 0.044514287 0.01727382 -0.011554801
000040 b8 d4 57 3d 4c f3 7d 3d 77 22 15 3e 48 97 bc bb
       0.0526931 0.061999604 0.14563929 -0.005755339
000050 29 70 fd bc 09 63 4f bd b0 9d 85 3c 18 1e 47 bb
       -0.030937271 -0.050631557 0.016310543 -0.0030382928
000060 fb 25 dc 3c 60 45 b2 3d e7 04 89 bc 3a 5c 9a bc
       0.02687358 0.087046385 -0.01672597 -0.018842805
000070 44 3a 6e bd 0e d8 a2 3d ce d6 f8 bd 34 6e 12 3c
       -0.058161035 0.079513654 -0.12150346 0.008937407
000080 03 f0 1a 3d 38 e9 18 be 87 28 6f 3c d3 4b 70 3d
       0.03782655 -0.14932716 0.014597065 0.05866606
000090 b4 8a 18 3e ea cc 7f bc d6 64 5e bc 98 4f 5d 3e
       0.14896661 -0.01561282 -0.013573846 0.21612394
0000a0 c3 39 2c bd 18 0b e8 bc c6 1d 8c bc 6f 01 90 3d
       -0.042047273 -0.028325602 -0.01710404 0.070315234
0000b0 00 5f 9b 3d 16 97 96 3d bf 90 a0 bc fa d5 08 bd
       0.07586479 0.07353036 -0.01960027 -0.03340719
0000c0 e0 58 42 3c e0 25 c9 3d d2 04 9b bd 38 a2 40 3c
       0.01186201 0.09821677 -0.07569279 0.011757426
0000d0 ba b6 44 3d 11 12 a5 3d 2a b3 b2 bd 5b 42 f3 3b
       0.048025824 0.080600865 -0.08725579 0.0074236817
0000e0 7a 34 32 bd 22 4d de bc ae 05 28 bc 6d c1 a3 3d
       -0.043507077 -0.02713639 -0.01025526 0.079958774
0000f0 a3 92 d8 bd 61 47 5f bd 1e 1c f2 3b 0a 4a 92 3b
       -0.10574844 -0.05451143 0.0073886057 0.0044643926
000100 fc 25 55 3b 26 46 fb 3c 86 f5 db bd f6 44 ed bc
       0.003252386 0.030673098 -0.10740189 -0.028963547
000110 29 18 ce b8 0c 91 02 3d 19 a4 92 3b 4c 26 74 bc
       -9.827346e-05 0.03187661 0.0044751284 -0.014901709
000120 dc d3 35 bc 01 9a 29 be 1d d3 9f bd 26 42 80 3b
       -0.0110978745 -0.16562654 -0.078039385 0.0039141355
000130 4f 26 65 3c d2 a5 7d bd 45 a8 4f bd 45 2b 17 3d
       0.013986184 -0.061925717 -0.050697584 0.0369065
000140 4b 9b a3 bc b6 4a c1 3b 30 9c 90 bc 18 1e e3 3c
       -0.01997151 0.005898799 -0.017652601 0.02772431
000150 18 a3 0d bd 91 71 88 bd dc bf 8c 3d e9 cf 74 bc
       -0.034579366 -0.06662286 0.06872532 -0.014942148
000160 e6 84 4a bd 60 a1 01 3d 66 2e a9 3b 6f ea 7d bd
       -0.049443148 0.03164804 0.005163002 -0.06199115
000170 c4 05 20 be 8f 19 7e bc e4 e1 e5 3d cf ab 2b 3e
       -0.156272 -0.015509023 0.11224726 0.16764759
000180 9a 91 f5 bd cd 5e ce ba 8f 0d dd 3c 1a 7b 3b be
       -0.11990662 -0.0015744806 0.026984004 -0.18308678
000190 b8 f2 1f 3d a5 4a dc 3c f9 59 0d 3d 16 66 70 bd
       0.039049834 0.026891062 0.034509633 -0.058691107
0001a0 28 8c f5 bd a7 a9 f6 3c 25 07 6b bd 9a 75 ee 3c
       -0.11989623 0.030110193 -0.05737986 0.029108811
0001b0 48 0a a0 bd a5 b1 99 3c dc 5f a4 bd 8e fd 3d bc
       -0.07814461 0.018761465 -0.08026096 -0.011596097
0001c0 c7 84 09 bd 4a 62 90 3d b3 48 79 b9 c5 ae 0c 3c
       -0.033573892 0.07049997 -0.00023773573 0.00858659
0001d0 7a ab 8f bd 76 a7 d6 bd 6a af 1c 3c 5d ee 2c 3d
       -0.070151284 -0.104811594 0.009563306 0.04221951
0001e0 7d 82 ba 3d 04 a7 b8 3d 91 22 22 bd 92 cb a6 3b
       0.0910692 0.09016231 -0.039583746 0.0050901854
0001f0 1f a1 2f 3d b2 c5 5e bd 2a e2 93 3d f0 c5 93 3b
       0.042878266 -0.054387756 0.07220872 0.00450968
000200 97 1b 1a be a3 70 1e bc a3 1c 87 bb db 00 07 3e
       -0.15049587 -0.009670409 -0.004123287 0.1318392
000210 09 a0 15 bd fa cf 13 bd ce 4a 92 bd a9 d8 74 bd
       -0.036529575 -0.036087014 -0.07143174 -0.059776936
000220 da 0b 3d be a4 4d f9 bc ea a8 85 3d 65 c8 7d 3b
       -0.18461552 -0.03043253 0.065263584 0.003872418
000230 27 55 b3 3c 15 87 2c 3d a1 cc 19 bd bd 15 91 3d
       0.02189119 0.04212101 -0.037548665 0.070842244
000240 2a 47 1a bd c8 82 50 3d 41 7f a2 3c 94 1d 4c 3d
       -0.037665524 0.050905973 0.01983607 0.049832895
000250 97 94 0c 3d 76 a2 8b bd e3 10 b0 3d e5 4f 50 3b
       0.034321394 -0.06818096 0.08596971 0.0031785902
000260 e2 ce 4c bd 8d 51 cf bd 35 04 20 be 6b be 8f 3c
       -0.050001986 -0.101229765 -0.15626605 0.017546853
000270 14 9c 08 be ba d1 5c 3c 49 4f 49 3c c4 6e 02 3d
       -0.13340789 0.013477737 0.012286969 0.031843916
000280 ad 6c c7 3b 1f ec a6 3c 58 a5 10 bc c2 15 18 bd
       0.006085953 0.020376263 -0.0088284835 -0.037130125
000290 50 7b f7 3b 84 fb 3f bd 23 fa 53 3c a3 11 00 be
       0.007552542 -0.046870723 0.012938055 -0.12506728
0002a0 9f 0b 93 3c cf f6 ba bd 36 f9 3b bd 8c 28 e5 3c
       0.017949877 -0.09129106 -0.045891963 0.027973436
0002b0 72 0c c1 3c 54 3d e1 bd f2 a2 26 3d 6f f5 27 3c
       0.023565505 -0.109980255 0.04068274 0.010251387
0002c0 74 b6 0e 3d be 9d e1 bd 96 bf 9e bd 35 e4 4d bd
       0.03484197 -0.11016415 -0.07751386 -0.050266463
0002d0 f0 2d 6e 3c 6c ba 02 be f2 c8 ee bd 08 88 fb bd
       0.01453732 -0.12766427 -0.11659421 -0.12281805
0002e0 49 20 47 bd 77 1e f2 3b c7 f2 80 3d de 60 d6 bb
       -0.048614774 0.0073888856 0.06296306 -0.006542309
0002f0 5e 26 fc 3a 8b 64 45 bd 21 92 c5 3c 24 c5 49 bd
       0.0019237509 -0.04819159 0.024117531 -0.049260274
000300 d9 d5 f6 bc 18 86 0f 3d 0d 57 02 3c 14 9c cb bd
       -0.030131267 0.03503999 0.007955325 -0.09941879
000310 cb 90 cb 3c ba a2 58 bd 35 ba 5d bc 03 de 8d bd
       0.024849316 -0.052889563 -0.013533165 -0.06927111
000320 de a9 9c 3c e4 9f f7 3d 84 e6 2c bd ce 3a 3c 3d
       0.019123968 0.120910436 -0.042212024 0.045954518
000330 d3 2a 0e 3e 6d cb 45 3c f0 8c a3 3b dc 85 c7 3c
       0.13883524 0.012072426 0.0049911663 0.024355821
000340 d9 3f 81 3d 13 60 76 bc b7 57 83 3d 8c c5 de bd
       0.06311006 -0.015037554 0.06413215 -0.10877523
000350 bb 1a 62 3d b1 73 10 bc d9 45 8f bd b6 83 89 3d
       0.055201273 -0.0088166455 -0.06995744 0.06714575
000360 1b 64 ff 3d a5 c4 82 bd ab c1 d7 bc 83 55 93 3d
       0.124702655 -0.06385163 -0.026337465 0.071940444
000370 a1 b5 aa 3d 31 86 5e bd 51 79 57 bc 13 02 b2 bd
       0.08335424 -0.054327194 -0.013151483 -0.08691802
000380 50 16 97 3d 9b ee b5 3c 50 48 93 bc a6 fe f0 3d
       0.07377303 0.022208503 -0.017978817 0.1176732
000390 d3 20 4b bd 54 ec 7c bd 9c 35 76 3d 0b d5 3d bb
       -0.04959185 -0.061748818 0.06010972 -0.0028966095
0003a0 3e fa 32 3e 00 12 19 3e 37 6b 16 bd fd 52 d9 3d
       0.17478272 0.14948273 -0.03672334 0.10611532
0003b0 56 4b bc 3c bf 19 bc bd 89 ac 11 bc 34 1d 0e bd
       0.022985142 -0.09184598 -0.008891233 -0.03469582
0003c0 90 36 eb 3d 9b c7 4b bd cf a4 06 bd c0 45 09 3d
       0.11485016 -0.049750905 -0.032872017 0.033513784
0003d0 25 65 69 3d ba 85 85 bd 2e 2d 95 bc d6 ca 86 bd
       0.056981225 -0.06519647 -0.01821002 -0.06581657
0003e0 1d c7 85 bd 90 03 a3 bc 55 df 9b bc 23 12 bd bd
       -0.065321185 -0.01989916 -0.019027391 -0.09231975
0003f0 75 1a 60 bd b4 d5 a7 3d ef 37 c7 3b c5 50 36 bb
       -0.05471273 0.081950575 0.006079666 -0.0027819138

a2c_network.mu.bias f4 [6]
000000 85 5c 96 3b ca 89 03 be 19 42 a0 3d ce 0f c5 bd
       0.004588666 -0.12845531 0.07825107 -0.09622155
000010 70 94 f1 bd 44 e6 92 3d
       -0.1179589 0.07172826

exp_avg f4 [6]
000000 a2 5d c1 3a 3e 09 bc bb e4 c5 e8 ba 58 09 15 b4
       0.0014752636 -0.0057384064 -0.0017759171 -1.3880106e-07
000010 a4 10 38 3b ee e8 42 bb
       0.002808609 -0.0029740888

exp_avg_sq f4 [6]
000000 b7 90 63 38 a8 5a 68 38 ce f4 30 38 b0 bc 7d 38
       5.4255794e-05 5.539754e-05 4.2189662e-05 6.049563e-05
000010 9c 28 8e 38 8a 5c 5f 38
       6.778652e-05 5.3253527e-05

exp_avg f4 [128, 30]
000000 16 b4 6d b8 92 04 8c 39 c8 b8 35 ba f2 5a 5a b8
       -5.667292e-05 0.00026706286 -0.00069321366 -5.205995e-05
000010 ba 20 e8 b9 d4 3b 52 ba 98 6a 2d 3a f4 ea d7 b7
       -0.00044274871 -0.00080197793 0.000661531 -2.5739406e-05
000020 69 9f 9e b9 a8 9a 41 39 2d f2 cb 39 76 71 07 3a
       -0.00030254878 0.00018463528 0.00038899612 0.00051667483
000030 96 b8 8f 39 e3 7a 51 3a 51 a0 2e ba 6e c1 d8 39
       0.00027412613 0.0007991029 -0.0006661462 0.00041342847
000040 f0 e8 a6 3a bf cc ac ba a0 a5 53 b8 51 88 d8 b8
       0.0012734216 -0.0013183578 -5.046057e-05 -0.000103250735
000050 b9 09 04 39 9e 26 f8 39 b3 f9 37 38 ca a3 92 3a
       0.00012592123 0.00047331018 4.386315e-05 0.0011187729
000060 02 5f bd 39 a7 8a 8d 3a 54 56 82 ba c4 83 cc 39
       0.00036119675 0.0010798768 -0.0009943941 0.00039008085
000070 8d 9f 84 3a d5 df 54 3a 72 71 2b b9 28 22 29 ba
       0.0010118351 0.0008120512 -0.00016350092 -0.0006451928
000080 1d a5 11 3b ad fb 35 3a e3 7e ec 39 13 8e 2b ba
       0.002222366 0.00069421047 0.00045107966 -0.0006544303
000090 92 53 7c ba 6b dc e4 b9 64 40 4b ba b7 2e 03 ba
       -0.000962549 -0.00043651773 -0.00077534304 -0.00050042145
0000a0 5e 66 6c 3a f4 b6 76 b9 3c 1b f9 b9 d8 72 6f ba
       0.00090179394 -0.00023528544 -0.00047513272 -0.00091342395
0000b0 b0 b0 83 38 5f d0 00 ba 7d 4a fe 3a c7 4f 66 3a
       6.2794774e-05 -0.0004913862 0.0019400861 0.00087856915
0000c0 8d c1 1b ba f0 b2 00 3a e8 98 8b ba c9 7d 1d bb
       -0.0005941622 0.0004909476 -0.0010650428 -0.0024031273
0000d0 28 ce e9 b9 ec 70 5f ba f8 c2 53 ba 71 98 a8 ba
       -0.00044594822 -0.00085236016 -0.0008078064 -0.0012862814
0000e0 9a b4 10 39 53 75 1f bb 7b a0 fb b9 6a a9 b2 ba
       0.0001380019 -0.0024331405 -0.00047994018 -0.0013630812
0000f0 9e bc 4c 3a aa 3c 8e b7 64 e9 2f ba 65 29 19 3a
       0.00078100886 -1.6955968e-05 -0.0006710498 0.0005842655
000100 f2 d3 2e 39 6b c9 9f 38 e6 40 42 ba 28 40 bb 39
       0.00016672889 7.619228e-05 -0.00074101833 0.0003571522
000110 86 07 a0 b9 3e d9 e7 b9 e5 8e 81 39 cd f2 dd ba
       -0.00030523184 -0.00044221611 0.00024711262 -0.0016933322
000120 e9 c4 c5 b9 97 28 d8 39 7a 44 8c ba 00 04 21 ba
       -0.00037721478 0.00041228972 -0.001070156 -0.00061422586
000130 da 8c 15 38 ec df 0e 39 b8 de 3e ba f5 3f 7c ba
       3.5655547e-05 0.00013625593 -0.00072811125 -0.00096225674
000140 ad 82 3e 3a 34 a9 11 ba c2 dc 27 bb 37 35 09 3b
       0.0007267397 -0.0005556524 -0.002561376 0.002093626
000150 26 8b af ba 94 a6 12 ba a3 1c f4 39 f9 67 6e ba
       -0.001339291 -0.000559428 0.00046560643 -0.00090944726
000160 b4 db 76 ba 4d fc 66 3a 14 39 37 b9 50 e3 82 38
       -0.00094168936 0.00088113995 -0.00017473503 6.241223e-05
000170 c1 00 91 39 a1 22 ea b7 34 3e e9 39 70 96 34 b9
       0.00027657117 -2.79111e-05 0.00044487568 -0.0001722218
000180 b9 51 77 3a 57 86 8f b9 26 de 59 b8 00 c2 e6 38
       0.000943448 -0.00027375176 -5.1943724e-05 0.0001100339
000190 b8 26 5e 38 c3 77 06 39 cb e6 4d 39 d0 a1 1d 39
       5.2964984e-05 0.0001282385 0.000196363 0.00015032967
0001a0 92 f3 3e 3a 88 d4 9a 39 f9 76 17 ba a7 91 94 b8
       0.00072842196 0.00029531517 -0.0005777921 -7.08432e-05
0001b0 0c 8e 61 3a b8 7f 89 b9 60 94 1f 3a b1 35 58 3a
       0.00086042355 -0.00026225834 0.0006087478 0.0008247747
0001c0 f0 4a a1 b8 28 94 56 37 a8 c0 2d 3a f2 29 d6 b9
       -7.6910364e-05 1.2789889e-05 0.0006628134 -0.00040848512
0001d0 34 9d 3b 3a 54 93 f5 39 3f 21 0b 39 6d 26 dc b9
       0.0007156909 0.0004683981 0.00013268458 -0.000419903
0001e0 8b 94 d1 39 8e 86 47 ba ce 18 14 3a 83 88 32 39
       0.0003997426 -0.0007611298 0.0005649448 0.00017026257
0001f0 0c 12 59 39 7d f1 1e 3a ab 90 a9 ba b8 0a 8a 39
       0.00020701456 0.0006063206 -0.0012936791 0.00026329397
000200 cb 2d 97 b9 5f 3f 04 ba 10 03 83 39 d2 e5 89 b9
       -0.00028835083 -0.00050448434 0.0002498855 -0.00026301906
000210 8b e0 a0 ba 8d c9 ad 39 40 2b b1 b9 67 44 c5 ba
       -0.001227395 0.00033147298 -0.00033792295 -0.0015050293
000220 79 35 22 b9 2f cf 77 3a 5e 6e 44 ba 0e 15 2d 3a
       -0.00015469444 0.0009453175 -0.00074932526 0.00066025637
000230 8c 90 34 3a 5d 37 ca ba 73 91 81 ba b3 ce 53 ba
       0.0006887994 -0.0015427876 -0.0009885266 -0.0008079812
000240 8b c1 81 ba 51 41 a7 b9 2a 71 c6 3a 41 43 f0 ba
       -0.0009899599 -0.00031901387 0.0015139927 -0.001833059
000250 3b 3e ab ba 05 e6 c8 ba fd 8d 9e 3a 7f 6a e5 3a
       -0.0013064811 -0.001532734 0.0012096759 0.0017503052
000260 08 41 19 bb b1 78 b5 39 96 57 1e 3a ab 33 21 ba
       -0.002338471 0.00034612932 0.0006040273 -0.0006149362
000270 bb a9 d2 3a fc 69 f0 b9 0a 29 80 3a 7a a9 47 3a
       0.0016072312 -0.00045855332 0.0009777856 0.00076165015
000280 29 f3 5a ba 00 bb b7 39 a9 24 7c 3a 0b 20 2d 3a
       -0.0008352274 0.00035043806 0.00096185 0.0006604201
000290 01 62 2e ba d0 8c ed 3a 1b 75 7a 39 9f 35 fd ba
       -0.0006652177 0.001812363 0.00023885483 -0.0019318348
0002a0 93 93 82 3a d2 58 73 ba d0 02 8b ba 78 76 ca 3a
       0.0009962193 -0.00092829496 -0.0010605697 0.0015446683
0002b0 59 ba a6 38 d2 a0 5b 3a f5 39 83 3a f7 7c e1 b9
       7.950207e-05 0.0008378151 0.0010011779 -0.0004300845
0002c0 99 1f b7 ba 47 4c 00 3b 68 20 ce 3a ce 5a eb 3a
       -0.0013971209 0.0019576715 0.001572621 0.0017956139
0002d0 2c 14 10 39 e6 e4 a2 ba 0e 0b cc b9 14 32 8c 39
       0.00013740425 -0.0012427836 -0.00038918148 0.00026740192
0002e0 09 3a ae b9 96 6f f9 39 d6 e1 35 ba 07 9c 29 ba
       -0.00033231106 0.0004757612 -0.0006938254 -0.0006470088
0002f0 f2 fc ad b9 ea 90 c2 39 2f 9a 2a 3a d3 d0 4c 39
       -0.0003318559 0.00037110533 0.00065079605 0.00019532749
000300 b0 85 09 ba 5c b1 61 3a a7 c0 b8 ba 2e ad 9f ba
       -0.0005246056 0.00086094975 -0.0014095501 -0.0012182349
000310 33 bd 99 3a 15 c6 8a b9 58 f4 c2 ba b0 50 11 3a
       0.0011729359 -0.00026468994 -0.0014873846 0.00055433344
000320 b8 84 68 b9 c8 ad 41 ba 2f b5 85 ba 60 11 19 ba
       -0.00022174686 -0.0007388261 -0.0010201092 -0.0005839076
000330 df a6 91 ba f3 7a 59 3a 1c 5e a4 b9 a8 03 83 ba
       -0.0011112354 0.0008296214 -0.00031350635 -0.0009995596
000340 b7 59 48 b9 04 22 97 ba 71 b2 fc 38 02 75 7f 3a
       -0.00019106908 -0.0011530523 0.00012049534 0.00097449136
000350 11 e8 1f b9 5b 8d 5d 39 78 2b c1 39 6e 76 f0 b9
       -0.00015249873 0.00021128861 0.00036844215 -0.00045864604
000360 53 0b d7 39 45 f2 df b9 85 fc ec 39 7d 86 ba 39
       0.00041016433 -0.0004271438 0.0004520157 0.00035576886
000370 0a 00 03 ba d3 56 2f 3a d1 2d 97 39 27 b5 70 ba
       -0.0004997259 0.0006688658 0.000288351 -0.0009182267
000380 e7 3a a9 39 84 c1 91 3a ba e3 00 3a a2 94 3b b9
       0.00032278078 0.0011120294 0.00049167464 -0.0001788908
000390 1c 30 cb 39 c0 79 27 b9 4d 02 f8 b9 d5 28 72 b9
       0.00038755022 -0.00015971716 -0.0004730396 -0.0002309413
0003a0 aa 78 67 39 d5 59 9a 39 0d be c9 39 fb d5 57 b9
       0.00022074828 0.000294401 0.00038479306 -0.00020583712
0003b0 3c 17 31 38 9c c8 dc 39 f2 fd 13 39 4e 4d 55 3a
       4.2221727e-05 0.00042111136 0.00014113614 0.00081368245
0003c0 19 79 74 b9 1d fb 7e 3a 89 72 c0 b9 db 24 c1 b9
       -0.00023314766 0.000972675 -0.0003670643 -0.00036839288
0003d0 26 30 2e 38 8b 47 e6 b9 45 6b b6 b7 5c ae a6 39
       4.1529674e-05 -0.00043922322 -2.1746042e-05 0.00031791895
0003e0 a3 8b df b8 f4 49 e8 39 65 7e b2 39 22 27 2a 3b
       -0.00010659478 0.00044305588 0.00034044977 0.0025963266
0003f0 ba 78 32 b9 8b 37 71 3a 4c a0 1a 3a 44 b7 ad b9
       -0.00017020377 0.0009201697 0.000589852 -0.00033133675
