training/runs/WalkBot/nn/last_WalkBot_ep_75_rew_-1.3837757.pth (torch, 267394 bytes, 30 tensors)

running_mean f8 [30]
000000 cf 10 d2 12 75 bc c7 3f da ca d8 92 fc ec b6 bf
       0.18543876093838782 -0.0895536287796789
000010 0b 75 41 b6 d2 8a bb bf 2b 8d 8b a5 7d dc d0 bf
       -0.10758702230073795 -0.2634576908732977
000020 06 f9 50 0c 47 9c e5 bf 1b 33 18 07 e9 65 d8 bf
       -0.6753268471291285 -0.38122010891747643
000030 d6 b1 8b e6 12 a9 a2 3f 8f b0 46 46 4a 39 10 40
       0.03644618095663403 4.055947397293621
000040 7f d3 be 0a 18 fa f8 3f 06 28 bd 47 95 7b 11 c0
       1.5610580844633828 -4.370686646385371
000050 18 a5 1a 9f 31 7c a1 3f 85 83 5b 79 30 0e a3 3f
       0.034150648757824864 0.037217631162781685
000060 57 1f 05 d3 7f 05 b0 bf 96 d0 c8 e4 2a c9 d9 bf
       -0.0625839128671236 -0.4029032930586792
000070 61 00 1c e5 cb d0 d5 3f 59 58 9e 1f 9c 2c b8 3f
       0.340868924846296 0.09443069240509895
000080 2d 60 48 d4 cb dc d1 bf ba 3e d1 a0 b2 fa d4 3f
       -0.27910133105024465 0.327801377342421
000090 b2 36 78 f8 c7 bc ba bf 29 3c 42 62 98 0a a1 bf
       -0.10444307151939361 -0.03328396033713716
0000a0 86 12 b7 93 5d e9 bc 3f 24 94 c0 97 94 7e a4 3f
       0.11293587547613457 0.04002823212093912
0000b0 d7 8f a9 db 52 f1 97 bf 9e c9 5f f4 ef 87 9c bf
       -0.023381514222265167 -0.02786230973283354
0000c0 1c 7c 88 a5 03 21 79 3f 3a 9f bd 59 72 d1 b3 bf
       0.006135000462136577 -0.07741465273795436
0000d0 ef f5 ff f1 02 aa ca 3f f4 67 2d 8c b2 e2 90 bf
       0.2083133393897891 -0.016489782148120427
0000e0 6f dd 0d 21 70 bd cc bf f4 d0 0e c7 a8 00 a4 3f
       -0.2245311890980974 0.039067529963547815

running_var f8 [30]
000000 79 ac dd f1 08 3b 46 3f 87 a2 08 3d 9f c9 a4 3f
       0.0006784242320753273 0.04060075397530221
000010 36 04 0d 48 49 42 c0 3f 6c 08 7b 37 4b e9 b5 3f
       0.12702289598567668 0.08559103111750382
000020 22 94 3a c6 f4 cc 24 40 e1 0c af 5f 55 81 13 40
       10.40030497994491 4.8763022375671605
000030 d1 c6 e7 e8 b4 88 2a 40 3c e6 64 86 81 02 0d 40
       13.26700523213677 3.6262236117879905
000040 bf 7b 7a ec 30 fd b4 3f 3d 33 84 b9 f3 f4 fa 3f
       0.08198838971519161 1.6848027464613573
000050 0d b4 32 0f 13 98 b7 3f fe 8c e2 db 04 8b b6 3f
       0.09216422196432479 0.08805876129422427
000060 2e 2b 10 b4 47 99 af 3f ef 0a 70 a2 f2 b0 bc 3f
       0.061716309290281365 0.11207500901950217
000070 15 3b 52 5b 00 63 af 3f 3a 42 42 9a 69 6f aa 3f
       0.06130219568978227 0.051631259994909987
000080 1c 31 4e 3d fe dc aa 3f 83 a3 41 57 88 cd be 3f
       0.052467293723653635 0.12032367830546602
000090 ec 8c b0 48 ec dc 05 40 6f 8d 67 5f bc ef 11 40
       2.732872550857442 4.484117022223798
0000a0 ca e3 0f 95 a2 43 13 40 db 78 1a 99 fd aa 04 40
       4.816049889654957 2.583491512413372
0000b0 ff 38 e9 cd a2 d3 06 40 3d 28 f4 ab 09 8a 12 40
       2.85333786838521 4.634802519585773
0000c0 82 60 dd fa bb 01 e3 3f ff 9d a6 c4 43 92 e2 3f
       0.5939617061331008 0.5803545800053483
0000d0 1b c8 5b f2 bb 0b e2 3f 67 a0 2d 17 b6 af e3 3f
       0.5639323934140096 0.6151991322231084
0000e0 d8 45 34 bf b7 9b dc 3f 25 9f 48 11 9e 10 e4 3f
       0.4470042578915048 0.6270284974643557

count f8 []
000000 00 00 00 40 00 c0 52 41
       4915201.0

running_mean f8 [1]
000000 7c 00 cf b6 96 84 db 3f
       0.4299675736656423

running_var f8 [1]
000000 78 60 64 00 9a a5 d0 3f
       0.2601075176076004

count f8 []
000000 00 00 00 00 01 c0 32 41
       1228801.0

a2c_network.sigma f4 [6]
000000 37 43 48 bf fa e9 3c bf 91 18 76 be 07 0b 2a bf
       -0.7822756 -0.7379452 -0.24032809 -0.66423076
000010 b1 bb 49 bf 40 d3 f6 be
       -0.7880202 -0.48208046

a2c_network.actor_mlp.0.weight f4 [128, 30]
000000 27 25 28 3e 9b 94 e6 be c8 c5 ee 3d 90 a2 1e 3e
       0.16420422 -0.45035252 0.116588175 0.154917
000010 0c 7b bc bd 1a 68 0c 3e 24 63 32 3e 4b c6 a5 3c
       -0.09203157 0.13711587 0.17420632 0.020236155
000020 cf 0b 14 3e 28 17 55 3d 73 58 b2 bd 9e 59 0b bd
       0.1445763 0.052024037 -0.087082766 -0.034021012
000030 5a 07 96 3e 4b f3 64 3e a1 7c 42 3e 91 bc 6a be
       0.29302484 0.22358434 0.18992855 -0.22923495
000040 24 d3 98 3d a8 76 e3 bc 2f 44 30 3e 13 f0 63 bd
       0.07462147 -0.02776654 0.1721351 -0.055648874
000050 c3 40 0d be 0d 37 84 bd d6 e7 47 bd e6 ab 25 3e
       -0.13794236 -0.064558126 -0.04880508 0.16178855
000060 94 ba 0e 3e 2f 78 e9 3c 10 22 f5 3c 05 17 c7 bb
       0.13938361 0.02849969 0.029923469 -0.006075742
000070 3c d3 4c 3e e8 12 22 bd ad ef 86 3d 5d ef b6 be
       0.20002455 -0.03956881 0.06588683 -0.35729495
000080 81 d1 83 3d 52 3c ba be b1 8b 8a bd 85 09 85 3d
       0.06436444 -0.36374146 -0.06764925 0.06495956
000090 07 de 29 3e 88 59 7d bd 5f 5f 8c be a9 64 5a bd
       0.16588603 -0.06185296 -0.27416512 -0.053318653
0000a0 77 95 73 3e 18 08 ec 3d a4 ec 41 3e ec 0b f9 be
       0.23787485 0.11524981 0.18937927 -0.48641908
0000b0 c8 fe 72 be 41 5d 96 bd 0c 4b ea be 86 c1 9b be
       -0.23730004 -0.073420055 -0.4576038 -0.30421084
0000c0 28 f5 63 be ca de cb 3d b5 33 bd bd ff 3b 4b be
       -0.22261488 0.09954603 -0.09238378 -0.19847105
0000d0 11 23 64 3e 69 c2 d8 bd 18 07 c1 3d a1 5f 1f bd
       0.22279002 -0.10583956 0.09425181 -0.03890956
0000e0 96 68 87 3b 1e f7 72 bd bf 74 5f bd 37 84 28 3e
       0.0041323407 -0.0593177 -0.054554697 0.16456686
0000f0 10 ce 05 3e be 4d ff 3d 6d b2 9e 3d 05 68 d5 3d
       0.13066888 0.12466 0.07748876 0.10420231
000100 ff 1b 0f be db 2d e3 bd be 29 07 3e e4 0c 17 be
       -0.13975523 -0.110927306 0.13199517 -0.14751011
000110 24 3a dc bc 49 1e 20 be 93 c3 9e bc d6 03 2c bb
       -0.026883192 -0.15636553 -0.019380366 -0.0026247404
000120 87 fc b9 bb 0b 08 79 be 0f 3f d4 bd cb c8 f7 bd
       -0.0056758556 -0.24319474 -0.1036359 -0.12098845
000130 1a 72 42 be 2f d0 4b be b4 76 c0 bd 7b ad f7 bd
       -0.18988839 -0.19903634 -0.09397641 -0.12093636
000140 8a 59 6e 3e b9 ad f5 3c 1f 38 8e 3d 70 42 d7 bd
       0.23276344 0.029990064 0.06944298 -0.10510719
000150 61 95 a3 bd 26 9c cb bb 73 75 2e 3e 27 21 69 be
       -0.07987476 -0.0062136827 0.17036991 -0.22766553
000160 e4 1d 88 bd 05 f5 e6 bd cc 85 64 3e 7a 0c d3 bd
       -0.06646326 -0.112772025 0.22316664 -0.10305114
000170 b7 75 24 3e 89 d8 8a be e1 83 9b bd 60 2c 9a 3d
       0.1606053 -0.27118328 -0.07593513 0.07527995
000180 70 b0 9e bd ca 44 b8 3d 28 86 4e 3c 94 d5 54 be
       -0.077484965 0.089974955 0.0126052275 -0.20784599
000190 72 a4 9b 3e d8 21 25 3e 1a 0f 07 bd f3 14 87 3e
       0.303989 0.16126192 -0.032973386 0.2638317
0001a0 d0 9d 85 3c 9b f5 d4 39 4c bd 87 be 2b 8a 67 be
       0.016310602 0.0004061878 -0.2651161 -0.226113
0001b0 63 74 f1 bd a8 c8 cf 3c 63 0e 9e 3d 1a 70 69 bd
       -0.11789777 0.025364235 0.07717588 -0.056991674
0001c0 9e f1 a8 3e b3 29 2c be 18 69 a9 bd 5f 97 9f bd
       0.3299684 -0.16812782 -0.08271998 -0.077925436
0001d0 44 5f 86 3e fb 7d 2b 3e 04 25 85 3e 9a 62 48 bd
       0.26244557 0.16747276 0.26004803 -0.04892216
0001e0 2b b9 ba 3d ec 68 a9 be 1b 2b 51 bd 54 37 82 be
       0.09117349 -0.33087862 -0.0510665 -0.25432837
0001f0 04 b2 87 3d 57 a3 5f be 9d 39 06 3e 25 11 b3 3d
       0.06625751 -0.21839653 0.13107915 0.087435044
000200 07 ed 61 be 21 25 04 bc 40 46 dd 3e 82 7f f3 3d
       -0.22063075 -0.008065493 0.4321766 0.118895546
000210 f8 d9 25 3e 43 d9 a9 be 77 ac 90 be 43 4f a3 bd
       0.1619643 -0.3317357 -0.2825658 -0.07974102
000220 a7 01 d7 bd f5 80 d9 b9 b4 ae ce 3d b1 79 2e be
       -0.10498362 -0.00041485546 0.10091916 -0.17038609
000230 02 5b 38 3c 20 d3 3a bd 5e cf 9d 3d 38 c4 cc 3d
       0.011252167 -0.0456115 0.07705568 0.09998363
000240 78 22 b0 bd db ad d9 3d c4 36 61 bc 8e ae 86 bc
       -0.086003244 0.106288634 -0.013745967 -0.016440656
000250 63 93 cc 3d f6 26 ec bd ba 9b 2b 3e 21 e8 ff bd
       0.09989049 -0.11530869 0.16758624 -0.12495447
000260 ea c7 e4 3d a8 ba 5b bd d5 f4 2f 3e 07 e3 81 3d
       0.11170943 -0.053644806 0.1718324 0.0634213
000270 eb 77 9d 3d a7 c3 e0 bc 20 57 c6 3c 45 bf 8a bd
       0.07688888 -0.027437044 0.024211466 -0.06774763
000280 f9 02 06 be 44 29 06 be cb 69 ef 3d 8b e9 72 3e
       -0.13087071 -0.13101679 0.116901 0.23721902
000290 47 99 07 be 6e 5c 98 bd 0b 2f 17 3c 04 d3 19 3e
       -0.13242064 -0.074395046 0.0092275245 0.15021902
0002a0 8c ca 96 3d 0a be c7 3d 00 4d 2b be 7d b8 09 3d
       0.073628515 0.09753044 -0.16728592 0.033623207
0002b0 5f 3e 08 3e 48 f2 95 bd be e6 34 be 30 71 2f be
       0.13305043 -0.07321602 -0.17666146 -0.17133021
0002c0 97 26 cc bd 87 19 0f be cb 11 f4 bd c5 fa a9 bd
       -0.09968298 -0.13974582 -0.11917456 -0.082997836
0002d0 5b 22 0c 3e 39 58 08 3e 59 cf 88 bd 27 6e 0e be
       0.1368498 0.13314904 -0.066801734 -0.13909207
0002e0 a7 95 e9 bd 42 c0 5a bd 73 22 aa 3d ab 6d 0b be
       -0.11405497 -0.053406008 0.08307352 -0.13616054
0002f0 74 e1 2a 3e 05 1a 1e bd 7d 20 48 be 4e a2 af 3c
       0.16687566 -0.038599033 -0.19543643 0.021439698
000300 30 e5 46 3c 06 72 80 be ea 91 49 be a5 57 40 be
       0.0121396035 -0.25086993 -0.19684568 -0.18783434
000310 5e 35 1b 3e 39 f6 94 3d b5 c4 e4 3c 88 ac 7b be
       0.15157077 0.07273526 0.027925828 -0.24577534
000320 b6 56 7b be 1a 30 13 3e 24 bf 16 3e 45 5b 24 3e
       -0.24544796 0.14373818 0.14721352 0.16050442
000330 03 8a 73 3d 24 7e 4c 3d e6 35 46 bd 2e d9 6b be
       0.05945779 0.049924985 -0.048391245 -0.23032066
000340 96 8c 27 3c 77 70 84 be cb d1 72 3e 91 b3 48 be
       0.010226389 -0.25867054 0.23712842 -0.19599749
000350 01 9c ea bd 2a 04 ba bd 30 27 4d 3d dd 3c 99 3d
       -0.11455537 -0.090828255 0.0500862 0.07482312
000360 32 d7 9a bb 84 57 f5 3d 31 a5 91 bd 71 73 ea 3d
       -0.0047253603 0.11979583 -0.07111586 0.114478
000370 f5 44 26 bd e4 1a e8 bc 75 ff a8 bd 0a 85 1a 3d
       -0.040593106 -0.028333135 -0.082518496 0.037724532
000380 0a 38 06 3c 9e ec 73 bd c7 90 c0 3c 8f 61 17 be
       0.008192072 -0.059551828 0.023506535 -0.1478331
000390 60 00 38 3d 91 0c d5 3d 61 e1 2a 3e 11 9b d0 bd
       0.044922233 0.104027875 0.16687538 -0.101858266
0003a0 5c 53 c5 3d c2 4d 81 bd 00 a0 43 3e 53 52 92 3d
       0.0963504 -0.06313659 0.19104004 0.07144608
0003b0 c3 3f 23 bd 9b 05 c2 3d 03 a0 e6 bd 93 a5 14 bd
       -0.03985573 0.094737254 -0.112609886 -0.036290716
0003c0 bb b2 f7 3d a6 4b 08 be c1 01 a7 3e 8e c0 f3 3e
       0.12094637 -0.13310108 0.32618526 0.47607845
0003d0 69 07 73 3e b1 4d 8d bd 15 39 13 be 16 72 17 3e
       0.23733296 -0.06899584 -0.14377244 0.14789614
0003e0 b9 f7 b1 3e 87 51 d5 bd 8b 5e 93 be 95 f4 8f bd
       0.3475931 -0.10415941 -0.28783068 -0.07029072
0003f0 82 b5 5b 3d 5d 1d 9b 3d a0 9d b5 ba b7 14 53 be
       0.053639896 0.0757396 -0.001385618 -0.20613371

a2c_network.actor_mlp.0.bias f4 [128]
000000 6d 9e b5 be 29 b7 48 3e 43 ca 53 3e e4 c3 96 3e
       -0.35472432 0.1960112 0.20682625 0.29446328
000010 88 90 54 3e 18 cc d4 bd d1 a7 65 be e2 02 bc bd
       0.2075826 -0.1039049 -0.22427298 -0.09180237
000020 a7 9a a9 be 38 c6 c5 bd 7a 49 35 3d a3 83 fe bd
       -0.33125803 -0.09656948 0.044259526 -0.124274515
000030 8d 32 30 3e 41 65 5d be be 09 23 3e 48 bc 29 3e
       0.17206784 -0.21620657 0.15921685 0.1657573
000040 53 7e 73 bc 04 71 87 be 46 ad 43 be 5b 59 c1 bd
       -0.014861661 -0.26453412 -0.19109067 -0.09440871
000050 83 e0 2b be 86 2e 22 be 48 66 fa bd b3 d0 6d be
       -0.16784863 -0.1583806 -0.1222654 -0.23224144
000060 73 95 c8 bd b0 8b 82 3e 73 ec b8 bd d6 f5 a4 3b
       -0.0979413 0.25497198 -0.09029474 0.0050341887
000070 78 98 3d be 6f 32 4f be 14 9d 21 3e 60 6d 43 3d
       -0.18515193 -0.20234083 0.15782577 0.04771173
000080 21 16 d5 bc c3 d0 e2 bd f3 ce 63 be 64 83 88 be
       -0.026011528 -0.110749744 -0.22246914 -0.26662743
000090 4a 47 7d be 00 37 aa be 5b d6 32 be 65 b6 7f be
       -0.24734226 -0.33245087 -0.17464583 -0.24971922
0000a0 27 04 82 3d 1d 29 31 be 86 f8 c3 bd 5e 27 49 be
       0.06348448 -0.1730084 -0.095688865 -0.19643924
0000b0 b4 cb 8f bd 26 34 de bd 6f 0a ee 3d b9 6c d7 bd
       -0.07021275 -0.1084979 0.11623084 -0.10518784
0000c0 85 c3 16 be 62 91 3c be 21 a3 2a be 6b 3a 02 be
       -0.14723022 -0.18414834 -0.16663791 -0.12717597
0000d0 83 9a 4b 3e 73 69 41 bc 01 fe 1c 3d cd 43 9d be
       0.1988316 -0.011804926 0.038328175 -0.3071579
0000e0 de 80 a5 be 11 2f 33 be 12 4e 0b be 16 d9 8a bd
       -0.3232488 -0.17498423 -0.13604 -0.06779687
0000f0 13 a5 5d be d2 00 5f 3e f4 d3 93 3e b7 3f a3 be
       -0.21645002 0.21777657 0.28872645 -0.31884548
000100 7a a3 7d bc de 75 88 3e 88 02 71 3e 39 87 bf bd
       -0.01548087 0.26652426 0.23536122 -0.093519635
000110 15 d8 e3 bd d7 96 b5 be 61 cd ad 3c 2d b4 63 be
       -0.11125199 -0.35466644 0.021216096 -0.222367
000120 09 97 8b 3d ea 8e fd bd a6 5c 8a 3e 41 b2 04 be
       0.06815917 -0.12380774 0.2702381 -0.12958623
000130 c7 25 7b be 82 ab d1 be 2f fb 44 3c 0a 5e e3 bc
       -0.2452613 -0.40951163 0.012022777 -0.027754802
000140 f5 d8 38 3d a6 29 8d be 42 9f 5c 3e 2b 69 51 3d
       0.04512878 -0.27570838 0.21545127 0.051125687
000150 f1 25 05 3d 14 ce 19 3e 10 38 20 3e fd ab f5 3c
       0.032506887 0.15020019 0.15646386 0.029989237
000160 ba 3c 2b 3e a6 cb 2c be a1 62 40 3d 88 c2 aa be
       0.16722384 -0.1687456 0.04696906 -0.3335154
000170 5b 11 c3 3d 70 a1 84 be e5 b0 0b be 21 da 70 bd
       0.09524795 -0.25904417 -0.13641699 -0.058801774
000180 8e 43 18 3e c2 7a 84 be df 36 87 3d c5 f2 86 be
       0.1486952 -0.25874907 0.06602263 -0.26357093
000190 19 b5 72 bd 0f 4f fc bc bc 8d 46 be ee ee 89 bd
       -0.05925474 -0.030799417 -0.19390005 -0.06735025
0001a0 c9 1d 6b be 74 b5 05 be 8e 94 43 3e 0e 26 5b be
       -0.22960581 -0.130575 0.19099638 -0.21401235
0001b0 42 ff 18 be e2 4f 0b 3e ee 0f c4 3d 60 06 57 3e
       -0.14941123 0.13604692 0.09573351 0.20998526
0001c0 a2 72 18 bd 66 11 87 be de b7 a0 3d 0c e1 35 3d
       -0.037218697 -0.2638046 0.0784757 0.044404075
0001d0 8a 0a c2 bd 5a 3f 4c 3e e7 7b 7a be 13 05 9c bd
       -0.094746664 0.19946042 -0.24461327 -0.07618155
0001e0 93 8c 78 3d 19 8f 49 3e d8 29 a1 3d 3f 1e 5f be
       0.060680937 0.19683494 0.07869309 -0.21788882
0001f0 67 6d 2b 3e b4 a0 2c be ea e8 1b 3e 9f 53 30 be
       0.16740952 -0.16858178 0.15225568 -0.17219399

a2c_network.actor_mlp.2.weight f4 [128, 128]
000000 be 56 2e 3e 9d d1 ce be 31 7d a9 3c 2d 8e 14 be
       0.17025277 -0.40394297 0.020689579 -0.14507361
000010 f5 06 95 be 3a 4a 23 3e 76 b1 a6 3d 51 57 0d bd
       -0.2910687 0.15946284 0.08139317 -0.0345071
000020 f1 11 2a 3e c8 07 65 bd fa 38 ca bc 7b b3 3b be
       0.16608407 -0.055915624 -0.024685372 -0.18330185
000030 8f 1f 21 bd cd 51 0e 3e 17 59 fc bd c3 67 fe bc
       -0.039336737 0.13898392 -0.1232168 -0.031055337
000040 8e f0 64 3d 1a 6e da 3d d1 d8 df 3d d8 ef 6a be
       0.055893473 0.106655315 0.10930026 -0.22943056
000050 46 f5 38 3e d0 d2 8a 3d d8 c6 50 3d 9d 27 36 3e
       0.18062314 0.067784905 0.050970882 0.17788549
000060 8c 0a 16 be 24 4d d5 bd 41 8e 89 bd c3 98 b0 3d
       -0.14652461 -0.10415104 -0.06716586 0.08622887
000070 1a ef 18 3e 6e e4 cf 3d 58 97 db bd a4 69 90 bc
       0.1493496 0.101509914 -0.10722226 -0.017628498
000080 9d 4b 79 bd b3 73 0b be 7b bf 35 3e eb f9 2d be
       -0.060863126 -0.13618354 0.17748825 -0.16989867
000090 49 f4 7e 3d e2 85 83 3d a9 17 43 3d 23 07 0e 3e
       0.062244687 0.064220205 0.047629986 0.1386991
0000a0 e8 2e 8c 3d b6 5c 27 3d f2 f0 e8 3d 92 4c 88 3d
       0.06844884 0.0408599 0.11374082 0.0665523
0000b0 ab 11 1f bc 35 5f 6d 3b 65 07 3c be be 9a ee 3b
       -0.009708802 0.0036220078 -0.18362196 0.0072816303
0000c0 a1 8c 6a 3d 9d da 35 3e 34 9c 7d 3b 62 3c 0a bd
       0.05726302 0.17759176 0.003869784 -0.03374899
0000d0 41 45 e7 bd 50 2c c2 3d c2 75 5c bd 01 e0 30 3e
       -0.11292506 0.09481108 -0.05382324 0.1727295
0000e0 99 ff 26 3d b3 7f f1 3d 93 91 c4 3c 2d 6a b4 bc
       0.0407711 0.11791935 0.023995196 -0.022023285
0000f0 6e 5d ac 3d cc 6a 22 bd cd 4b b6 bc f9 74 36 3e
       0.08416258 -0.03965263 -0.022252942 0.17818059
000100 4a 6a d3 bd 79 be d6 bc 55 da bd bd 50 9b 00 be
       -0.103230074 -0.026213871 -0.09270159 -0.12559247
000110 8e ff 40 3d a1 49 dc 3d 7a 9c 14 3e f8 9b 82 3d
       0.047118716 0.10756231 0.14512816 0.06377405
000120 cf 69 f4 bd e8 a5 dc 3d a1 93 56 be b7 09 a9 bd
       -0.11934244 0.107738316 -0.20954753 -0.08253806
000130 df 9e 23 3e b8 4f 1d 3e 61 41 4d 3d e0 cd 8b be
       0.15978573 0.15362442 0.05011118 -0.27305508
000140 fd 3c a2 bd ea 58 86 3e db 54 a8 bd b9 bf 83 bc
       -0.07921789 0.2623971 -0.0821931 -0.016082631
000150 4e fd 75 bc f5 39 81 bc a9 68 c3 3a 16 8c 49 be
       -0.015014006 -0.015774706 0.001490851 -0.19682345
000160 6c 2b 66 be a7 c6 1b 3e 37 49 bf bb ec c6 00 3b
       -0.22477502 0.15212499 -0.0058375853 0.0019649817
000170 40 19 9e be e3 c0 69 3e 3e f4 19 be 54 1f b6 bc
       -0.3087864 0.22827487 -0.15034577 -0.022231735
000180 43 70 82 be ca 32 b7 3d 43 c5 7b be 30 1a bb 3d
       -0.25476274 0.08945234 -0.24586968 0.09135854
000190 03 f5 09 3e 2c ba 8a 3d fe a1 86 3d 8d 9e 5c bc
       0.13472371 0.06773791 0.06573866 -0.013465536
0001a0 d7 87 95 bc 16 ce 01 37 22 e9 c3 bd da 1c bc bc
       -0.01825325 7.736982e-06 -0.09565951 -0.022962976
0001b0 5b 1c ac bc a9 93 4d be 8b 3a 17 be 8e 26 86 bd
       -0.021009615 -0.20075859 -0.14768426 -0.065503225
0001c0 33 57 08 bd 70 44 66 3e 76 8b e8 bd 1f 84 20 3d
       -0.033286285 0.22487044 -0.11354725 0.0391885
0001d0 8d 9b 9c 3d af 4b 20 bd a3 a0 cd 3c 16 a4 ba 3d
       0.076468565 -0.039134677 0.025101012 0.09113328
0001e0 60 f8 23 bd 9c 45 c2 bd 43 f7 61 bc 08 61 24 3c
       -0.04003179 -0.09485933 -0.013791862 0.0100329
0001f0 77 b4 40 bd c8 9a c2 3b e7 30 41 be 02 8d 81 bd
       -0.047047105 0.0059388615 -0.18866311 -0.06325723
000200 7c 24 b8 bc fd df 33 bd 92 6f 99 bc 86 e1 fa bc
       -0.022478335 -0.043914784 -0.018729959 -0.030625116
000210 1f d4 16 bc 64 05 cb 3c af fb 7b bc 95 48 a4 3c
       -0.009205847 0.024782844 -0.01537983 0.020054141
000220 73 34 95 bb 1f 1c fb bd 90 91 0a be 6c 0c 43 bc
       -0.0045533716 -0.12261223 -0.1353209 -0.011904817
000230 4b 37 84 3d 9f f2 39 3d 71 2a 6a 3d 9a ea fc bd
       0.06455859 0.045397397 0.05716938 -0.12349434
000240 56 fb dc 3c f3 87 92 3d ee e2 23 3d 5c ed 0d bd
       0.026975315 0.071548365 0.04001134 -0.03465019
000250 e4 2a a8 3c 17 ff 3a 3e 4b ea ce bd 03 b2 56 bd
       0.020528264 0.18261372 -0.101032816 -0.05241586
000260 8a cd af 3d 7d 2a b4 bd 23 08 ce bc 23 91 95 bd
       0.08584125 -0.087971665 -0.025150364 -0.07303073
000270 48 e0 17 3d e2 62 5b 3c 88 eb 8c bd 1e ba 8d bd
       0.037079126 0.013390275 -0.068808615 -0.06920265
000280 81 fc 65 3d 59 36 ef 3d 0d bf 37 3e aa 4d 5c bd
       0.05614901 0.11680288 0.17943974 -0.053785004
000290 94 08 7d 3d 48 51 57 bd a0 ab a3 3d e9 6c 27 3e
       0.06177576 -0.05256775 0.07991719 0.1635014
0002a0 42 a4 8e 3d 33 7d 9c bc cf b4 b8 3d 7c a6 3c bd
       0.069649234 -0.019102668 0.090188615 -0.04605721
0002b0 e9 6d 80 3d b5 a2 3e 3a 5f a7 aa bd 87 ca 9e bc
       0.06270964 0.000727217 -0.08332705 -0.019383682
0002c0 78 ea 72 39 93 17 c5 3c cc 63 c2 3c 5c f8 7e 3d
       0.00023166265 0.024059093 0.023729227 0.062248573
0002d0 5d 91 d5 bc 2e 96 4a 3e 1d a1 ab 3d 4d 55 f9 3d
       -0.026070291 0.19783852 0.08380339 0.12174473
0002e0 67 03 d2 3d c7 10 0a bd 5a 71 c1 bd 21 af 47 3d
       0.10254555 -0.033707406 -0.09445448 0.048751
0002f0 e3 37 f6 3d 78 98 9a bd 7d b8 0d bd 97 03 4f bd
       0.12022378 -0.07548612 -0.03459977 -0.050540533
000300 60 96 f5 3d da 81 1e 3e bc 02 f2 3c 1f 8d 63 3d
       0.119915724 0.15479222 0.02954232 0.055554505
000310 2a 8f b2 3c f0 20 1e 3b 8a 63 c5 3b 36 a8 1e 3d
       0.021796782 0.002412852 0.006023829 0.038734637
000320 4d 0c 75 bc a1 e3 ab bd c3 a3 0e 3d 46 7e 06 3d
       -0.014956546 -0.08393026 0.034824144 0.032835267
000330 36 06 06 3d f7 70 fb 39 6c ab 84 bc 16 74 ae 3d
       0.032720767 0.00047958616 -0.016195022 0.085182354
000340 b2 32 a5 bd 61 6e 9a 3d 99 d6 38 3d 32 67 33 bd
       -0.0806631 0.07540584 0.04512653 -0.043799587
000350 9a a5 de bd 85 8b 1c bd 46 e7 8d bd 5e e5 0f 3e
       -0.1087143 -0.038218994 -0.069288775 0.1405234
000360 1e 56 da 3d 09 4a 9f bd 01 20 15 3d 4d a6 37 3d
       0.10660957 -0.07777793 0.036407474 0.04483633
000370 3f a0 09 3e 3e cd 48 bb 9c 8d b8 bd cd 2d 9e bd
       0.13440035 -0.0030639912 -0.09011385 -0.077235796
000380 3e a9 a2 3d 17 1a 8a 3d 5a 1d 5e bd 92 8f 53 bd
       0.07942437 0.067432575 -0.05422721 -0.05165059
000390 c6 8b 2d 3d 01 11 87 3d e4 5f b4 3c 25 ae ca bd
       0.042369626 0.0659504 0.02201838 -0.09896497
0003a0 0e cd 19 3e 8b 75 9d bd 30 43 65 3d ca 81 af 3c
       0.15019628 -0.07688435 0.055972278 0.021424193
0003b0 f2 8f 78 3d 42 13 85 3d af df 3e bd 4f fb ae bd
       0.060684152 0.06497814 -0.04660004 -0.08544027
0003c0 1e d9 c6 3d 3c a9 9f bc 84 ec 7d 3c 51 ed 84 bd
       0.097093806 -0.019489877 0.015498284 -0.06490577
0003d0 17 20 07 bc 66 d3 67 3d 1c 5a 9a 3d 7e 66 16 be
       -0.008247397 0.05659809 0.07536718 -0.14687535
0003e0 31 a5 6c 3d 42 a1 ac bd 9f 5e 45 3d 58 77 27 bd
       0.057774726 -0.08429195 0.04818594 -0.0408853
0003f0 87 ed b3 3c 84 c2 57 3d b5 b6 80 bc 1f ef bf 3d
       0.021963848 0.05267574 -0.015712122 0.093717806

a2c_network.actor_mlp.2.bias f4 [128]
000000 52 4b 45 be 29 41 d6 bc e3 ad 7c bd 89 d1 91 3d
       -0.19267014 -0.026154118 -0.06168927 0.07120044
000010 1e 32 cb bc ee a0 88 3c 57 97 d3 bd 80 16 af bd
       -0.024804171 0.0166783 -0.103316 -0.085492134
000020 e7 6c 9f bd 0c 27 29 3d 9e 38 84 be da c1 c5 bc
       -0.07784443 0.041297004 -0.25824445 -0.024140287
000030 b0 1b 4d be 03 61 36 be 1b 6c 28 3d 16 0e 24 be
       -0.20030093 -0.17810445 0.041118722 -0.16020998
000040 3d f4 35 3c e0 8d d0 bd f9 4e 54 bd 37 9a e1 bd
       0.011105594 -0.101833105 -0.051833127 -0.11015742
000050 ef 1c 10 be a2 a2 03 be f5 7d a3 bd 56 19 9e bc
       -0.14073537 -0.12855008 -0.07983009 -0.01929919
000060 07 ea 46 3d fa 5a 13 be 21 9c 41 be e8 0e 6f bd
       0.04856303 -0.14390174 -0.18907215 -0.058363825
000070 f9 e1 84 be 23 bc b2 bd 6f 6f 95 bd f2 7b 03 be
       -0.25953653 -0.087272905 -0.07296645 -0.1284025
000080 79 c4 6d 3c 27 9f 34 be 12 6c 97 bc e4 0d 5c bd
       0.014512175 -0.17638837 -0.01848415 -0.053724185
000090 02 92 86 bd a0 fa c3 3d bc 5f 8f bd 71 1a ac 3d
       -0.065708175 0.09569287 -0.07000682 0.08403481
0000a0 d5 d0 41 be 63 5e 22 3e 81 f3 81 3d c8 fb 01 be
       -0.1892732 0.15856318 0.06345273 -0.12693703
0000b0 3c de 2b 3e 65 5d 26 bd 90 29 af bd d2 1b 2a 3b
       0.16783994 -0.04061641 -0.08552849 0.0025956524
0000c0 f2 6f 30 3d 28 b4 f0 bd 5e 7f e0 3d fb 58 f6 3b
       0.04307551 -0.11753112 0.10961793 0.0075179315
0000d0 2b 7e bd 3c 6e 5c a0 3c 81 14 f4 bd 90 af 7f 3d
       0.02313145 0.019575324 -0.11917973 0.06242329
0000e0 7a a9 25 3d 1c d4 80 3d 34 74 a1 3d 0c 24 3d 3d
       0.04044483 0.06290457 0.07883492 0.046176955
0000f0 8a 81 83 bd 66 04 87 bd a0 1e 05 be 41 cf de 3d
       -0.06421192 -0.06592636 -0.12999964 0.10879374
000100 7b 30 bf bd 88 70 33 be db 09 91 bd 5e 01 67 3c
       -0.09335419 -0.17523396 -0.07081958 0.014099447
000110 c3 46 2a bd b4 38 ac bc 55 d0 18 bd 6f 3a 2b bd
       -0.04157139 -0.021023132 -0.037308056 -0.041803773
000120 a5 bd 1f bd 5d b2 62 be cc 59 05 3d e7 f2 b9 bd
       -0.03899922 -0.22138353 0.03255634 -0.09079533
000130 ef 1c 2c be 69 63 86 bc e0 25 74 3c 54 1c f7 bd
       -0.16807912 -0.016404824 0.014901608 -0.1206595
000140 44 ea 8b be f2 ef 60 bd ef c6 08 3d 57 85 96 3d
       -0.27327168 -0.05491633 0.033392843 0.07349651
000150 ba bf 96 3d 16 ec fc 3c 44 b4 88 3c 56 d8 af bd
       0.07360788 0.030874293 0.01668752 -0.08586185
000160 17 3c 24 bd bf ba 73 be e5 b5 2e bd fe 5d 78 be
       -0.04009637 -0.23801707 -0.042653937 -0.24254605
000170 99 56 26 be 58 b4 15 bc ce 0a 3f be 86 43 06 be
       -0.16243972 -0.009137236 -0.18656465 -0.13111696
000180 87 b0 f0 bd 88 05 c4 3d ca 15 20 3d 7b 85 d6 bd
       -0.1175242 0.095713675 0.03908328 -0.10474678
000190 b7 79 a1 3c 23 ff f8 3b 4e 51 be bd 5c c1 27 bc
       0.019711358 0.007598774 -0.092928514 -0.010238972
0001a0 1a 8d a9 be ff e8 f0 bd 49 de 46 be 8f f3 55 3d
       -0.33115464 -0.117631905 -0.19420733 0.05223423
0001b0 1d 21 a5 bd ed 9b 2c bd c6 99 0b bc 2e da 87 bd
       -0.080629565 -0.04214089 -0.008520549 -0.06633411
0001c0 fe 01 72 bd f3 25 b2 3d 95 61 36 3d eb cb c5 3d
       -0.05908393 0.086986445 0.044526655 0.09658035
0001d0 fc 16 3d be ee e6 c9 3c fb ac 27 3d 65 c5 a7 3b
       -0.18465799 0.024646249 0.04093645 0.005119967
0001e0 00 73 e0 3d 19 bb 97 bd e3 ac 93 bd 4d 12 87 be
       0.109594345 -0.07408733 -0.0721071 -0.2638115
0001f0 13 34 fe 3c ec f0 3e be 0d f2 30 3d f4 c3 ad bd
       0.03103069 -0.18646592 0.043199588 -0.08484641

a2c_network.value.weight f4 [1, 128]
000000 70 52 0e be 19 b3 2e bc a5 de 03 3c b8 03 df 3d
       -0.13898635 -0.010662817 0.008048688 0.10889381
000010 24 86 f2 bc b8 00 a5 bc af d3 0b bc 0e 52 06 3d
       -0.029604979 -0.020141944 -0.008534356 0.032793097
000020 72 ac 82 bd 28 76 9a bc 14 99 4f bd 31 a5 7b 3d
       -0.063805476 -0.01885517 -0.050683096 0.061436836
000030 08 e2 0c be 06 f6 62 bd 3e 46 83 ba 37 03 ac 3c
       -0.13758099 -0.055410407 -0.0010015441 0.020997627
000040 b1 17 59 bd b2 01 d7 bc 73 76 af 3c 30 bd 81 3d
       -0.05300111 -0.026245926 0.021418786 0.06334913
000050 0e 1d 76 3a 03 5e d9 bc 71 30 05 be e0 79 34 bc
       0.0009388485 -0.026534086 -0.1300676 -0.011015385
000060 b9 0b a2 3d 67 b5 13 3d d0 99 84 37 21 da 17 3d
       0.07912392 0.03606167 1.580725e-05 0.03707326
000070 f4 34 06 be 5c 1a ef bd 7d 36 90 bd cf e4 e5 bc
       -0.13106138 -0.116749495 -0.07041643 -0.028063206
000080 5e 16 88 bd 8a c7 2f bd 3e b2 44 bd fc 58 fe bc
       -0.06644891 -0.042914905 -0.048021547 -0.03104829
000090 7d 70 83 bc 25 08 1c bd 42 0b 37 bc 67 43 88 3d
       -0.01604485 -0.038093705 -0.011172118 0.06653481
0000a0 92 a8 84 bd cb 3d 25 3e 89 6f 61 3d 34 fc bf bc
       -0.06477465 0.16136853 0.05503801 -0.02343569
0000b0 6b 8a f9 3d 62 b7 6b 3d 00 67 f3 3b 67 22 96 bc
       0.12184604 0.057547934 0.00742805 -0.018326951
0000c0 6d d9 5a 3c a7 83 9b 3d 9e fe 0a 3e 35 b5 a6 3d
       0.013357502 0.0759347 0.13573691 0.08140031
0000d0 d2 dc ab 3d fb b9 8f 3c e0 72 9c bd 90 fe dc 3d
       0.083917275 0.017544737 -0.07639098 0.107907414
0000e0 25 b5 6f 3c 74 dd bb 3d 5d 82 50 3a 71 b9 9f 3d
       0.014630591 0.09173098 0.0007953996 0.07799042
0000f0 66 6c cb bd 47 c8 a9 bd 21 1e 4a bd 30 b0 40 3d
       -0.09932785 -0.08290153 -0.04934514 0.047043025
000100 52 39 53 3b fe 3c 00 bd b1 1c 44 3d dd 48 6f 3d
       0.003223021 -0.031308167 0.047878925 0.058419097
000110 2c ac 1c 3d 10 9f 3e bb 10 0a a9 bd 12 ab bf 3d
       0.038250133 -0.0029086508 -0.082538724 0.09358801
000120 13 e8 94 bd 4d 30 ba bd ce 59 10 be 35 8e a6 bc
       -0.07270827 -0.09091244 -0.14096758 -0.020331481
000130 61 07 8b bb b7 6e 09 3e bc 65 4f bc 22 ee fb bd
       -0.004242823 0.1342114 -0.012658533 -0.123012796
000140 9a 73 ec bd 38 05 e1 bc 6a 6d 16 bd 56 6c ab 3d
       -0.11545487 -0.027468309 -0.03672544 0.08370273
000150 58 0e 3e 3e 7f 66 bd bb 07 6f 8a bd 6e e7 f3 bc
       0.18560159 -0.0057800408 -0.06759458 -0.02977344
000160 9d 1c 2e 3d 9e 43 63 be e8 6f 85 bc b4 e6 2c bd
       0.042507757 -0.22193763 -0.016288713 -0.042212203
000170 27 41 d4 bd 12 22 4b 3d de 31 03 be 68 d2 e3 bd
       -0.10363989 0.04959304 -0.12811992 -0.11124116
000180 38 9c 8e bb a8 2d 0c 3e 4f c9 2d 3d ad b9 0b 3d
       -0.004352119 0.13689291 0.04242831 0.03411262
000190 f1 6f a1 3c 84 be 8e bd 6e d8 1a bd d4 42 e6 bc
       0.019706698 -0.06969932 -0.03780406 -0.028108038
0001a0 46 db cd bd 04 ed a7 bd f7 4d 9c bd af 07 07 3e
       -0.10051589 -0.08199504 -0.07632058 0.13186525
0001b0 50 d5 be bc d1 1e a8 bc 64 0c 02 3d ca 4c ed bd
       -0.023295075 -0.020522507 0.031750098 -0.11586912
0001c0 24 dc 40 bd 56 ea 97 3d c0 71 2b 3e 16 27 2b 3e
       -0.047084942 0.07417743 0.16742611 0.16714129
0001d0 d2 5d d2 bd a8 49 f1 3d 2c ec c6 39 2f 5b a4 3d
       -0.10271801 0.11781627 0.00037941465 0.080252044
0001e0 99 93 e5 3d e5 4e 8f bd e6 71 7f bd 3d 06 0e be
       0.11209793 -0.0699747 -0.06236448 -0.13869567
0001f0 62 bb 83 3c 01 62 11 bd 68 fd b7 3d f7 cc cc bc
       0.016080562 -0.035493854 0.0898388 -0.025000079

a2c_network.mu.weight f4 [6, 128]
000000 4f ea 5f bd 02 a0 17 bc a2 32 89 3d 4d d0 d3 3c
       -0.054666813 -0.009254457 0.066991106 0.025856161
000010 09 87 61 3d 5a 69 e8 3d 53 6a b9 3c 8e d3 3c bd
       0.05506042 0.11348219 0.022633707 -0.04610019
000020 8b 55 52 bd f9 60 13 bc 5d 20 aa 3b 6b b7 71 bd
       -0.05135111 -0.008995288 0.0051918463 -0.05901281
000030 11 c8 8f 3c 50 79 40 3d 4f 31 00 3c 69 cb da bb
       0.017551454 0.046990693 0.007824256 -0.0066770804
000040 6a 40 50 3d 8f 15 9b 3d 8a 3d 11 3e f9 88 49 bc
       0.05084268 0.07572471 0.14183632 -0.012300723
000050 22 76 3c bd cb 33 44 bd e6 ff c8 3a d2 4f 99 bb
       -0.046011098 -0.047900956 0.0015335053 -0.004678705
000060 74 82 36 3d d5 87 78 3d 7e ab 00 bd 65 97 17 bd
       0.044558004 0.060676415 -0.031413548 -0.037009615
000070 a5 0b ec bc a7 dd c8 3d 84 63 ba bd a9 bc a0 3c
       -0.028814146 0.09807902 -0.09101012 0.01962121
000080 fa 5a a3 3d 8d 39 09 be 12 16 23 3d 70 2b f0 3c
       0.07976337 -0.1340086 0.03981597 0.029317588
000090 4d d8 39 3e 51 2b 15 bc b9 59 a8 bc 30 f8 54 3e
       0.18148918 -0.009104566 -0.020550596 0.20797801
0000a0 47 41 73 bd 99 75 b0 bc 10 f0 a6 bb 69 55 a7 3d
       -0.059388425 -0.02154045 -0.0050945356 0.081705876
0000b0 46 67 97 3d 42 2e 54 3d 94 fb 8c bc 3e 8c 1f bd
       0.07392745 0.051801927 -0.017209806 -0.038952105
0000c0 84 6e 5e 3b a2 c5 95 3d 36 a1 a2 bd e0 ec c9 3b
       0.0033940384 0.07313086 -0.07940905 0.006162271
0000d0 5b 8d 48 3d e0 55 85 3d fc 16 c3 bd 89 20 0f bc
       0.048962932 0.0651052 -0.09525868 -0.008735784
0000e0 31 78 8f bd 2a 6b ab bc 11 00 86 3c 2b 22 bc 3d
       -0.070053466 -0.020925123 0.016357454 0.091862045
0000f0 53 06 b4 bd 0b b4 68 bd f6 ce fc bb dd 64 7a b9
       -0.08790269 -0.056812327 -0.0077151014 -0.00023879432
000100 4e 20 ef 3c 20 5c 36 3d ee fe b1 bd d0 91 bd bc
       0.029190209 0.04452145 -0.08691202 -0.023140818
000110 f4 e6 d4 ba 7a b1 03 3d 34 ba ae bc 4a 37 66 bc
       -0.0016243146 0.032151677 -0.021329023 -0.014051268
000120 80 47 4e bc 8f e5 1c be 0b 39 9a bd 55 4f 1b 3b
       -0.012590289 -0.15321945 -0.07530411 0.0023698409
000130 d4 b2 91 3c 66 68 99 bd 25 3a 31 bd d7 7e 0f bb
       0.017785467 -0.074906155 -0.04326834 -0.002189567
000140 13 82 ee bc 92 af 7e 3b 79 bc 29 bc 50 1d 4c bc
       -0.029114759 0.0038861972 -0.010359877 -0.0124581605
000150 73 c7 02 bd ff f8 97 bd ef 39 3b 3d 92 07 5b bd
       -0.03192849 -0.07420539 0.045709547 -0.053474016
000160 e1 df 77 bd 24 00 f3 3c bb 2b 4f bc b2 df 43 bd
       -0.060516242 0.029663153 -0.0126447035 -0.047820754
000170 2e 93 df bd 7c d3 b5 bc 93 e3 c4 3d 53 59 21 3e
       -0.10916744 -0.02219557 0.09613719 0.1575673
000180 c0 f1 c2 bd 8c 4a c3 3a cc f6 30 3c 3b c7 3f be
       -0.095187664 0.0014899536 0.010801028 -0.18728344
000190 2e 26 76 3d a1 ce ff 3c 57 04 f4 3c ba 23 5a bd
       0.060095005 0.031226458 0.029787226 -0.053256728
0001a0 37 fd e8 bd c5 de 3a 3d c3 e7 d5 bc 9e 14 2d 3d
       -0.11376422 0.045622606 -0.02611149 0.04225599
0001b0 57 f1 97 bd 12 4a 2a bc 62 a2 7f bd 31 9a e0 bb
       -0.07419079 -0.010393636 -0.06241072 -0.0068543185
0001c0 47 59 0c bd 8b dc 6d 3d 05 96 ca bc a7 bb 86 bc
       -0.03426483 0.058071654 -0.024729738 -0.016446901
0001d0 a6 7b c5 bd 20 5c bf bd 3d 00 7a ba db f1 61 3d
       -0.09642725 -0.09343743 -0.00095367787 0.055162292
0001e0 10 c2 be 3d e7 e1 a8 3d f4 de 11 3c 47 1d 71 bd
       0.09314358 0.082462125 0.008903254 -0.05886581
0001f0 9d 0f e2 3c cc b0 62 bd 82 75 d1 3c 46 f5 74 3c
       0.027595336 -0.055344388 0.025568727 0.014951056
000200 18 23 fb bd 49 7b 1e 3c ab 87 54 3c 1b d2 e3 3d
       -0.12262553 0.009672948 0.012971799 0.11124059
000210 ec 21 d5 bc 2d d6 dc bc 58 68 9a bd fe 74 5c bd
       -0.026017152 -0.026957596 -0.07539433 -0.05382251
000220 4b 8e 25 be b1 02 93 bc 09 92 5c 3d 96 ad 95 bc
       -0.16167562 -0.01794562 0.053850207 -0.018271249
000230 11 ee 13 3d 7f 7f bd 3c 4f db 21 bd fe 2e 91 3d
       0.03611571 0.023132084 -0.03951579 0.07089041
000240 50 9c 04 bd 13 39 70 3d a8 34 91 bc 0e e0 5c 3d
       -0.032375634 0.05864818 -0.017725304 0.053924613
000250 e7 c3 d9 3c 0a 00 14 bd 06 f8 a0 3d 75 e9 3b bc
       0.026582671 -0.03613285 0.07859807 -0.011469235
000260 43 ac f6 bc 94 88 79 bd 3c 3a e3 bd 88 cb a2 3c
       -0.030111438 -0.060921267 -0.11095092 0.019872442
000270 f2 53 cb bd 2f 62 11 3d 47 ad 78 3c 72 a7 f2 3c
       -0.09928121 0.035494026 0.015178031 0.02962086
000280 8a e2 64 3c 37 2c c3 3c 3e 24 ab bc 6b ab 03 bc
       0.013970027 0.023824794 -0.020891305 -0.008036475
000290 27 c5 b0 3c 45 64 f6 bc 04 3e 48 3c 0f 5b ed bd
       0.021578385 -0.03007711 0.012221817 -0.11589634
0002a0 4a 3f 3b bd e2 6a 8d bd 95 6b e5 bc 57 11 24 3c
       -0.045714654 -0.06905152 -0.0280054 0.0100139
0002b0 a6 f7 d3 3c 53 45 97 bd 3f 0a 55 3d 71 d7 ec bb
       0.025874924 -0.073862694 0.052011725 -0.007227831
0002c0 84 98 9a 3d 54 dd 64 bd 2d 8d a2 bd 4c c9 59 bd
       0.07548621 -0.055875137 -0.079370834 -0.053170487
0002d0 4d ac c2 3b 18 d0 ca bd bf 10 ec bd 28 a3 c6 bd
       0.00594095 -0.09902972 -0.115266316 -0.09699088
0002e0 35 5c c0 bc f6 00 f5 3a a7 a3 7e 3d a9 f4 1b 3c
       -0.023481468 0.0018692303 0.06216779 0.009518781
0002f0 6a 90 51 3b af 81 4c bd 35 6b 7e 3d ed 97 4b bd
       0.0031976947 -0.049928363 0.06211396 -0.049705435
000300 6f 7c cd bc ed 37 56 ba cf be e3 3b cc 01 be bd
       -0.025083749 -0.0008171786 0.0069502364 -0.092776865
000310 ce 49 cb 3c 01 be 0b bd b1 7f 20 bc 05 85 88 bd
       0.024815466 -0.03411675 -0.009796069 -0.066659965
000320 77 9a 3a bd 79 aa f5 3d 31 f7 0c bd d1 74 05 3d
       -0.045557465 0.11995406 -0.034415428 0.032582108
000330 36 b8 14 3e 67 5e 49 3c fb f9 9e 3a 8a 85 db 3c
       0.14523396 0.012290574 0.0012128943 0.026797075
000340 98 3e 87 3d 88 8b d4 bb ec 0b 55 3d 47 9d ac bd
       0.06603736 -0.00648636 0.052013323 -0.08428436
000350 48 57 3c 3d f0 48 24 ba 17 d8 d5 bd 31 ab 99 3d
       0.045981675 -0.0006266972 -0.104416065 0.07503355
000360 bd cf 02 3e dc 61 21 bb d1 13 54 bc 3a 8c b2 3d
       0.12774558 -0.002462498 -0.012944178 0.08718152
000370 ff 88 bb 3d 32 fa 23 bd 29 80 d8 bc ac ff 76 bd
       0.09156989 -0.040033527 -0.026428299 -0.06030242
000380 69 21 9d 3d 60 49 bf 3c c0 16 6f bc 8c cd cd 3d
       0.07672388 0.023350418 -0.014592826 0.100489706
000390 ce 56 17 bb f5 4c 97 bd 02 3a 7f 3d 90 e5 0b 3c
       -0.002309251 -0.07387725 0.06231118 0.008538619
0003a0 e7 98 2f 3e 96 2e 07 3e ec f5 96 bc d6 3a 83 3d
       0.17148171 0.13201365 -0.018427812 0.064077064
0003b0 c2 5c ce 3c 93 78 a6 bd 45 bc 5c 3c 48 73 00 bd
       0.025190715 -0.081284665 0.013472621 -0.03135994
0003c0 42 df e9 3d c0 a1 a0 bc 2e 60 19 bd 01 78 5f 3c
       0.11419536 -0.019608378 -0.03744524 0.013639451
0003d0 f0 73 2d 3d 86 6b 28 bd ec 16 ca bc fb 0a 72 bd
       0.042346895 -0.041118167 -0.024669133 -0.059092503
0003e0 fb 3f fd bb 8d 80 df 39 46 04 76 bc 23 f8 ad bd
       -0.0077285743 0.00042629652 -0.015015667 -0.08494594
0003f0 33 73 cf bc 17 5b e2 3d de 39 d3 bb 31 9d 9e bc
       -0.025323486 0.1105253 -0.0064461073 -0.019362064

a2c_network.mu.bias f4 [6]
000000 dd 3a 58 3c 69 fe ec bd a5 cc a1 3d a5 61 b1 bd
       0.013197628 -0.115719624 0.07900361 -0.08661202
000010 66 8c e3 bd c6 d1 86 3d
       -0.11110763 0.0658298

exp_avg f4 [6]
000000 1b f6 79 ba 58 74 11 bb d5 51 34 3b 49 ec fc 3a
       -0.0009535269 -0.002219459 0.0027514596 0.0019296493
000010 75 5f 52 3a f1 6c 30 3b
       0.00080250885 0.0026920403

exp_avg_sq f4 [6]
000000 be a0 67 38 7f d0 69 38 50 0a 17 38 74 9e 64 38
       5.5224395e-05 5.5745706e-05 3.601081e-05 5.4507007e-05
000010 c5 cf 98 38 8b 21 43 38
       7.286625e-05 4.6522862e-05

exp_avg f4 [128, 30]
000000 27 81 c7 b9 02 13 d4 b9 bf 7f 1a 3a 74 76 7c ba
       -0.00038052464 -0.00040449953 0.00058936694 -0.0009630688
000010 60 6d 17 39 ee 70 23 ba 33 4e 27 ba 48 4b 8b 3a
       0.00014441228 -0.00062347844 -0.0006382197 0.0010627294
000020 0e 54 88 b9 5c 26 57 ba 62 fd 0b 38 d4 cc 89 ba
       -0.00026002567 -0.0008207315 3.3376164e-05 -0.0010513314
000030 78 e0 04 ba c3 99 53 3a 5a 98 1e b9 27 0f 85 3a
       -0.0005068849 0.00080719235 -0.0001512481 0.001015161
000040 94 6a 1e 3a 6f c8 a9 b9 ef bc 18 ba 25 64 47 ba
       0.0006043103 -0.00032383527 -0.0005826493 -0.000760617
000050 54 32 e1 b8 8e c9 0e ba 71 92 e4 b9 7f b6 ed b9
       -0.000107382104 -0.0005446904 -0.00043596656 -0.00045340133
000060 cd 71 5a ba 40 9f 31 39 a7 eb c6 38 2b 2e 8b ba
       -0.00083329977 0.0001693936 9.4852694e-05 -0.0010618618
000070 77 8a 3a 39 92 79 22 ba 20 7d 87 3a 20 a4 98 b9
       0.00017789924 -0.0006197925 0.0010336973 -0.00029113982
000080 13 a3 a4 ba 8f 36 45 3a 58 c2 ea 39 26 d0 42 3a
       -0.0012560807 0.00075230835 0.00044776755 0.0007431529
000090 50 42 e1 37 2f 09 08 bb 80 1b 88 ba f0 3e 25 3a
       2.685297e-05 -0.0020757427 -0.0010384172 0.0006303629
0000a0 c1 72 58 3a 5b 7a 1d 3a a3 47 ce 3a 52 41 47 3a
       0.0008256846 0.0006007307 0.0015737902 0.0007600981
0000b0 9e 4d 1a bb 7f c2 be ba e6 44 17 ba 95 f4 91 3b
       -0.0023544799 -0.0014553814 -0.00057704595 0.0044542053
0000c0 1b 0e b8 3a 71 88 6c b8 1f 4e bc b9 4d 92 c7 3a
       0.001404229 -5.6393856e-05 -0.0003591636 0.0015226096
0000d0 14 c3 c3 3a 11 82 42 ba d9 22 31 3a ef 77 a1 37
       0.0014935457 -0.0007419894 0.0006757207 1.9248544e-05
0000e0 f9 e4 30 3a 3a 25 32 39 c6 9b 43 3a b0 50 e2 b8
       0.0006747987 0.00016989271 0.0007461872 -0.00010791549
0000f0 3d 4f 95 b9 38 19 05 ba f0 b8 96 ba 4a bf 8b b9
       -0.00028478532 -0.0005077305 -0.0011499207 -0.00026654667
000100 51 cb 80 ba 6f c4 bc ba e7 8b 33 3a d3 96 30 3a
       -0.0009826218 -0.0014401803 0.0006849155 0.0006736342
000110 61 82 54 ba e9 4f 61 b9 9e d9 4a 3a 3a 6e a1 3a
       -0.0008106586 -0.00021487441 0.0007738116 0.0012316175
000120 ce e4 95 b8 39 99 59 3a f3 82 ef 38 18 12 3b 39
       -7.147492e-05 0.0008300725 0.00011420799 0.0001784045
000130 64 df 43 39 74 8c 97 ba cf ae 80 3a 29 80 83 b9
       0.00018679869 -0.0011562244 0.0009817722 -0.00025081754
000140 81 a7 af b9 12 70 46 b8 f7 49 9d 38 33 33 e7 b8
       -0.000335034 -4.7311252e-05 7.5001204e-05 -0.00011024475
000150 cb 8f 9f 3a 7d c9 8b b9 9a a7 8d ba b3 9c 04 38
       0.0012173591 -0.00026662266 -0.0010807395 3.161719e-05
000160 d7 e2 50 39 2d 78 72 3a c6 74 68 3a 72 fc 73 b9
       0.0001992093 0.0009249475 0.0008867498 -0.00023268329
000170 ff 79 33 ba 74 80 01 3a 2b 46 21 3a 3a b4 3d b9
       -0.0006846487 0.00049401005 0.00061521184 -0.00018091584
000180 fe 6e bc 38 63 c7 d9 b9 dd 0e 31 38 51 db be 38
       8.9852125e-05 -0.0004153802 4.221393e-05 9.100757e-05
000190 e6 6e aa b9 22 67 33 3a 8b 26 f9 39 04 01 44 b9
       -0.00032507553 0.0006843676 0.00047521698 -0.00018692395
0001a0 3f e1 bf b9 da b0 ee b9 3d 89 c7 38 cd 8c da 39
       -0.0003659818 -0.00045526662 9.514622e-05 0.00041685105
0001b0 63 05 a0 39 1f 3a 09 ba 85 e2 9e b8 53 34 c5 38
       0.00030521592 -0.0005234796 -7.57622e-05 9.403438e-05
0001c0 e6 6e 1c 38 03 dc 57 b9 d2 81 17 3a 7d 70 bb b8
       3.729658e-05 -0.00020585959 0.00057795376 -8.9378074e-05
0001d0 43 8b 45 b9 05 2b 19 3a 67 cb 8a b9 9d 8b 45 3a
       -0.00018839263 0.0005842897 -0.00026472958 0.00075357576
0001e0 28 44 0e b9 8b 96 b8 3a 8e 17 cf ba f1 ab 23 ba
       -0.00013567565 0.0014082951 -0.0015799867 -0.0006243578
0001f0 eb a2 94 ba 9a 64 c0 3a e6 d1 4f ba be ca 7d ba
       -0.0011340057 0.0014678419 -0.00079277006 -0.0009681395
000200 6d fd fc 3a fd 12 46 b8 73 f3 df ba 7f 45 0a ba
       0.0019301601 -4.7224563e-05 -0.0017086103 -0.0005274638
000210 63 9e 87 3a d5 19 c3 ba 17 5b 50 ba 69 6c e8 b9
       0.0010346886 -0.0014885018 -0.0007948144 -0.0004433126
000220 99 b5 bc ba 0f b8 10 3b 34 93 58 ba 2b 69 42 b5
       -0.0014397382 0.0022082364 -0.0008261681 -7.242367e-07
000230 33 47 51 3a b3 ff 1b ba f7 f5 a8 3a 4e 92 12 3a
       0.0007983327 -0.0005950883 0.0012890686 0.0005591259
000240 4b 7d 08 3a a0 92 d6 b9 19 6a 5a 3a c9 18 3c ba
       0.00052066584 -0.00040926505 0.000833185 -0.0007175324
000250 f5 7a 42 3a de 05 ec 39 04 ab 29 b8 c7 4b 25 39
       0.0007418835 0.000450178 -4.045201e-05 0.00015763855
000260 64 d5 ea b8 0f e6 2f b9 9e 07 0c b9 e2 e9 95 ba
       -0.000111977366 -0.00016775004 -0.00013354278 -0.00114375
000270 5f 8f 63 b9 6b fd 1d b9 70 4f 53 ba 33 7a 39 3a
       -0.00021701817 -0.00015067092 -0.00080608483 0.0007075399
000280 2b 52 0b 3a a5 4e 61 3a 4b 46 93 ba de 44 d3 3a
       0.0005314673 0.0008594788 -0.0011236159 0.0016118546
000290 ab ed 53 3a e3 05 2d 3a 72 2e 9e 3a 37 f0 59 bb
       0.00080844265 0.00066003035 0.0012068285 -0.0033254751
0002a0 a8 39 88 39 10 3d 90 ba 2a 7a 9c ba b9 90 f6 b9
       0.000259829 -0.0011004526 -0.0011938263 -0.00047028603
0002b0 77 85 0c ba 2b 2c 11 39 fb a7 59 3a 1f ca f3 b9
       -0.0005360464 0.00013844731 0.0008302924 -0.00046499164
0002c0 ce ed d1 ba a0 2a e0 38 c8 e7 d2 38 45 13 3c 39
       -0.0016016306 0.00010689092 0.00010056753 0.00017936256
0002d0 0b d5 4f 39 d7 0f cf b9 f6 e8 d0 3a c0 8c d1 b7
       0.00019820423 -0.00039493918 0.0015938568 -2.4980283e-05
0002e0 81 96 80 ba bc a6 cf b9 2b 53 c6 b9 b6 84 6d 3a
       -0.0009810479 -0.00039606343 -0.00037827468 0.0009060608
0002f0 b5 b6 7a ba 96 62 37 ba f6 f0 5f 3a 40 4d af 38
       -0.00095639686 -0.00069955864 0.0008542681 8.359039e-05
000300 f9 0b ad ba dc 0f ab 3a 96 f1 11 3a 45 4f 8b b9
       -0.0013202421 0.0013050991 0.000556731 -0.00026571206
000310 00 cf 34 3a 27 60 e1 ba 46 b0 10 b9 85 ae b1 b9
       0.00068973005 -0.0017194793 -0.00013798577 -0.00033890098
000320 b5 05 89 39 fd 74 62 ba 16 67 18 bb 06 12 91 3a
       0.00026134928 -0.00086386484 -0.0023254803 0.0011067993
000330 93 22 28 b9 68 af d1 b9 48 20 e6 39 f2 cc eb ba
       -0.00016034608 -0.00039994274 0.0004389307 -0.0017990156
000340 6c 61 bf ba 5e 83 d1 ba 62 35 13 3a de 38 87 ba
       -0.0014601178 -0.0015984585 0.00056155596 -0.001031663
000350 fd 79 8f 3a b6 a3 ae 39 e2 42 ad 3a 2e d3 ca 3a
       0.001094639 0.0003330984 0.0013218785 0.0015474313
000360 21 f6 48 ba 3d 98 8d ba 49 fa 6e 39 b2 ba 3d 3a
       -0.00076660706 -0.0010802817 0.00022790687 0.00072375976
000370 d5 4c 60 b9 8d 03 80 b8 2b 24 20 3a c5 8e 46 b9
       -0.00021390927 -6.104177e-05 0.0006108905 -0.00018935937
000380 6c 04 dd b9 28 87 8d 39 62 13 15 39 4f cb a0 3a
       -0.000421557 0.00026994315 0.00014216968 0.0012267622
000390 3f 58 83 ba f7 a2 41 39 55 4b 93 39 b5 46 14 ba
       -0.0010020806 0.00018466623 0.00028094152 -0.0005656288
0003a0 a5 82 69 ba b0 df 1e b9 72 70 c6 ba b3 44 fd 39
       -0.0008907712 -0.00015151384 -0.0015139712 0.00048307105
0003b0 7e 29 1f 3a 37 74 08 ba 8e 58 7a ba c7 ac 28 ba
       0.00060715515 -0.00052053056 -0.0009549939 -0.0006434437
0003c0 11 14 9c 39 4c f2 26 3a 33 73 3a 3a cd cb b5 ba
       0.0002976959 0.00063685025 0.0007112503 -0.0013869941
0003d0 62 06 91 ba 45 9d fe 3a 24 4b ee ba d8 46 8a ba
       -0.0011064524 0.0019425532 -0.0018180353 -0.0010549678
0003e0 f3 c5 4d 3a 90 98 07 b9 29 68 12 ba 1a 07 9b ba
       0.0007849626 -0.00012931437 -0.0005584979 -0.0011827678
0003f0 e9 b0 9e ba b2 31 47 ba d2 e6 d1 ba cb 63 cb b8
       -0.0012107167 -0.0007598653 -0.0016014224 -9.698382e-05
