training/runs/WalkBot/nn/last_WalkBot_ep_250_rew_19.272253.pth (torch, 267394 bytes, 30 tensors)

running_mean f8 [30]
0.1823966776863221 -0.2075425808587944 -0.07688428504887176 -0.34369979487805624 -0.14122600503509183 -0.026038770971375417 0.024910097173873217 4.486281194570545
1.645919612084527 -4.682631119071595 -0.061749563996382616 -0.061152212284811394 -0.040364497419607126 -0.49010004145726915 0.40814126211782364 0.02502771622795478
-0.39371022222731955 0.5902391355690448 -0.03964481017164665 -0.007549994340821701 0.011861735747781751 0.017467795890970576 -0.011735402565364417 -0.12755485796981011
0.023481433578879326 -0.13715226185469814 0.2292610626659796 -0.05819533983535155 -0.3778592201747166 0.13966786783163138
00000000: 45e9 c73a c658 c73f 4c71 a85a c190 cabf
00000010: 9e7a dc41 b0ae b3bf 8829 a96c 2dff d5bf
00000020: bb37 7c98 b113 c2bf 0118 0057 e8a9 9abf
00000030: 91d0 ce52 0882 993f 795c 8db2 f3f1 1140
00000040: 03f8 9bcd af55 fa3f d993 eea6 03bb 12c0
00000050: eb3d d08b a39d afbf c2c0 aebf 574f afbf
00000060: 8062 acc8 a7aa a4bf 18f1 7490 cc5d dfbf
00000070: 0a6e 3c87 fc1e da3f ea41 c59a dda0 993f
00000080: 7e4d 245c 8c32 d9bf d4d3 022f 3de3 e23f
00000090: 3d65 4916 534c a4bf f705 762c beec 7ebf
000000a0: 9856 e238 f74a 883f bef5 56f0 13e3 913f
000000b0: fa00 ca11 bb08 88bf ab8f b6b3 b753 c0bf
000000c0: 7f4f 2355 840b 983f 7a82 9e8f 348e c1bf
000000d0: 6dc3 322f 6d58 cd3f 94b0 be92 c7cb adbf
000000e0: 401e 4970 d82e d8bf b6c7 51fe a2e0 c13f

running_var f8 [30]
0.0003568185114910079 0.03781219067117674 0.10281640514383711 0.051883805571389975 10.341164621963134 5.485652736568362 14.28106624827463 2.0567412334027906
0.055526920889056336 0.9437277479339556 0.0603197243118504 0.05559409832746846 0.060628004404727584 0.0877982614418865 0.04515943977328849 0.049151865898033456
0.040659642136612204 0.1145879216446703 3.530109518066665 4.288170316519402 4.649871030060478 3.2184300394919303 2.59460986841597 4.31253647114459
0.6346125383655286 0.5799086532507562 0.5527886575745232 0.6596791206377614 0.36161839937116586 0.7104957753329252
00000000: c6dc 63d6 6b62 373f b748 a594 1e5c a33f
00000010: ecc6 9509 2d52 ba3f 6506 3ea0 8390 aa3f
00000020: 8ac4 1b21 adae 2440 9818 73f3 4ef1 1540
00000030: aab2 50ea e78f 2c40 c365 6ebf 3474 0040
00000040: 243b 884a 066e ac3f c087 b688 0433 ee3f
00000050: 903e 7216 3ae2 ae3f 358c 5564 d476 ac3f
00000060: 7eb4 4740 a20a af3f 17df 8965 f279 b63f
00000070: 4d29 dd59 231f a73f 828c 23f1 6e2a a93f
00000080: 0ed5 7c32 57d1 a43f 0c00 fb4f a255 bd3f
00000090: 3d28 1b0f aa3d 0c40 e483 941e 1627 1140
000000a0: 0ce9 92ca 7799 1240 96a7 a03f 58bf 0940
000000b0: bbcd 95d1 c2c1 0440 387e 898f 0940 1140
000000c0: ee2a 3df4 be4e e43f 1024 8c97 9c8e e23f
000000d0: f73b bcd6 71b0 e13f 7dc8 1f63 171c e53f
000000e0: e795 bb7f c124 d73f d308 e0a2 61bc e63f

count f8 []
16384001.0
00000000: 0000 0020 0040 6f41

running_mean f8 [1]
1.9572437718625078
00000000: be2f 67d8 de50 ff3f

running_var f8 [1]
2.107017242842515
00000000: fcee 30db 2bdb 0040

count f8 []
4096001.0
00000000: 0000 0080 0040 4f41

a2c_network.sigma f4 [6]
-1.247859 -1.088389 -0.6850546 -1.3224087 -1.2540454 -0.71838313
00000000: d8b9 9fbf 5550 8bbf bd5f 2fbf b044 a9bf
00000010: 8f84 a0bf f5e7 37bf

a2c_network.actor_mlp.0.weight f4 [128, 30]
0.228365 -0.45834604 0.13043305 0.13591461 -0.02665599 0.20316373 0.14354058 0.040494505
0.2051984 0.09538469 -0.004816423 -0.008632845 0.2673734 0.20606224 0.15493955 -0.35368884
0.07011798 -0.08675135 0.13424242 -0.108577594 -0.10777291 -0.06562478 -0.037580397 0.1325423
0.10035342 0.04177842 0.06302715 0.021820862 0.105280995 -0.08113251 -0.02201276 -0.23658524
0.109897316 -0.43153483 -0.09549263 0.11648543 0.13158803 -0.1423255 -0.2828689 -0.05934177
0.20475267 0.15222144 0.12844765 -0.49384058 -0.184157 -0.0675842 -0.39529216 -0.2996401
-0.26830226 0.16853912 -0.13062517 -0.19878781 0.24047111 -0.060069494 0.054855574 -0.022199187
0.03656615 -0.070672855 -0.08113874 0.17093891 0.14395727 0.16267736 -0.038741134 0.18100715
-0.102585815 -0.2210418 0.09605351 -0.20896716 -0.004602036 -0.24335264 -0.048723772 0.08285326
0.011404704 -0.3251006 -0.019427387 -0.1809789 -0.23782873 -0.18251213 -0.095724046 -0.14019206
0.0885625 0.11208839 0.025213689 -0.09498641 -0.08187802 -0.06251541 0.084635764 -0.21654032
-0.12814903 -0.1353898 0.24381095 0.026448956 0.29937926 -0.22067411 -0.026742416 0.112219945
-0.041370936 -0.053403392 -0.044970486 -0.06801201 0.39489642 0.1430133 -0.07609365 0.31701857
0.092778355 0.05952636 -0.12230123 -0.34237596 -0.020591388 0.03297434 0.027801596 0.0009609412
0.23036912 -0.11862744 -0.021771176 -0.1265358 0.2851078 0.12111843 0.26752132 -0.07379468
0.018108826 -0.33116984 -0.040166557 -0.13835222 0.0010747622 -0.24259616 0.14286076 0.15445961
-0.27750075 0.030150402 0.380701 0.19041716 0.1594215 -0.35999814 -0.2527816 -0.039586622
-0.042861506 -0.06938982 0.07611171 -0.15407072 0.02587404 -0.058132317 0.10071491 0.08155628
-0.121055625 0.1985579 -0.0038177874 -0.03660976 0.12393468 -0.14266205 0.37788936 -0.19195506
0.2633286 -0.056225076 0.22024669 0.13891216 0.033550996 -0.023042185 -0.037038922 -0.012066849
0.043976344 -0.19590826 0.08628688 0.272634 -0.1557876 -0.14940976 0.031123102 0.21183765
0.15819779 0.19814838 -0.05715283 0.014404286 0.13663398 -0.040699836 -0.1853544 -0.17037441
0.04916466 -0.20506172 -0.14169589 -0.12155685 0.097706765 0.06414423 -0.13599013 -0.14655618
-0.119057395 -0.0064371373 0.046864126 -0.081226625 0.14501815 -0.06924265 -0.19767357 0.09286089
-0.0025658743 -0.24706522 -0.19255383 -0.2050771 0.1563024 0.08016361 -0.021137036 -0.22041428
-0.24678056 0.15036032 0.1987657 0.061884996 0.054928917 0.08389498 -0.056150254 -0.26192147
-0.028056882 -0.27790958 0.31219444 -0.23393475 -0.08970616 -0.14135534 0.1476887 0.028181938
-0.03247198 0.20337781 -0.039593875 0.12833582 0.0077496874 -0.13302484 -0.110185735 0.09334595
-0.019176546 -0.1169507 -0.07031138 -0.1507282 0.039523847 0.06306232 0.17408542 -0.09057895
0.1238826 -0.053246208 0.1997236 0.035306923 -0.058957662 0.12022472 -0.12472741 -0.018768074
0.15787345 -0.21063082 0.37228101 0.5227014 0.27204582 -0.16014534 -0.1626992 0.19543052
0.25087014 0.071147695 -0.31104183 -0.18140006 0.08529468 0.1340115 0.022050885 -0.27866462
00000000: 84d8 693e 55ac eabe 3e90 053e 332d 0b3e
00000010: aa5d dabc 270a 503e 4dfc 123e 91dd 253d
00000020: 881f 523e 0c59 c33d 16d3 9dbb c770 0dbc
00000030: 2be5 883e fb01 533e 79a8 1e3e b416 b5be
00000040: 049a 8f3d b1aa b1bd d876 093e ee5d debd
00000050: 0bb8 dcbd 4966 86bd e7ed 19bd 2bb9 073e
00000060: 1886 cd3d d91f 2b3d 6114 813d aac1 b23c
00000070: 909d d73d cd28 a6bd 1b54 b4bc 6743 72be
00000080: d811 e13d 22f2 dcbe a491 c3bd ea8f ee3d
00000090: 03bf 063e c7bd 11be 31d4 90be 5b10 73bd
000000a0: afaa 513e f0df 1b3e c887 033e acd8 fcbe
000000b0: a793 3cbe 9669 8abd bc63 cabe 6d6a 99be
000000c0: ea5e 89be 8595 2c3e 9bc2 05be 088f 4bbe
000000d0: 0f3e 763e 6e0b 76bd 3db0 603d 12db b5bc
000000e0: 63c6 153d eebc 90bd 112c a6bd 9c0a 2f3e
000000f0: 8969 133e e594 263e 06af 1ebd f059 393e
00000100: 8318 d2bd c858 62be b4b7 c43d 7dfb 55be
00000110: adcc 96bb 6f31 79be 9492 47bd f8ae a93d
00000120: ccda 3a3c 9673 a6be 2f26 9fbc 8852 39be
00000130: 6089 73be 76e4 3abe f80a c4bd 828e 0fbe
00000140: 4260 b53d 998e e53d f08c ce3c 3c88 c2bd
00000150: aaaf a7bd 1408 80bd 8455 ad3d bfbc 5dbe
00000160: 8039 03be a0a3 0abe 94a9 793e 7bab d83c
00000170: 3d48 993e 65f8 61be e912 dbbc 92d3 e53d
00000180: 9274 29bd 84bd 5abd f932 38bd e149 8bbd
00000190: dd2f ca3e 1472 123e fdd6 9bbd 4250 a23e
000001a0: 9402 be3d ead1 733d 1179 fabd e74b afbe
000001b0: 45af a8bc 1a10 073d 2cc0 e33c ace7 7b3a
000001c0: e2e5 6b3e f1f2 f2bd 7759 b2bc 9a92 01be
000001d0: a6f9 913e f00c f83d 8ef8 883e aa21 97bd
000001e0: f658 943c 188f a9be b085 24bd 34ac 0dbe
000001f0: 09df 8c3a 216b 78be 174a 123e a92a 1e3e
00000200: 9414 8ebe fafd f63c 3eeb c23e b7fc 423e
00000210: 643f 233e ad51 b8be 976c 81be 9525 22bd
00000220: 8c8f 2fbd 401c 8ebd 75e0 9b3d b7c4 1dbe
00000230: cbf5 d33c 271c 6ebd 9e43 ce3d fb06 a73d
00000240: 03ec f7bd c352 4b3e d833 7abb 1ef4 15bd
00000250: 77d1 fd3d 0016 12be b77a c13e de8f 44be
00000260: 02d3 863e 444c 66bd 5988 613e fd3e 0e3e
00000270: c56c 093d f7c2 bcbc 20b6 17bd 08b4 45bc
00000280: 8a20 343d 2d9c 48be 2db7 b03d af96 8b3e
00000290: c986 1fbe dffe 18be e0f5 fe3c f8eb 583e
000002a0: 9afe 213e 69e7 4a3e 1619 6abd f4ff 6b3c
000002b0: c7e9 0b3e dfb4 26bd 8bcd 3dbe a176 2ebe
000002c0: e260 493d b3fb 51be ba18 11be ccf2 f8bd
000002d0: 7c1a c83d 0d5e 833d ff40 0bbe d312 16be
000002e0: 5dd4 f3bd 9fee d2bb 99f4 3f3d 255a a6bd
000002f0: a37f 143e 17cf 8dbd f16a 4abe da2d be3d
00000300: 3a28 28bb aafe 7cbe d52c 45be bbff 51be
00000310: bd0d 203e d22c a43d 9427 adbc 48b4 61be
00000320: 0bb4 7cbe 0ef8 193e 3c89 4b3e 1f7b 7d3d
00000330: 25fd 603d 22d1 ab3d cffd 65bd 921a 86be
00000340: 8cd7 e5bc 2a4a 8ebe f3d7 9f3e 978c 6fbe
00000350: ddb7 b7bd 74bf 10be b53b 173e cfdd e63c
00000360: 5701 05bd 4642 503e 302d 22bd 776a 033e
00000370: 17f1 fd3b aa37 08be 0fa9 e1bd 292c bf3d
00000380: 2218 9dbc d983 efbd 6aff 8fbd 7e58 1abe
00000390: c2e3 213d d126 813d 7343 323e 7581 b9bd
000003a0: 29b6 fd3d b218 5abd 5884 4c3e fe9d 103d
000003b0: 977d 71bd 6138 f63d 1671 ffbd 81bf 99bc
000003c0: 94a9 213e 9baf 57be 9e9b be3e c2cf 053f
000003d0: 9749 8b3e 24fd 23be 9e9a 26be f01e 483e
000003e0: 0d72 803e e2b5 913d e040 9fbe f0c0 39be
000003f0: faae ae3d 503a 093e 0fa4 b43c 21ad 8ebe

a2c_network.actor_mlp.0.bias f4 [128]
-0.42476687 0.17840482 0.24464414 0.2633021 0.16692041 -0.13318264 -0.22086242 -0.111622296
-0.3243246 -0.13953683 -0.06903774 -0.242643 0.18401399 -0.23037839 0.21255748 0.2354189
0.07343412 -0.2582146 -0.29442337 -0.1243345 -0.23514013 -0.17106393 -0.1883332 -0.35073492
-0.11029012 0.3219734 -0.055606615 0.026606632 -0.30628586 -0.24076486 0.23029767 0.018338911
-0.113884695 -0.097020656 -0.20633462 -0.25541967 -0.2670491 -0.27770084 -0.10763276 -0.33111557
0.109406635 -0.3099905 -0.057449304 -0.2660535 -0.084660724 -0.05709581 0.041855227 -0.20436248
-0.17697294 -0.17405696 -0.20875175 -0.23715094 0.21411477 -0.03969851 0.027693972 -0.38371357
-0.43692496 -0.2464162 -0.21395971 -0.015859894 -0.15455289 0.28129774 0.1998056 -0.30134815
0.055414155 0.24741729 0.26857695 -0.052487865 -0.060237996 -0.40303996 -0.10602268 -0.14952639
0.096019894 -0.15731849 0.31762877 -0.18544881 -0.32984155 -0.40949062 0.005822748 0.10939932
0.09042314 -0.33449784 0.11405422 0.055205062 0.08960661 0.24759929 0.14822437 0.030369807
0.0679811 -0.18835507 -0.031320702 -0.48934796 0.12414985 -0.32178086 -0.2616386 -0.10817439
0.13158153 -0.40797544 -0.021479178 -0.2877045 -0.16154298 -0.039573096 -0.26153782 -0.025491541
-0.31153104 -0.115975484 0.20929426 -0.23931585 -0.17775026 0.18887171 0.05814437 0.2923444
-0.03264444 -0.26514485 0.12208416 0.08615145 -0.13298024 0.25684255 -0.2025439 0.024042256
0.12130709 0.23575059 0.053828467 -0.34374464 0.18672428 -0.29883698 0.12619962 -0.2513142
00000000: 0b7b d9be c1af 363e fe83 7a3e 88cf 863e
00000010: 2fed 2a3e 0861 08be c229 62be 3b9a e4bd
00000020: e00d a6be bee2 0ebe a963 8dbd 6877 78be
00000030: 2a6e 3c3e 50e8 6bbe aba8 593e a711 713e
00000040: a164 963d b434 84be a9be 96be 16a3 febd
00000050: 93c8 70be 622b 2fbe 6bda 40be 8793 b3be
00000060: c9df e1bd b3d9 a43e c3c3 63bd 27f6 d93c
00000070: 80d1 9cbe 108b 76be 27d3 6b3e 7c3b 963c
00000080: 613c e9bd c4b2 c6bd 6249 53be 5ec6 82be
00000090: a9ba 88be ce2e 8ebe 916e dcbd fb87 a9be
000000a0: 9610 e03d 13b7 9ebe f64f 6bbd 2a38 88be
000000b0: 9a62 adbd 4cdd 69bd 6370 2b3d 6644 51be
000000c0: 6538 35be fd3b 32be 05c3 55be b2d7 72be
000000d0: e740 5b3e e89a 22bd 78de e23c 1b76 c4be
000000e0: a1b4 dfbe 8754 7cbe 4118 5bbe 9cec 81bc
000000f0: 1d43 1ebe 4206 903e d799 4c3e 4e4a 9abe
00000100: f4f9 623d f55a 7d3e eb82 893e 84fd 56bd
00000110: 1ebc 76bd 415b cebe 6b22 d9bd 721d 19be
00000120: 14a6 c43d 1918 21be 3da0 a23e 4be6 3dbe
00000130: fee0 a8be c1a8 d1be c0cc be3b c00c e03d
00000140: c42f b93d 4d43 abbe 4295 e93d b41e 623d
00000150: ac83 b73d ab8a 7d3e 21c8 173e 1aca f83c
00000160: ad39 8b3d 27e0 40be 234a 00bd d18b fabe
00000170: 4742 fe3d 76c0 a4be 7ff5 85be 898a ddbd
00000180: 4fbd 063e 28e2 d0be 1af5 afbc 014e 93be
00000190: 866b 25be 6617 22bd 49e8 85be a3d3 d0bc
000001a0: ff80 9fbe 8e84 edbd 3c51 563e 370f 75be
000001b0: 2a04 36be 9667 413e ca28 6e3d 2aae 953e
000001c0: 2db6 05bd 11c1 87be 4307 fa3d 2c70 b03d
000001d0: f92b 08be de80 833e ab67 4fbe 44f4 c43c
000001e0: da6f f83d 9a68 713e 3d7b 5c3d 4cff afbe
000001f0: a634 3f3e 2901 99be 793a 013e 41ac 80be

a2c_network.actor_mlp.2.weight f4 [128, 128]
0.2573453 -0.3326579 -0.03303469 -0.09010694 -0.20498374 0.2529414 0.021222565 0.08765232
0.21555424 -0.0642171 -0.082007 -0.17851968 0.013780606 0.17480512 -0.14183533 -0.06364053
0.06669698 0.14003824 0.19936414 -0.18161336 0.29050195 0.06899286 0.058976635 0.19306152
-0.14927068 -0.054105744 -0.037683453 0.09419245 0.16392845 0.09972644 -0.13831301 -0.056518465
-0.030944979 -0.18003349 0.2685297 -0.10590611 0.1266087 0.08777996 0.08090879 0.24806926
0.09294339 0.05791593 0.061754886 0.12460031 0.050629817 -0.05540745 -0.15737015 0.008606338
0.08687132 0.19088487 -0.068384856 -0.026912829 -0.10015065 0.23009856 -0.06910055 0.24529347
0.06955337 0.15228243 -0.00022313306 -0.07095338 0.004369787 0.009767822 -0.08173887 0.26386654
-0.08318917 0.022725908 -0.0847135 -0.12978534 0.095883995 0.0822941 0.15867248 0.080910265
-0.10323568 0.0651876 -0.14845908 -0.057950724 0.16594769 0.1405509 -0.00436358 -0.2496054
-0.072111435 0.25467765 -0.103609785 -0.065981984 0.083046675 -0.048902582 -0.06443218 -0.19265857
-0.3304165 0.13288909 0.0096815545 -0.027306171 -0.23768212 0.20607963 -0.1667749 -0.019550538
-0.14922985 0.12079193 -0.19328168 0.09309751 0.107756026 0.11879258 0.10596894 0.12764749
0.028604787 0.017462965 -0.14985411 -0.06965004 -0.04544967 -0.20918739 -0.08162578 -0.115641885
-0.053910896 0.2040071 -0.14109339 -0.010941345 0.078299046 -0.08891411 0.0661038 0.09362305
0.03295323 -0.10766551 -0.03578592 -0.020230828 -0.013358283 0.0101279635 -0.21726821 -0.042304784
-0.041268643 -0.029915808 -0.02008439 -0.025732515 -0.02770678 0.026536684 0.032696873 0.03371757
0.0022249003 -0.09942259 -0.15980472 0.009418799 0.048832748 0.053519014 0.048431903 -0.13326691
0.02150326 0.07648017 -0.00079303357 -0.042138796 -0.021060927 0.1481903 -0.12412593 -0.078372106
0.06940138 -0.14505771 -0.015976224 -0.068479 0.01810433 0.03126832 -0.047311198 -0.036085326
0.05116788 0.09313956 0.17514873 -0.031514972 0.054965705 -0.09500564 0.11400967 0.1580992
0.03740641 0.0050041354 0.043218657 -0.035432994 0.06087313 -0.02735571 -0.09918384 -0.017164651
0.0050974013 0.020501666 0.03372968 0.060497805 0.0073647136 0.2049591 0.078460485 0.11062983
0.08912306 -0.018759988 -0.06368458 0.033161346 0.1040486 -0.06248503 -0.027856952 -0.040788762
0.13854189 0.15119442 0.020104412 0.055858396 0.028219065 0.0067125014 -0.009683101 0.034707442
-0.013010596 -0.10231082 0.030168384 0.02578088 0.0092370175 -0.00842517 0.002674008 0.07963218
-0.066041365 0.0727349 0.051492803 -0.03084378 -0.15181085 -0.06949658 -0.059437405 0.10947122
0.11469185 -0.11624515 0.010737573 0.06926931 0.096442714 -0.0180894 -0.09997061 -0.05906445
0.06918935 0.0468145 -0.082307436 0.0031021854 0.020071613 0.100755684 0.017879061 -0.1379012
0.19584554 -0.077294484 0.06479471 0.035045415 0.068156205 0.048152167 -0.097267725 -0.09555048
0.07088464 -0.041152123 0.015469444 -0.08922837 -0.02175621 0.098201014 0.063415125 -0.12426523
0.047861483 -0.09126277 0.04413083 0.017327202 0.031485002 0.06459264 -0.0070964186 0.11146632
00000000: c3c2 833e 2352 aabe 624f 07bd fd89 b8bd
00000010: 42e7 51be 8981 813e f2da ad3c 0f83 b33d
00000020: 40ba 5c3e 4184 83bd 49f3 a7bd ddcd 36be
00000030: 0dc8 613c 1d00 333e 483d 11be f755 82bd
00000040: 6d98 883d 2f66 0f3e 1d26 4c3e daf8 39be
00000050: acbc 943e 214c 8d3d 7c91 713d ebb1 453e
00000060: 6ada 18be fc9d 5dbd f759 1abd f9e7 c03d
00000070: dcdc 273e 603d cc3d eda1 0dbe e87f 67bd
00000080: 5380 fdbc b35a 38be ba7c 893e 4de5 d8bd
00000090: b6a5 013e fbc5 b33d 82b3 a53d de05 7e3e
000000a0: 1b59 be3d 4139 6d3d b1f2 7c3d 732e ff3d
000000b0: 3661 4f3d ecf2 62bd a425 21be 9901 0d3c
000000c0: 97e9 b13d 5377 433e 5c0d 8cbd 4b78 dcbc
000000d0: c91b cdbd f59e 6b3e 9784 8dbd 362e 7b3e
000000e0: ff71 8e3d edef 1b3e d3f8 69b9 0150 91bd
000000f0: 6e30 8f3b 3709 203c b566 a7bd 8419 873e
00000100: 155f aabd af2b ba3c 467e adbd 73e6 04be
00000110: d45e c43d cf89 a83d 0a7b 223e 48b4 a53d
00000120: 3a6d d3bd 1481 853d a805 18be bd5d 6dbd
00000130: 31ee 293e 93ec 0f3e 5dfc 8ebb 8f98 7fbe
00000140: 29af 93bd 1c65 823e 5e31 d4bd 9021 87bd
00000150: 6014 aa3d 134e 48bd 05f5 83bd 4a48 45be
00000160: 5a2c a9be 1414 083e 629f 1e3c 31b1 dfbc
00000170: f162 73be 8a06 533e 0ac7 2abe 7328 a0bc
00000180: b6cf 18be c261 f73d a2eb 45be e8a9 be3d
00000190: 31af dc3d 8649 f33d 3e06 d93d 06b6 023e
000001a0: 9654 ea3c 7e0e 8f3c 5b73 19be aea4 8ebd
000001b0: 6f29 3abd 3835 56be 6b2b a7bd a7d5 ecbd
000001c0: acd1 5cbd 3de7 503e c97a 10be 5443 33bc
000001d0: 405b a03d 9a18 b6bd 6e61 873d 71bd bf3d
000001e0: f7f9 063d bc7f dcbd 4294 12bd 1fbb a5bc
000001f0: b3dc 5abc c2ef 253c 8f7b 5ebe c847 2dbd
00000200: 4f09 29bd ff11 f5bc 0588 a4bc ffcc d2bc
00000210: 54f9 e2bc 7663 d93c 28ed 053d 6f1b 0a3d
00000220: a2cf 113b 129e cbbd d9a3 23be 4e51 1a3c
00000230: d904 483d c136 5b3d 8860 463d 1f77 08be
00000240: 9b27 b03c a3a1 9c3d 95e3 4fba bb99 2cbd
00000250: f787 acbc 33bf 173e bc35 febd 8e81 a0bd
00000260: 5022 8e3d 028a 14be 92e0 82bc b83e 8cbd
00000270: 884f 943c 3613 003d 63c9 41bd 35ce 13bd
00000280: 6995 513d f4bf be3d 305a 333e d815 01bd
00000290: b823 613d 5192 c2bd e77d e93d c2e4 213e
000002a0: 7737 193d bbf9 a33b 0c06 313d 3022 11bd
000002b0: 1a56 793d 1519 e0bc e620 cbbd e29c 8cbc
000002c0: 1a08 a73b 1cf3 a73c 2228 0a3d 8ccc 773d
000002d0: b253 f13b cce0 513e e4af a03d e491 e23d
000002e0: 2786 b63d 8cae 99bc 106d 82bd 31d4 073d
000002f0: 6f17 d53d 4ef0 7fbd 4334 e4bc 1e12 27bd
00000300: eddd 0d3e b6d2 1a3e 02b2 a43c c6cb 643d
00000310: ab2b e73c 8bf4 db3b dfa5 1ebc 6429 0e3d
00000320: 652a 55bc 5688 d1bd b023 f73c 6d32 d33c
00000330: dc56 173c b909 0abc 693e 2f3b 3216 a33d
00000340: b240 87bd 09f6 943d 1eea 523d 18ac fcbc
00000350: 4e74 1bbe 3954 8ebd a374 73bd 7232 e03d
00000360: 90e3 ea3d f011 eebd a5ec 2f3c 11dd 8d3d
00000370: c283 c53d 3930 94bc 64bd ccbd 91ed 71bd
00000380: 25b3 8d3d 90c0 3f3d cd90 a8bd 094e 4b3b
00000390: 396d a43c ff58 ce3d 1c77 923c f935 0dbe
000003a0: bc8b 483e 924c 9ebd 17b3 843d c88b 0f3d
000003b0: 7b95 8b3d 353b 453d 4d34 c7bd f8af c3bd
000003c0: f72b 913d 218f 28bd 8d73 7d3c 5dbd b6bd
000003d0: 143a b2bc 9d1d c93d cadf 813d c57e febd
000003e0: 670a 443d fae7 babd 87c2 343d c7f1 8d3c
000003f0: 6bf6 003d 2549 843d 1389 e8bb 7448 e43d

a2c_network.actor_mlp.2.bias f4 [128]
-0.23088603 -0.028992781 -0.08573752 0.090307295 -0.058298357 0.00019324136 -0.10706675 -0.08232327
-0.10886768 0.044009995 -0.27597982 -0.015571681 -0.20886576 -0.19378369 0.032168306 -0.19711512
-0.0022916982 -0.17528832 -0.080000296 -0.11342576 -0.14542824 -0.11770748 -0.04841045 -0.0052615036
0.08572369 -0.1701732 -0.20696115 -0.098363645 -0.17576952 -0.052653573 -0.047326084 -0.13671722
-0.0014779351 -0.16359307 -0.09820308 -0.06647988 -0.09762426 0.107988 -0.090058744 0.04213852
-0.21169887 0.060033195 0.06353329 -0.14640674 0.17032759 -0.037766837 -0.074541576 0.027855704
0.011501493 -0.13974644 0.12479027 -0.039467096 0.029143486 0.0012920048 -0.13363947 0.056911524
0.051594228 0.062892415 0.07814429 0.08315547 -0.07353292 -0.09733341 -0.13062528 0.11525417
-0.12385409 -0.20104827 -0.07641126 0.019110657 -0.055737026 -0.014111525 -0.10155799 -0.076743364
0.0031847165 -0.28824428 0.018759489 -0.11146456 -0.18303701 -0.014971314 0.0075639896 -0.18869413
-0.24657074 -0.08823217 0.0043133344 0.02390545 0.09156455 0.03541165 0.034084983 -0.102709584
-0.042651158 -0.12205711 -0.021244342 -0.29469106 -0.21489428 -0.023740176 -0.15851887 -0.20274483
-0.11577869 0.12418037 0.010504004 -0.14856307 -0.029312257 0.021176383 -0.1086602 -0.013705689
-0.4778652 -0.10681897 -0.26548985 0.011946536 -0.08338142 -0.048664227 -0.008004255 -0.15966143
-0.15180482 0.08943676 -0.015209723 0.020252025 -0.15782557 0.030839061 0.04790189 0.044670545
0.115308665 -0.09857118 -0.06525265 -0.30600283 0.027710456 -0.24073026 -0.026833497 -0.10261709
00000000: 636d 6cbe 4582 edbc 2797 afbd 08f3 b83d
00000010: 42ca 6ebd d5a0 4a39 d045 dbbd 1a99 a8bd
00000020: 05f6 debd d343 343d 3a4d 8dbe 5d20 7fbc
00000030: e8e0 55be 3b6f 46be eac2 033d 8cd8 49be
00000040: 5130 16bb c87e 33be 32d7 a3bd c44b e8bd
00000050: 24eb 14be 9f10 f1bd 094a 46bd b168 acbb
00000060: e78f af3d e241 2ebe a0ed 53be e172 c9bd
00000070: edfc 33be 46ab 57bd ffd8 41bd 99ff 0bbe
00000080: 46b7 c1ba f184 27be b21e c9bd 9a26 88bd
00000090: 3aef c7bd d028 dd3d b870 b8bd 7199 2c3d
000000a0: 97c7 58be 5ee5 753d be1d 823d a6eb 15be
000000b0: 5b6a 2e3e 66b1 1abd 41a9 98bd a531 e43c
000000c0: c270 3c3c b119 0fbe 0b92 ff3d 40a8 21bd
000000d0: 52be ee3c 7d58 a93a c9d8 08be 0f1c 693d
000000e0: 7854 533d bdcd 803d 1d0a a03d 6a4d aa3d
000000f0: 6d98 96bd bd56 c7bd a2c2 05be 610a ec3d
00000100: 37a7 fdbd 99df 4dbe 827d 9cbd f48d 9c3c
00000110: 824c 64bd 0734 67bc a3fd cfbd a02b 9dbd
00000120: adb6 503b c194 93be 80ad 993c 8847 e4bd
00000130: 0e6e 3bbe 3e4a 75bc 58db f73b 0939 41be
00000140: 0a7d 7cbe 11b3 b4bd df56 8d3b 5dd5 c33c
00000150: 3286 bb3d ce0b 113d b29c 0b3d 6759 d2bd
00000160: fbb2 2ebd 14f9 f9bd 9d08 aebc bfe1 96be
00000170: 3f0d 5cbe c27a c2bc c552 22be 579c 4fbe
00000180: 611d edbd 4752 fe3d fc18 2c3c eb20 18be
00000190: 4220 f0bc 187a ad3c 3d89 debd d48d 60bc
000001a0: bfaa f4be e7c3 dabd 49ee 87be 67bb 433c
000001b0: e1c3 aabd 2454 47bd 4724 03bc 497e 23be
000001c0: b972 1bbe 9f2a b73d 3432 79bc 93e7 a53c
000001d0: 079d 21be 33a2 fc3c c634 443d 76f8 363d
000001e0: f326 ec3d b0df c9bd 2ea3 85bd 67ac 9cbe
000001f0: 0a01 e33c fe81 76be ecd1 dbbc e928 d2bd

a2c_network.value.weight f4 [1, 128]
-0.11467372 0.01091193 0.035406347 0.10153319 -0.055842992 -0.036223188 0.01400705 0.026517991
-0.0698142 -0.008478425 -0.039701357 0.049480196 -0.18450342 -0.049624313 -0.029107425 -9.5992895e-05
-0.09305849 -0.044969536 -0.00265324 0.07191978 0.011122466 -0.072176374 -0.16137062 -0.0024315421
0.09153295 0.023777697 0.025939632 0.07390777 -0.15943916 -0.13196297 -0.06930758 -0.059160594
-0.107793264 -0.008491474 -0.07151257 -0.08543602 -0.0019086525 -0.059757512 -0.02057547 0.05638381
-0.12093866 0.18027218 0.0979247 -0.04564199 0.08277355 0.05004203 0.00073645706 -0.03485445
0.020113565 0.075579725 0.12600622 0.07594822 0.07619317 0.028294804 -0.14823076 0.13076916
-0.0027659778 0.07922424 -0.018779276 0.097900935 -0.14680518 -0.114568785 -0.148399 0.040903863
0.011438202 -0.08305631 0.05287162 0.03513096 0.033858225 -0.013277413 -0.11870113 0.08606783
-0.15608813 -0.109716244 -0.1425808 -0.072603844 0.0129872495 0.12941232 -0.035771098 -0.10980189
-0.12612195 -0.034460537 -0.08813743 0.082975775 0.1794908 -0.034738958 -0.14712657 0.0059726243
0.05661274 -0.19934894 -0.022804212 -0.0033787086 -0.08563901 0.046177592 -0.105953604 -0.11998815
-0.00012767366 0.13379198 0.008196367 0.017625691 0.053533096 -0.097376466 -0.0080425395 -0.01572766
-0.12514272 -0.11536906 -0.008447733 0.07996055 -7.7498495e-05 -0.013429294 0.044742122 -0.10290811
-0.0865014 0.08626345 0.1433183 0.16595176 -0.10632299 0.19357525 -0.010489794 0.08991868
0.11080487 -0.13355002 -0.20808771 -0.13083537 0.018775703 -0.03424018 0.089342825 -0.007246805
00000000: 0eda eabd f4c7 323c 3f06 113d a2f0 cf3d
00000010: 9fbb 64bd c45e 14bd d37d 653c 423c d93c
00000020: bffa 8ebd 18e9 0abc e49d 22bd bfab 4a3d
00000030: 77ee 3cbe dd42 4bbd b272 eebc cb4f c9b8
00000040: 7395 bebd fa31 38bd fbe1 2dbb ad4a 933d
00000050: 013b 363c 35d1 93bd 573e 25be 825a 1fbb
00000060: a175 bb3d 72c9 c23c 5a7f d43c f55c 973d
00000070: 0544 23be 4d21 07be 22f1 8dbd 6152 72bd
00000080: b7c2 dcbd d31f 0bbc 2f75 92bd 14f9 aebd
00000090: c02b faba 4bc4 74bd e38d a8bc b6f2 663d
000000a0: b0ae f7bd 4599 383e bf8c c83d 18f3 3abd
000000b0: 2e85 a93d dff8 4c3d cc0e 413a 8ac3 0ebd
000000c0: 34c5 a43c 8bc9 9a3d c607 013e be8a 9b3d
000000d0: 2a0b 9c3d 81ca e73c cec9 17be 5ae8 053e
000000e0: 6845 35bb 5140 a23d ffd6 99bc 4980 c83d
000000f0: 1954 16be 0aa3 eabd e8f5 17be cf8a 273d
00000100: 4c67 3b3c 6d19 aabd e98f 583d 7be5 0f3d
00000110: ecae 0a3d 8289 59bc 9419 f3bd 5544 b03d
00000120: 91d5 1fbe e9b2 e0bd b400 12be 53b1 94bd
00000130: 79c8 543c aa84 043e b784 12bd d0df e0bd
00000140: 1d26 01be 7e26 0dbd 6681 b4bd 34ef a93d
00000150: 70cc 373e 704a 0ebd 59a8 16be 01b6 c33b
00000160: c3e2 673d 2122 4cbe e6cf babc 536d 5dbb
00000170: 8163 afbd b724 3d3d 34fe d8bd 59bc f5bd
00000180: 23e0 05b9 c400 093e 0e4a 063c c163 903c
00000190: 8545 5b3d 506d c7bd dbc4 03bc 4bd7 80bc
000001a0: 6a25 00be 9d46 ecbd 5c68 0abc 5bc2 a33d
000001b0: b086 a2b8 8b06 5cbc 8443 373d 7dc1 d2bd
000001c0: a527 b1bd e4aa b03d 08c2 123e 42ef 293e
000001d0: debf d9bd 9738 463e 63dd 2bbc 4927 b83d
000001e0: aaed e23d 56c1 08be f214 55be b5f9 05be
000001f0: 81cf 993c 6e3f 0cbd 5ff9 b63d 9b76 edbb

a2c_network.mu.weight f4 [6, 128]
0.005278022 0.0016948993 0.06361018 0.017805036 0.03939481 0.10980383 -0.000736452 -0.028441468
-0.05951233 -0.030850044 0.011687987 -0.064651854 0.03253613 0.045463722 0.008491348 -0.006691174
0.051830415 0.06069357 0.14234696 -0.0064215423 -0.04177779 -0.05177097 0.031359382 -0.0052595763
0.028052976 0.10361646 -0.011604268 -0.0069335154 -0.059260745 0.081564434 -0.120898694 0.0065004346
0.045631725 -0.13824235 0.009488075 0.06591648 0.17461234 -0.022155939 -0.0069684396 0.21233828
-0.042237576 -0.0012056128 -0.019178074 0.058162984 0.07229313 0.080118895 -0.02706195 -0.031107029
0.025990736 0.10251081 -0.07234112 0.026952144 0.052931033 0.08421742 -0.07072219 0.023414657
-0.038793907 -0.032508187 -0.014558406 0.08100968 -0.11885119 -0.07808597 -0.018256862 -0.0016182804
0.013959596 0.035527255 -0.097458735 -0.027573531 0.00021660913 0.04091553 -0.0076727276 0.013577234
-0.0043075946 -0.1353542 -0.07777547 -0.0050832303 0.0071431976 -0.08409615 -0.06105219 0.0532781
-0.00916067 0.011368843 -0.03500899 0.03747871 -0.035758108 -0.07360061 0.080823116 -0.005873421
-0.06083936 0.033786047 0.010836617 -0.06754747 -0.14562684 -0.00916044 0.11993792 0.18820511
-0.1267944 -0.00027784918 0.027803252 -0.19382921 0.052981406 0.023667227 0.030188145 -0.07287813
-0.13424414 0.033034127 -0.05961762 0.028183067 -0.08516121 0.011931535 -0.09385437 -0.038923435
-0.039189097 0.07340221 -0.0012478678 0.013282779 -0.058315694 -0.09390988 -0.004539388 0.042896796
0.084655106 0.09995442 -0.06076426 0.01974385 0.05906419 -0.0619516 0.08042083 0.015924497
-0.1623284 -0.03358298 0.00030226802 0.13951986 -0.05375504 -0.027549595 -0.07656824 -0.06342674
-0.20823474 -0.04754852 0.063134044 0.008405899 -0.005294499 0.041316018 -0.045109797 0.079839125
-0.03355541 0.05288564 0.013290749 0.052443802 0.0200199 -0.081936784 0.08203777 -0.00029737336
-0.051949993 -0.09597853 -0.15863104 0.027483758 -0.12416097 0.013387703 0.023911439 0.02441536
0.022045735 0.027624588 -0.027967492 -0.074653946 0.0030110586 -0.054596394 0.018321916 -0.13368669
0.0020972304 -0.112929426 -0.04714802 0.026313238 0.010268749 -0.11012022 0.03736939 0.011208967
0.018827222 -0.13716276 -0.07437852 -0.06254363 0.018694041 -0.13061848 -0.13476504 -0.12375527
-0.04111539 0.012629996 0.06544775 -0.012757351 -0.010085792 -0.040330045 -0.021045513 -0.042969976
-0.029032737 0.033020545 0.011946701 -0.08267803 0.02113542 -0.052376375 -0.00500025 -0.07242264
0.012992578 0.120542556 -0.04520149 0.051924974 0.13728192 0.018654836 -0.011990487 0.022337176
0.06097544 -0.008292121 0.0823411 -0.100662604 0.061188716 -0.018774424 -0.06387684 0.07202671
0.11716504 -0.051878788 0.008421641 0.06451257 0.0706015 -0.04444368 -0.013675798 -0.10545912
0.074563205 0.031120954 -0.018153172 0.13524896 -0.07493224 -0.059430048 0.06195221 -0.02260748
0.17752007 0.14983884 -0.067310065 0.10957262 0.014939037 -0.096736155 -0.014129555 -0.022396889
0.10009366 -0.057934117 -0.018369988 0.022616846 0.050727405 -0.050744366 -0.024746044 -0.06493994
-0.0559617 -0.016637899 -0.0148967225 -0.102729246 -0.04338865 0.07866383 0.009898656 0.01041749
00000000: 42f3 ac3b 6227 de3a 0e46 823d dedb 913c
00000010: 745c 213d d5e0 e03d 750e 41ba 15fe e8bc
00000020: 33c3 73bd 3bb9 fcbc f87e 3f3c 3168 84bd
00000030: 9b44 053d 2b38 3a3d 4b1f 0b3c a341 dbbb
00000040: 214c 543d d299 783d 67c3 113e cd6b d2bb
00000050: 301f 2bbd cc0d 54bd b272 003d 8658 acbb
00000060: 5bcf e53c de34 d43d d41f 3ebc 8b32 e3bb
00000070: 65bb 72bd 410b a73d bc99 f7bd 9901 d53b
00000080: 55e8 3a3d 678f 0dbe df73 1b3c 38ff 863d
00000090: 94cd 323e 5f80 b5bc 8257 e4bb 356f 593e
000000a0: 4f01 2dbd a705 9eba 561b 9dbc 4f3c 6e3d
000000b0: 6c0e 943d 6015 a43d 06b1 ddbc 2bd4 febc
000000c0: 86ea d43c 30f1 d13d 9527 94bd beca dc3c
000000d0: 36ce 583d 2f7a ac3d ccd6 90bd 18d0 bf3c
000000e0: 5ce6 1ebd 4e27 05bd 6186 6ebc 67e8 a53d
000000f0: 4168 f3bd 89eb 9fbd 6a8f 95bc 7b1c d4ba
00000100: cab6 643c 0785 113d 7298 c7bd e3e1 e1bc
00000110: 9221 6339 0b97 273d 816b fbbb 0c73 5e3c
00000120: b926 8dbb 4b9a 0abe bf48 9fbd 3a91 a6bb
00000130: 7c11 ea3b 9a3a acbd dc11 7abd 233a 5a3d
00000140: a316 16bc 6244 3a3c 9665 0fbd 4783 193d
00000150: 1877 12bd ebbb 96bd 9786 a53d d475 c0bb
00000160: b132 79bd 3d63 0a3d 118c 313c 5456 8abd
00000170: 341f 15be ac15 16bc 03a2 f53d d7b8 403e
00000180: 64d6 01be 49ac 91b9 a5c3 e33c 2a7b 46be
00000190: 0803 593d c6e1 c13c 214d f73c 2141 95bd
000001a0: 4c77 09be cb4e 073d 9b31 74bd 2de0 e63c
000001b0: 0069 aebd 7c7c 433c b836 c0bd 2e6e 1fbd
000001c0: bf84 20bd e653 963d 7f8f a3ba 03a0 593c
000001d0: 70dc 6ebd d353 c0bd 26bf 94bb 8db4 2f3d
000001e0: a85f ad3d e7b4 cc3d f2e3 78bd dbbd a13c
000001f0: 4bed 713d f6c0 7dbd adb3 a43d 1774 823c
00000200: 6b39 26be 4f8e 09bd ba79 9e39 4bde 0e3e
00000210: 3f2e 5cbd b0af e1bc cfcf 9cbd e1e5 81bd
00000220: 7d3b 55be 3dc2 42bd 6c4c 813d e5b8 093c
00000230: 7a7d adbb fc3a 293d 0dc5 38bd b282 a33d
00000240: 6671 09bd 9d9e 583d 71c1 593c 50cf 563d
00000250: c600 a43c 79ce a7bd 6b03 a83d c7e8 9bb9
00000260: 84c9 54bd 6490 c4bd 2d70 22be 9e25 e13c
00000270: 1b48 febd 1958 5b3c ece1 c33c b902 c83c
00000280: 4299 b43c f64c e23c 151c e5bc 2be4 98bd
00000290: 2e55 453b 78a0 5fbd d817 963c 2ae5 08be
000002a0: b071 093b 8b47 e7bd 481e 41bd dc8e d73c
000002b0: 413e 283c b686 e1bd a510 193d d1a5 373c
000002c0: 8c3b 9a3c 6574 0cbe c453 98bd e016 80bd
000002d0: 3f24 993c dac0 05be d9ff 09be 6773 fdbd
000002e0: 9c68 28bd 0bee 4e3c 7809 863d 3504 51bc
000002f0: e13e 25bc 1e31 25bd a467 acbc 4901 30bd
00000300: 10d6 edbc 8d40 073d 19bc 433c 1953 a9bd
00000310: 3024 ad3c 9c88 56bd 23d9 a3bb 5252 94bd
00000320: d2de 543c 04df f63d 3325 39bd 48af 543d
00000330: a293 0c3e 07d2 983c bf73 44bc 74fc b63c
00000340: 62c1 793d addb 07bc 73a2 a83d 3228 cebd
00000350: 05a1 7a3d d2cc 99bc dcd1 82bd bd82 933d
00000360: 39f4 ef3d da7e 54bd ecfa 093c 2b1f 843d
00000370: 8597 903d 940a 36bd 7410 60bc f3fa d7bd
00000380: 98b4 983d 5ff1 fe3c f6b5 94bc b47e 0a3e
00000390: 1376 99bd ec6c 73bd 9ac1 7d3d 5233 b9bc
000003a0: d2c7 353e 5a6f 193e dcd9 89bd 9c67 e03d
000003b0: ddc2 743c 9b1d c6bd a67f 67bc ae79 b7bc
000003c0: e8fd cc3d 534c 6dbd a87c 96bc f746 b93c
000003d0: 8ac7 4f3d 53d9 4fbd 37b8 cabc 3bff 84bd
000003e0: 1838 65bd 344c 88bc 6211 74bc b663 d2bd
000003f0: 4cb8 31bd 811a a13d f92d 223c 1fae 2a3c

a2c_network.mu.bias f4 [6]
-0.010211803 -0.13150088 0.08886872 -0.09426279 -0.117845066 0.09064574
00000000: 684f 27bc 2ba8 06be ce00 b63d da0c c1bd
00000010: c158 f1bd 79a4 b93d

exp_avg f4 [6]
-0.0035082998 0.0055770255 -0.0006285806 -0.00030398578 -0.0025525806 -0.0053130668
00000000: 81eb 65bb 7bbf b63b 54c7 24ba 4860 9fb9
00000010: 3249 27bb 3c19 aebb

exp_avg_sq f4 [6]
5.1492716e-05 5.290273e-05 4.3879154e-05 5.4223838e-05 5.7682286e-05 5.3045052e-05
00000000: e2f9 5738 e0e3 5d38 e20a 3838 676e 6338
00000010: e2ef 7138 b17c 5e38

exp_avg f4 [128, 30]
0.0012303983 0.00063433737 -0.0010443897 -0.0006307869 0.0017871052 0.0015602323 -0.0002163813 -0.00043997177
-0.000158489 -0.00031144754 -0.00020023916 -0.001168622 -0.0013611683 -0.00020363505 0.0017624153 -0.0010794337
0.00035141062 -0.000274502 0.0019252673 -0.00059917266 -0.0008659633 -0.00016303927 -0.0015576984 -0.00027659853
0.00078653416 -0.0010276657 -0.00020863264 -0.0003187961 -0.00059641077 0.0002627909 -0.00013223838 -0.00033142016
0.0012341533 -0.00013714345 0.00037630033 -0.0010362159 -0.002867954 -0.0002843157 -9.351528e-05 0.00038535436
0.0002964403 0.0005850978 0.0008726819 -0.00014919626 -0.001254494 0.0014406808 0.0010739024 0.0011907473
-0.0032978693 0.0018660864 -0.0018984993 -0.0011209184 0.0014652092 -0.0014986485 -0.0021262043 0.0018478082
-0.00096042413 -0.00074436684 0.0008572486 -0.0012076912 6.604154e-05 0.0010704396 -0.00012302722 -0.0007384267
-0.0011221089 5.2873216e-05 -0.00019388378 -0.00039571032 0.00019900312 0.000831326 -0.00041172197 -0.00068061537
0.0009387174 9.6780816e-05 -0.001176767 -0.00024329213 0.0016266314 -0.00037107727 -0.000377076 -7.430739e-05
0.0011500482 -0.00046266004 0.0011431997 -0.0005596622 -2.7066446e-05 0.00075309706 -0.00067622465 0.0004095032
0.00027588994 -0.00089898414 -0.00026288617 -0.0002150399 0.00089653896 -0.00031823237 -0.00012369582 0.00028335903
-0.00070818746 -0.0003672212 -0.00010748315 0.0001550098 5.9725175e-05 0.00023128929 -0.00038951266 -0.00013048382
0.0005049963 0.00024051871 0.00038816116 0.00077342574 -0.001136851 0.0010691758 0.0011847949 -0.0007575816
0.00063235755 -0.001350597 -0.0008297106 0.0012273407 0.0011013156 -0.0007759074 -0.00014155357 -0.0008040534
0.00044599138 0.0012285789 0.0005030837 -7.098828e-05 0.00012863814 0.00086803985 -0.0009668429 0.00013490758
0.0015207726 0.000316284 -0.0010712782 -3.8105034e-05 0.0007564619 -0.00020405231 -0.0014418479 3.8305483e-05
0.0007040935 -0.0012781288 -0.00135191 0.00017759857 -0.00041329433 -0.00032831458 0.0014227385 0.00014034453
-0.00015472724 -0.00039432975 -0.0003704381 0.00010013768 -2.0363908e-05 -0.00073163747 0.0007054507 0.0007556484
-0.0015444249 0.0016675773 0.0006775853 1.375998e-05 0.0029494967 -0.00097136945 0.0009892416 0.00050419866
-0.00090092426 -0.0007989835 -0.0003295248 -0.0015005219 0.0017636807 3.3470262e-06 -0.0010823696 -0.0010328221
0.003497105 -0.0014194722 -0.00022862665 0.0028608562 -0.0020247162 0.00161664 0.0014693785 -0.0015153047
0.00025308735 0.0021126617 -0.0010759016 0.0009740081 0.00095475535 0.0012150762 -0.0004242755 -0.00025978553
0.00061241764 -0.00032418483 0.00045515364 0.0003752962 0.00052332366 -0.00025007533 -0.00047921098 -0.00059659744
-0.0007437254 0.00081319263 -1.0180585e-05 -0.0009999642 0.00044630104 -0.000902794 0.0012575128 -0.0006487173
-0.001586815 0.0008668691 -0.0013476373 0.0014989185 0.0010032974 -0.0010670075 -0.0015535654 0.00018875435
-0.0013061736 -0.0004644049 0.00026927263 -0.0005722331 0.00045856513 0.0006767265 0.0003487941 0.00057987415
0.00013345243 -0.00059929834 0.0003719398 0.00013611789 -0.00040361594 -0.0005142268 -0.0009738953 -0.0007756822
0.0012361564 -0.00027058762 -0.00019761096 0.0004956112 0.00059470785 0.0006371355 -0.0001742651 -0.00046487473
-0.00032828542 -0.0006010571 -9.412395e-05 -3.6926995e-05 0.0011345539 -0.00043349972 0.0006048403 -0.00034312063
-0.0006917799 -0.0001659187 -0.00088068 0.0013480762 0.0008339208 4.1523977e-05 0.0012077362 0.0012153372
0.0013902009 -0.0007799474 -0.0013042106 -0.0006829013 0.00025815508 -0.0014709927 0.00070122525 0.0014677893
00000000: 5145 a13a a949 263a e7e3 88ba 645b 25ba
00000010: 4d3d ea3a b580 cc3a 6ae4 62b9 03ac e6b9
00000020: 1130 26b9 c849 a3b9 4af7 51b9 732c 99ba
00000030: 3b69 b2ba de86 55b9 d800 e73a c97b 8dba
00000040: 893d b839 09eb 8fb9 4059 fc3a cc11 1dba
00000050: d001 63ba 85f5 2ab9 af2b ccba 6d04 91b9
00000060: 6a2f 4e3a bdb2 86ba 66c4 5ab9 1724 a7b9
00000070: 7358 1cba 33c7 8939 78a9 0ab9 76c2 adb9
00000080: 50c3 a13a 2ace 0fb9 2d4a c539 a3d1 87ba
00000090: 49f4 3bbb 3510 95b9 a21d c4b8 6309 ca39
000000a0: 8b6b 9b39 4061 193a b1c4 643a 9171 1cb9
000000b0: d56d a4ba 3ad5 bc3a 2fc2 8c3a d912 9c3a
000000c0: 1121 58bb 7897 f43a 11d7 f8ba c8eb 92ba
000000d0: 430c c03a 4d6e c4ba ca57 0bbb 2832 f23a
000000e0: f9c4 7bba 9d21 43ba fbb8 603a 644b 9eba
000000f0: c87f 8a38 fe4d 8c3a de00 01b9 fa92 41ba
00000100: ba13 93ba 2fc4 5d38 484d 4bb9 5777 cfb9
00000110: 7eab 5039 58ed 593a 63dc d7b9 536b 32ba
00000120: 4214 763a cef6 ca38 c03d 9aba 3c1c 7fb9
00000130: b134 d53a 268d c2b9 49b2 c5b9 7ad5 9bb8
00000140: 37bd 963a 2e91 f2b9 6bd7 953a 4bb6 12ba
00000150: c00c e3b7 7d6b 453a ab44 31ba 97b2 d639
00000160: 52a5 9039 cea9 6bba fcd3 89b9 557c 61b9
00000170: b605 6b3a 6dd8 a6b9 58b4 01b9 ce8f 9439
00000180: a8a5 39ba 9887 c0b9 9468 e1b8 208a 2239
00000190: 6b81 7a38 3f86 7239 8137 ccb9 7cd2 08b9
000001a0: ba61 043a c033 7c39 1c82 cb39 b9bf 4a3a
000001b0: 6402 95ba 9623 8c3a 1f4b 9b3a 7198 46ba
000001c0: ccc4 253a 8406 b1ba f080 59ba b8de a03a
000001d0: 055a 903a 4466 4bba ff6d 14b9 1cc7 52ba
000001e0: f3d3 e939 4408 a13a 60e1 033a 8bdf 94b8
000001f0: 0ae3 0639 2b8d 633a bb73 7dba fa75 0d39
00000200: a954 c73a ebd2 a539 226a 8cba f8d2 1fb8
00000210: 4c4d 463a e0f6 55b9 63fc bcba 33aa 2038
00000220: ea92 383a e386 a7ba 9232 b1ba c139 3a39
00000230: 6daf d8b9 a321 acb9 2f7b ba3a 7329 1339
00000240: 473e 22b9 0bbe ceb9 5c37 c2b9 0201 d238
00000250: 29d3 aab7 5ccb 3fba ffed 383a b516 463a
00000260: 4d6e caba 9c92 da3a fb9f 313a aada 6637
00000270: 584c 413b 80a3 7eba 71a9 813a 332c 043a
00000280: 012c 6cba e072 51ba 12c4 acb9 29ad c4ba
00000290: 4e2b e73a 799d 6036 4cde 8dba c25f 87ba
000002a0: b02f 653b 950d baba 80bb 6fb9 347d 3b3b
000002b0: 1ab1 04bb 70e5 d33a 2998 c03a 309d c6ba
000002c0: cfb0 8439 9574 0a3b 4405 8dba 9454 7f3a
000002d0: 8c48 7a3a 3143 9f3a 4b71 deb9 d333 88b9
000002e0: a78a 203a 5af7 a9b9 b0a1 ee39 67c3 c439
000002f0: a82f 093a 8b1c 83b9 9c3e fbb9 fa64 1cba
00000300: 91f6 42ba 6f2c 553a 48cd 2ab7 3b11 83ba
00000310: 83fd e939 7ba9 6cba 21d3 a43a ae0e 2aba
00000320: adfc cfba 9a3e 633a 34a3 b0ba 5c77 c43a
00000330: 1381 833a d5da 8bba 01a1 cbba 5cec 4539
00000340: ea33 abba 5f7b f3b9 292d 8d39 ea01 16ba
00000350: 926b f039 5966 313a 5ade b639 b202 183a
00000360: 5def 0b39 3b1a 1dba ea00 c339 deba 0e39
00000370: 6a9c d3b9 2dcd 06ba 024d 7fba 2757 4bba
00000380: 8706 a23a a8dd 8db9 ca35 4fb9 e8eb 013a
00000390: 2be6 1b3a 7105 273a eeba 36b9 6eba f3b9
000003a0: b91d acb9 4290 1dba 6964 c5b8 0fe2 1ab8
000003b0: 50b5 943a 5947 e3b9 258e 1e3a dfe4 b3b9
000003c0: 9058 35ba 76fa 2db9 6fdd 66ba eeb1 b03a
000003d0: 7a9b 5a3a 082a 2e38 e74c 9e3a f34b 9f3a
000003e0: 6737 b63a 6275 4cba 0cf2 aaba bb04 33ba
000003f0: fd58 8739 53ce c0ba 6ed2 373a d662 c03a

exp_avg_sq f4 [128, 30]
1.6182941e-05 2.5579664e-05 2.0288351e-05 1.7408398e-05 2.5470934e-05 1.8878049e-05 2.5847428e-05 2.06254e-05
2.4951223e-05 1.861997e-05 2.2559778e-05 2.0924168e-05 2.6030644e-05 2.6502528e-05 1.986439e-05 2.8544253e-05
2.156091e-05 1.7317281e-05 2.8545901e-05 1.8661627e-05 9.531296e-06 2.6441054e-05 1.2570206e-05 1.765477e-05
2.4174155e-05 1.956087e-05 1.2001551e-05 2.1998372e-05 1.2567041e-05 2.3819995e-05 1.5745936e-05 4.1838655e-05
4.193857e-05 2.2814227e-05 4.362245e-05 3.8953018e-05 6.406932e-05 3.0567662e-05 4.8843813e-05 2.698113e-05
4.3910142e-05 3.310179e-05 5.8353813e-05 4.1857937e-05 2.817775e-05 4.217927e-05 4.2532352e-05 4.982432e-05
6.7276786e-05 4.3258264e-05 2.7200338e-05 7.427438e-05 2.6613188e-05 3.565285e-05 6.460142e-05 4.6095283e-05
3.257083e-05 6.746128e-05 2.7551854e-05 7.048196e-05 1.3342236e-05 3.329202e-05 3.235327e-05 1.9221905e-05
3.5010748e-05 3.2683452e-05 4.3757092e-05 1.5566304e-05 2.611897e-05 1.4054326e-05 2.3092374e-05 2.0119547e-05
4.2145402e-05 2.7920887e-05 1.6431857e-05 3.9707906e-05 2.7235468e-05 3.868034e-05 4.6684694e-05 3.4243738e-05
1.7006007e-05 4.7842906e-05 2.3450824e-05 3.231292e-05 4.4154753e-05 3.079345e-05 2.156725e-05 4.69059e-05
2.1183567e-05 4.8566257e-05 3.394444e-06 7.5949247e-06 4.435134e-06 5.4148986e-06 6.7552583e-06 6.84444e-06
7.292215e-06 3.3016956e-06 6.5421455e-06 2.7375418e-06 4.9260457e-06 3.9334773e-06 6.854848e-06 5.7889715e-06
4.4645085e-06 6.9990097e-06 3.8743237e-06 6.5216295e-06 8.239929e-06 6.5935596e-06 3.7577818e-06 8.085557e-06
5.3612916e-06 4.693627e-06 7.911929e-06 6.2829895e-06 4.441439e-06 7.24433e-06 4.57338e-06 7.1188997e-06
1.105183e-05 2.9748871e-05 2.2391301e-05 1.5826052e-05 2.243861e-05 1.9402609e-05 2.7942895e-05 1.1031773e-05
2.3330045e-05 1.0120946e-05 1.9327788e-05 1.5020077e-05 2.8267752e-05 2.1759148e-05 1.121508e-05 2.6358432e-05
1.6555525e-05 2.5447413e-05 2.9067138e-05 2.223386e-05 1.20054165e-05 2.9937692e-05 1.4510219e-05 1.8745592e-05
2.788771e-05 1.8670587e-05 1.5148731e-05 2.8988281e-05 1.4815838e-05 2.8771257e-05 7.398789e-06 2.3768975e-05
2.0028157e-05 1.174139e-05 1.891824e-05 1.6955533e-05 2.5182339e-05 1.263008e-05 1.6792452e-05 1.1248524e-05
1.4063869e-05 1.3977797e-05 1.908644e-05 1.310042e-05 8.577355e-06 2.1104432e-05 1.2806351e-05 2.3307039e-05
2.815134e-05 2.1203801e-05 1.2006961e-05 2.7816803e-05 1.1594717e-05 1.6610818e-05 2.5879453e-05 1.9595684e-05
1.3531475e-05 2.6715708e-05 1.29361915e-05 2.6025069e-05 1.3033257e-05 2.669515e-05 2.4790696e-05 2.1078264e-05
3.1835338e-05 2.62201e-05 3.426719e-05 1.8050769e-05 3.1126725e-05 1.5218848e-05 2.7209968e-05 2.0103646e-05
3.1941887e-05 2.8066182e-05 1.4309516e-05 2.6762851e-05 2.3846851e-05 3.4415363e-05 4.0799066e-05 2.9147965e-05
2.2028027e-05 3.6737874e-05 2.1759663e-05 1.8856836e-05 3.566811e-05 3.0027866e-05 2.2319307e-05 3.2214233e-05
1.773874e-05 3.4467965e-05 4.9508144e-06 1.8615077e-05 9.479359e-06 1.4554071e-05 1.0317272e-05 1.1487573e-05
1.4916627e-05 6.654485e-06 1.51903805e-05 5.67301e-06 1.1291233e-05 8.957658e-06 1.7453223e-05 1.2496586e-05
5.444805e-06 2.0067804e-05 7.693919e-06 9.084942e-06 1.44785445e-05 1.0430204e-05 6.0044217e-06 1.7461898e-05
5.6691824e-06 1.4503233e-05 1.5334823e-05 1.0013013e-05 9.182835e-06 1.7471331e-05 7.588498e-06 1.8112563e-05
1.1248909e-05 5.319113e-05 4.128415e-05 1.481694e-05 3.8792918e-05 4.0060586e-05 6.0452836e-05 1.4748371e-05
2.1032465e-05 1.3783918e-05 1.864578e-05 1.950448e-05 4.82831e-05 2.6961437e-05 1.5801981e-05 4.992602e-05
00000000: 9ac0 8737 e993 d637 e730 aa37 4008 9237
00000010: 6aaa d537 4d5c 9e37 eed2 d837 b604 ad37
00000020: 584e d137 1532 9c37 c13e bd37 4f86 af37
00000030: 625c da37 bf51 de37 74a2 a637 5172 ef37
00000040: b4dd b437 9444 9137 db75 ef37 8a8b 9c37
00000050: 9be8 1f37 bbcd dd37 a0e4 5237 5419 9437
00000060: 9ac9 ca37 a616 a437 455a 4937 2589 b837
00000070: 08d7 5237 0dd1 c737 2416 8437 ea7b 2f38
00000080: 32e7 2f38 2e61 bf37 40f7 3638 7c61 2338
00000090: f45c 8638 c735 0038 a5dd 4c38 8955 e237
000000a0: 282c 3838 c7d6 0a38 eec0 7438 9e90 2f38
000000b0: 425f ec37 a5e9 3038 c464 3238 75fa 5038
000000c0: f316 8d38 3570 3538 482c e437 c1c3 9b38
000000d0: 633f df37 f589 1538 a07a 8738 6f56 4138
000000e0: aa9c 0838 007a 8d38 281f e737 b7cf 9338
000000f0: 78d8 5f37 09a3 0b38 0fb3 0738 ba3e a137
00000100: 81d8 1238 9715 0938 d287 3738 6294 8237
00000110: 101a db37 dfca 6b37 7fb6 c137 66c6 a837
00000120: 48c5 3038 a637 ea37 25d7 8937 0a8c 2638
00000130: b977 e437 b33c 2238 4fcf 4338 efa0 0f38
00000140: 1fa8 8e37 eeaa 4838 43b8 c437 bc87 0738
00000150: ce32 3938 3728 0138 51eb b437 d4bc 4438
00000160: 5db3 b137 9fb3 4b38 1bcc 6336 e8d7 fe36
00000170: 83d1 9436 a0b1 b536 3aab e236 4ba9 e536
00000180: a6af f436 b392 5d36 9a84 db36 9cb6 3736
00000190: 694a a536 50fc 8336 b202 e636 e33e c236
000001a0: d6cd 9536 09d9 ea36 3000 8236 5fd4 da36
000001b0: 3a3e 0a37 3f3e dd36 332e 7c36 34a7 0737
000001c0: 25e5 b336 f37d 9d36 7abd 0437 78d2 d236
000001d0: ac07 9536 5214 f336 0975 9936 e2de ee36
000001e0: 406b 3937 378d f937 f4d4 bb37 30c2 8437
000001f0: 8c3a bc37 c9c2 a237 e966 ea37 1b15 3937
00000200: e4b4 c337 22cd 2937 1c22 a237 bdfe 7b37
00000210: 8920 ed37 6a87 b637 6728 3c37 4d1c dd37
00000220: b8e0 8a37 e777 d537 34d5 f337 da82 ba37
00000230: df6a 4937 b422 fb37 eb70 7337 da3f 9d37
00000240: 67f0 e937 c89e 9c37 4e27 7e37 dc2b f337
00000250: 8a91 7837 ce59 f137 1d43 f836 7c63 c737
00000260: 2402 a837 e3fc 4437 9cb2 9e37 bb3b 8e37
00000270: a93e d337 c8e5 5337 84dd 8c37 0bb8 3c37
00000280: dbf3 6b37 2e82 6a37 d11b a037 e0c9 5b37
00000290: 76e7 0f37 6c09 b137 dcda 5637 7c83 c337
000002a0: 8b26 ec37 d1de b137 8171 4937 2158 e937
000002b0: ee86 4237 7657 8b37 b417 d937 6961 a437
000002c0: 3e05 6337 8c1b e037 8508 5937 6950 da37
000002d0: 6aa9 5a37 66ef df37 9df5 cf37 3ad1 b037
000002e0: ef86 0538 3cf3 db37 1dba 0f38 bb6b 9737
000002f0: 118e 0238 7454 7f37 f640 e437 40a4 a837
00000300: 57f9 0538 ab6f eb37 e712 7037 c980 e037
00000310: b90a c837 3759 1038 aa1f 2b38 c782 f437
00000320: d4c8 b837 fe16 1a38 8588 b637 bf2e 9e37
00000330: 579a 1538 5ae4 fb37 593a bb37 c51d 0738
00000340: a7cd 9437 b291 1038 2c1f a636 9327 9c37
00000350: 8909 1f37 422d 7437 5918 2d37 c0ba 4037
00000360: 6d42 7a37 9749 df36 30da 7e37 c95a be36
00000370: 7a6f 3d37 d948 1637 8368 9237 6ea8 5137
00000380: 85b2 b636 4857 a837 2115 0137 876b 1837
00000390: e0e8 7237 63fd 2e37 9779 c936 247b 9237
000003a0: e839 be36 e952 7337 48a3 8037 90fd 2737
000003b0: fa0f 1a37 668f 9237 b4a0 fe36 6ff0 9737
000003c0: b2b9 3c37 8a19 5f38 8528 2d38 4696 7837
000003d0: 94b5 2238 ba06 2838 bd8e 7d38 c56f 7737
000003e0: e06e b037 7a41 6737 8269 9c37 8d9d a337
000003f0: 9583 4a38 3f2b e237 7f8e 8437 a867 5138

exp_avg f4 [128]
0.0008412506 0.0008525917 0.00026241058 0.000250746 -0.00044551145 -0.00098753 0.0003763897 0.00030409748
0.00027555277 -0.0011042746 0.0006723031 -0.0007395056 6.4980064e-05 -0.00069579104 0.00058749487 -0.0002327424
-3.5053035e-05 -0.00028663434 -0.00059503136 0.0006202788 0.00014870861 -0.00043408855 -0.00019433095 -0.00041474486
0.0008030655 0.00082434405 0.00027460005 0.00013935602 -0.00013295701 4.7176967e-05 0.0003392099 5.0124527e-05
-0.00037293133 -0.00028295055 -0.0019421779 0.00035858515 5.9065096e-05 -0.0004185771 -0.00029764342 -0.00013090724
0.00053303334 -0.000554163 -0.0004789231 0.0001354284 -8.161694e-06 0.00012854456 -0.0001882841 -0.0005776972
-6.6741246e-05 0.0010804348 -0.00025303432 -0.00011959099 -0.00028726124 -0.00093108264 -0.0011843683 -0.00077026885
-0.0004214079 0.00058361876 -0.0002696685 0.00013852106 0.0010290191 -0.0010885152 -0.00022164083 0.0003159316
-0.00066674786 -0.0020334458 -0.00034999076 0.0004981956 -4.819498e-05 -0.0010383066 0.00012896958 0.00027164543
-0.0008548835 0.000117843054 0.0006524804 0.00073405297 -0.000198482 -6.925873e-05 0.0004496287 0.00017272953
-0.00014703686 0.00049884885 -0.0001021931 0.001474444 -0.00067177135 -3.3911932e-05 0.00034288617 0.0010979035
-0.0005965664 -1.5068483e-05 -0.00019326137 -0.0007484983 0.0011260662 -0.0006608456 0.00024035553 0.0007952321
-0.00070367387 0.00022531791 0.0012607817 0.00011068559 -3.0749063e-05 0.00034697112 -0.001247805 0.0002760905
-0.0004109437 0.00033525436 0.0013085704 -0.00037360121 -0.00043980617 1.5474672e-05 0.00081582565 0.00051537895
0.00069772586 0.0014107999 0.0003894758 0.001092313 0.0003760993 -0.00034501223 0.00012561251 0.00045485873
0.00030137546 0.0013230658 0.0003257161 0.00069340423 0.0005651026 6.8939975e-05 -0.00054420147 -0.00050598604
00000000: 5f87 5c3a 7680 5f3a 2794 8939 8f76 8339
00000010: 8993 e9b9 0270 81ba 2c56 c539 466f 9f39
00000020: 1178 9039 4fbd 90ba 7f3d 303a 61db 41ba
00000030: e845 8838 bf65 36ba 1d02 1a3a 500c 74b9
00000040: e905 13b8 6947 96b9 e1fb 1bba 359a 223a
00000050: aaee 1b39 6196 e3b9 51c5 4bb9 1d72 d9b9
00000060: d084 523a cb18 583a 32f8 8f39 1920 1239
00000070: 606a 0bb9 e2df 4538 fbd7 b139 cd3c 5238
00000080: ff85 c3b9 fb58 94b9 ad90 feba 7c00 bc39
00000090: aabc 7738 7874 dbb9 060d 9cb9 2544 09b9
000000a0: 43bb 0b3a 4045 11ba f817 fbb9 c901 0e39
000000b0: 35ee 08b7 ebc9 0639 216e 45b9 9a70 17ba
000000c0: 6ff7 8bb8 609d 8d3a b1a9 84b9 edcc fab8
000000d0: 8d9b 96b9 e613 74ba ce3c 9bba deeb 49ba
000000e0: 69f0 dcb9 fefd 183a 4b62 8db9 f73f 1139
000000f0: 27e0 863a 82ac 8eba 4268 68b9 9fa3 a539
00000100: b1c8 2eba 8f43 05bb f77e b7b9 5799 023a
00000110: f724 4ab8 ca17 88ba 023c 0739 a26b 8e39
00000120: 431a 60ba 8222 f738 380b 2b3a 766d 403a
00000130: 9b1f 50b9 ff3e 91b8 24bc eb39 bb1e 3539
00000140: e82d 1ab9 2ec5 023a 8150 d6b8 2242 c13a
00000150: d019 30ba a93c 0eb8 67c5 b339 87e7 8f3a
00000160: e562 1cba a4ce 7cb7 34a6 4ab9 df36 44ba
00000170: 8398 933a 993c 2dba f207 7c39 1f77 503a
00000180: c176 38ba 5143 6c39 d040 a53a e01f e838
00000190: 8ef8 00b8 ade9 b539 638d a3ba 3dc0 9039
000001a0: ee73 d7b9 14c5 af39 5684 ab3a e8df c3b9
000001b0: c995 e6b9 9bcf 8137 22dd 553a 7f1a 073a
000001c0: 97e7 363a 97ea b83a 8f32 cc39 f12b 8f3a
000001d0: 322f c539 c2e2 b4b9 dab6 0339 1b7a ee39
000001e0: ee01 9e39 b96a ad3a e0c4 aa39 92c5 353a
000001f0: 6523 143a de93 9038 bea8 0eba 26a4 04ba
