training/runs/WalkBot/nn/last_WalkBot_ep_200_rew_0.459963.pth (torch, 267394 bytes, 30 tensors)

running_mean f8 [30]
00000000: 6177 4ac5 d25d c73f bd0c aa0e 66e4 c7bf
00000010: 9807 ba13 aa26 b4bf 6138 c6f1 8319 d5bf
00000020: e163 f202 a260 c9bf 87e7 ac0f ebd0 b1bf
00000030: 6827 d433 41ce a23f d0e3 ec07 ee9e 1140
00000040: c0a9 2b59 e335 fa3f faed 181d 8684 12c0
00000050: ea40 d048 4d84 aabf a409 2277 68ad a5bf
00000060: a503 352f 95a1 a5bf 6511 a06a f222 dfbf
00000070: 4648 7f8a 8f9c d93f 78f0 8126 3c8d a53f
00000080: 9d72 8e7f b646 d8bf 9869 ca8c dd6d e13f
00000090: 6963 9956 2a80 abbf d223 a100 1cf2 81bf
000000a0: da8e 9946 08d0 963f b943 6609 1b88 923f
000000b0: 88d7 e4a2 376d 91bf 8472 5189 5ee0 bbbf
000000c0: f802 dba5 e598 9b3f b8e0 7f6e 185b c0bf
000000d0: 23e8 9ea6 da03 cd3f 1ce5 bb04 35e7 a8bf
000000e0: 1350 626e 71d9 d6bf 1a70 f870 e876 bd3f
0.18255076058715772 -0.1866576739886109 -0.07871497136696204 -0.3296823369099738 -0.19826150077713492 -0.06959408886623751 0.03672984845805055 4.405204891046154
1.6381562693810423 -4.629417853018362 -0.051790633333554784 -0.0423386235643364 -0.042248403561195226 -0.4865079919111593 0.4001807072173772 0.04209316225112131
-0.3793159719150852 0.5446613073175284 -0.05371219927901089 -0.008762568253716827 0.022277955349990865 0.018097326706598447 -0.017018193547492483 -0.10889235355848298
0.026950443504349914 -0.1277800120876742 0.22668011794832052 -0.04863897021091132 -0.35702167300883153 0.11509564168994793

running_var f8 [30]
00000000: 226e 6bf6 52e6 3a3f dad7 7946 a741 a43f
00000010: 5229 c19d 1bb1 bb3f 6388 f91f 0d5d ae3f
00000020: 619e 9435 6c26 2540 e66a 276b 3ff2 1540
00000030: ca69 45ce 8387 2c40 db40 7ad9 e2b0 0240
00000040: 34f1 3e54 06f5 af3f c45c 95ed fb60 f13f
00000050: bf8f b9b6 9a6d b13f 6bd5 0ec0 290a b03f
00000060: b410 9f70 6338 b03f 0880 c78a 2197 b83f
00000070: 6ed7 200e cbc6 a83f 04a4 99c4 7bcf a93f
00000080: 01d3 df53 5b22 a73f c23b 41b4 132f bf3f
00000090: fe8e be5b 4a94 0b40 cfef d4fc 3f65 1140
000000a0: 3123 0ef3 c4e9 1240 d66f b7e3 b3fb 0840
000000b0: 1043 2f03 8142 0540 ca02 1778 e67a 1140
000000c0: 15d6 f01a 5e65 e43f b6b1 9c43 d9c2 e23f
000000d0: e936 2bb2 91ee e13f 00aa ce1b 46de e43f
000000e0: 58d9 3a2d b39f d83f 9ff7 7bc7 db5a e63f
0.00041045690015348486 0.03956339583685038 0.10817120171956177 0.05930367484394663 10.575044321433952 5.486570047646387 14.26467747304277 2.3363701811250457
0.06241626528160041 1.0861777573207272 0.06807867966705226 0.06265507639803551 0.06336041926903385 0.09605607641378822 0.0483916716333813 0.05041109824089321
0.04518399618965497 0.12181208754303355 3.4474074523476466 4.3488769059149055 4.7282903649691415 3.122901705775784 2.6574726342008788 4.370019794849847
0.6373739744364594 0.5862852402256553 0.5603722076282028 0.6521330397711722 0.38474730889301645 0.6985911270310118

count f8 []
00000000: 0000 0020 0000 6941
13107201.0

running_mean f8 [1]
00000000: f505 70d6 2ef4 f83f
1.5596149803608317

running_var f8 [1]
00000000: b6e7 ad82 609b f93f
1.6004338364277664

count f8 []
00000000: 0000 0080 0000 4941
3276801.0

a2c_network.sigma f4 [6]
00000000: 9055 9bbf bd95 82bf 892b 18bf c4a1 9ebf
00000010: d571 96bf 08aa 28bf
-1.2135487 -1.0201946 -0.5944143 -1.2393117 -1.1753489 -0.6588445

a2c_network.actor_mlp.0.weight f4 [128, 30]
00000000: f64e 713e dfa7 e7be 816e 013e 022a 203e
00000010: a579 38bd 6e50 423e 3608 273e 8391 d03c
00000020: 0fb8 503e 7f7f dc3d eef0 b0bc 8208 033b
00000030: 91f1 8e3e f9a0 523e 1a35 183e 6d8f adbe
00000040: 1e80 7c3d 756a b5bd 391e 1e3e 95d7 d4bd
00000050: aedc 09be ffb2 33bd 8c09 04bd 8ece 133e
00000060: 80fc 0a3e 82c0 9d3c f0af 013d 71bb 0b3d
00000070: df20 f73d d0d0 72bd 45c7 80bc f39b 80be
00000080: df08 d33d 7699 d1be 61da bcbd cf9d eb3d
00000090: ddfe 173e 1974 0bbe b0c1 96be 02a7 45bd
000000a0: f3a0 5a3e f16d 0f3e 52ff 113e 83cd f8be
000000b0: 39bd 47be b772 83bd e82f d3be 643b 95be
000000c0: e198 85be cc70 283e 26b4 02be dc56 4abe
000000d0: 2ce5 783e ddd8 98bd 81b9 823d 549b c0bc
000000e0: 180a 013d fcd3 80bd 2379 92bd d448 3c3e
000000f0: 489f 083e 9103 343e c833 25bd e315 333e
00000100: 752e e2bd 2098 59be 82b1 d63d 4ec7 51be
00000110: 2f29 0fbc 2ca6 76be f3fd 36bd 5863 683d
00000120: fcc4 4f3c 7761 a5be e824 82bd 67df 42be
00000130: 2134 79be af3d 40be d052 c2bd 2bb8 07be
00000140: 8c25 b63d c947 dd3d b4c6 b53c 5fc0 a1bd
00000150: 3c24 b5bd 322e 69bd 4ec7 bf3d 922b 59be
00000160: 69b3 f7bd cdab 12be 0382 803e f8a6 1dbb
00000170: 11b1 803e 4ae5 5abe 5a4b babc 3dab fc3d
00000180: b13e 59bd 91c5 8ebc bfe6 3abd bc6e d2bd
00000190: bd55 c83e e42a 043e 23e3 4ebd 53c7 9e3e
000001a0: ca0d 6d3d 4a2a 643d 68ef fbbd efcf a2be
000001b0: 7707 50bd 057f 243d 6f16 583d e6fe 88bc
000001c0: 6ad1 813e 90aa 08be 1b0c 4ebd ddc5 03be
000001d0: d5c2 943e 35b0 063e a94c 903e 6ca7 75bd
000001e0: 67b4 673c 9339 a8be 90d2 8dbd 81fa 0dbe
000001f0: 729d a93c 40f8 75be be50 203e 18ba 143e
00000200: 40d4 83be a728 4e3d cf0d b93e 5422 343e
00000210: a8aa 273e 4762 b5be dbe6 9abe cf84 06bd
00000220: 9f03 88bd b53b 82bd bd8a b93d fb0e 31be
00000230: f1c4 253c bfcf 1bbd 02c3 f53d 7662 c83d
00000240: 5967 e8bd 9389 3a3e 8d02 3fbc 3464 b7bc
00000250: 6870 083e 7215 0dbe 680a c13e 0d0b 3ebe
00000260: e01b 833e 3cae 34bd a0fc 593e a3ac 193e
00000270: 9423 373d b40e 14bd 3e89 b2bc 96dc b5b9
00000280: f87d a63c 1fb1 35be 1772 bf3d 582a 773e
00000290: 5d7e 5abe 8aa7 f1bd 9c56 5f3d adc3 543e
000002a0: a4bf 0f3e fa1e 503e 82d5 a4bd 9b61 9f3c
000002b0: 344a 183e c201 5bbd 7b4f 3fbe 076f 2abe
000002c0: 99b3 2d3d 7157 58be 3486 e3bd daa0 07be
000002d0: 89df af3d ad0b 6c3d bfda 04be e62e 1ebe
000002e0: f62b 17be 0d63 53bc c3e2 833d e8ef 6cbd
000002f0: 5d1f 093e b7c4 b3bd b2b6 3fbe 8bca b43d
00000300: cbf5 02ba ddad 7ebe 4908 60be f8b6 58be
00000310: ab57 1a3e 527f 9e3d 0ff5 49bc 884b 6cbe
00000320: 27a4 75be 21c8 363e 7676 423e 0383 d63d
00000330: 825f 693d 5631 b43d aec3 8ebd 13a4 82be
00000340: a615 f2bc 5112 90be 05cb 9e3e 45e7 6abe
00000350: bdcc b1bd 0950 03be 367a 113e 9dc8 d33c
00000360: 8573 f6ba 1b98 373e 3f96 3abd fcd5 1f3e
00000370: 76a5 ae3b 5634 eebd 50e0 e2bd 4abb bd3d
00000380: eaa9 32bd 7412 fabd d96c 6dbd 2612 20be
00000390: 9387 593d 676f 9b3d f0ba 153e 50fa a4bd
000003a0: 1668 fa3d 3412 6bbd 08cc 4d3e 1696 173d
000003b0: c3bc 55bd aaac f63d 9540 02be 2435 55bc
000003c0: fcfd 1b3e d073 42be 767b ba3e f190 0c3f
000003d0: efe5 833e 502f 22be 3ef8 1dbe a930 473e
000003e0: 337b 8b3e 9def ba3d 8494 aabe 4794 2abe
000003f0: 9aa4 b83d 5ccb 053e b13c 17bc 31b0 7ebe
0.23565277 -0.45245263 0.1263981 0.15641025 -0.045037884 0.18975994 0.16311726 0.02546001
0.20382713 0.107665055 -0.02159926 0.0019994085 0.27918676 0.20569219 0.14864007 -0.33898488
0.06164562 -0.08858196 0.15441217 -0.103926815 -0.13463089 -0.043871876 -0.032235667 0.14434263
0.13572884 0.019256834 0.031661928 0.034114305 0.120668165 -0.05928117 -0.01572002 -0.2511898
0.103044264 -0.40937394 -0.0922134 0.11504709 0.14843316 -0.13618506 -0.29444647 -0.048254974
0.2135046 0.14006783 0.14257553 -0.48594293 -0.19505776 -0.064183645 -0.41247487 -0.29146874
-0.260932 0.16449279 -0.12764034 -0.19759697 0.24306172 -0.074632384 0.06383038 -0.023511566
0.031503767 -0.06290433 -0.07152011 0.18387157 0.13342011 0.17579485 -0.040332586 0.17488818
-0.11044017 -0.21249437 0.10483076 -0.20486185 -0.008737846 -0.24086827 -0.04467578 0.056735367
0.012681242 -0.32300922 -0.063546956 -0.19030534 -0.24336292 -0.1877353 -0.094884515 -0.13253848
0.0889388 0.108047076 0.022189476 -0.0789802 -0.08844802 -0.05692882 0.09364186 -0.21208027
-0.12094767 -0.1432335 0.2509919 -0.002405582 0.2513509 -0.2137653 -0.022741009 0.123373486
-0.053038303 -0.017428191 -0.045630213 -0.10275027 0.39127913 0.12906986 -0.050509583 0.31011447
0.05787448 0.055704392 -0.123015225 -0.31799266 -0.05078837 0.040160198 0.05275577 -0.016723108
0.25355083 -0.13346314 -0.050304513 -0.12868448 0.29054895 0.13153155 0.28183487 -0.05997412
0.014142132 -0.32856426 -0.06924927 -0.13865091 0.020704959 -0.24020481 0.156558 0.14524114
-0.2574787 0.050331738 0.36143348 0.1759122 0.16373694 -0.35426542 -0.30254254 -0.0328415
-0.06641316 -0.063590445 0.09059665 -0.17290871 0.010117755 -0.03803992 0.120000854 0.09784405
-0.11347837 0.18216543 -0.011658323 -0.022386648 0.1332413 -0.13777712 0.37703252 -0.18558903
0.25607204 -0.044111475 0.21287775 0.15007262 0.044711664 -0.036146834 -0.021793958 -0.0003468736
0.020323738 -0.17743348 0.09347933 0.24137247 -0.21337266 -0.11799534 0.054525957 0.2077777
0.14037949 0.20324317 -0.08048536 0.019455722 0.14872056 -0.053468473 -0.18682663 -0.16643916
0.042407606 -0.21127106 -0.111095816 -0.13244954 0.08587558 0.057628322 -0.1297407 -0.15447578
-0.14762864 -0.0129020335 0.06439736 -0.05784598 0.1339087 -0.08777755 -0.18722036 0.088276945
-0.00049957325 -0.24871011 -0.2187816 -0.21163547 0.15072505 0.07739128 -0.012326493 -0.23075688
-0.239884 0.1784978 0.18990502 0.10474207 0.05697585 0.087984726 -0.06970917 -0.25515804
-0.029551338 -0.28138974 0.31014267 -0.22939785 -0.08681629 -0.128235 0.14206776 0.025852496
-0.0018802738 0.17929117 -0.045553442 0.15608972 0.005329783 -0.11631076 -0.110779405 0.09264238
-0.043619074 -0.12210551 -0.057965133 -0.15631923 0.05310781 0.07589608 0.14622092 -0.08055556
0.12226884 -0.057390407 0.20097363 0.037008367 -0.05218197 0.12044652 -0.12719949 -0.013013158
0.15233606 -0.18989491 0.36422318 0.54908663 0.25761363 -0.15838361 -0.15426728 0.19452156
0.2724243 0.09127734 -0.33316433 -0.16658126 0.0901577 0.13065857 -0.009230779 -0.24871899

a2c_network.actor_mlp.0.bias f4 [128]
00000000: 60d0 d5be 6947 3f3e 16f4 783e 2f04 883e
00000010: f5ef 3d3e 36fe 00be c2f6 54be 90a1 debd
00000020: 4d01 b0be e239 fcbd 4484 40bd 3d12 57be
00000030: e422 3d3e f58a 71be 3b60 573e f953 6a3e
00000040: 0553 903d 5f34 89be 6fe3 93be afd1 f8bd
00000050: 4b9e 65be 68fa 28be 178a 37be 0f2c b1be
00000060: d902 d9bd 8650 a23e b87d 68bd a2fd a13c
00000070: 7019 95be 809b 78be 59cd 5e3e cfed 4e3c
00000080: 7939 c6bd b978 babd 3052 5dbe 99b2 83be
00000090: a7a3 88be 927f 8cbe 7888 f7bd b037 aabe
000000a0: dfdf aa3d 17ed 8cbe 3774 8dbd 5557 82be
000000b0: 0005 b1bd f47e 6fbd 9a7b 533d cc5f 49be
000000c0: 12fb 2abe 73f8 36be e496 55be 58b3 6abe
000000d0: e1e5 553e b3a4 0cbd 3a16 e03c 896a bfbe
000000e0: 5d29 d7be 3ad7 6cbe 0c72 3ebe 717d cebc
000000f0: e2c9 26be 41e6 8c3e 5530 5a3e 0c11 a0be
00000100: 1fcb 6f3d c777 813e 2d74 823e cdc0 7abd
00000110: e46b a9bd 0b34 d2be 269e bebd 8013 2ebe
00000120: b6f5 bb3d 9143 1bbe 9287 9c3e 308d 1ebe
00000130: 8eea aabe 02d4 d5be be9f 6f3b f9f1 cd3d
00000140: df65 bb3d ccee a9be 5ace 023e e8cf 333d
00000150: 8b77 a93d d6f2 6e3e bec5 173e bc42 0e3d
00000160: 607a 993d a5c9 4abe a2c5 0dbd f2a5 eabe
00000170: 785d 013e c71d a3be dcf6 62be ffcc c4bd
00000180: 5084 0d3e 67be c9be 12a5 963b c380 93be
00000190: 5b19 14be 8d0d 20bd 7961 82be 1a91 c1bc
000001a0: 27d2 9fbe 0ddd e7bd e8d0 553e 814d 7cbe
000001b0: a620 2ebe 38c2 3b3e d77c 923d 478f 8d3e
000001c0: 2d2f 25bd 5fa1 8bbe b233 df3d 524c 7a3d
000001d0: cab1 02be d0cd 823e 287a 66be 675f da3b
000001e0: ef7a d33d 93a3 6f3e 08d7 593d cc35 a5be
000001f0: 99b2 3a3e e345 8ebe 23b8 023e 2c1b 6cbe
-0.4176054 0.18679585 0.24311861 0.26565692 0.18548568 -0.12596974 -0.20797256 -0.10870659
-0.34375992 -0.12315728 -0.04700114 -0.21003051 0.18470341 -0.23588164 0.21032803 0.22883596
0.07047085 -0.26797768 -0.28884456 -0.12149369 -0.22423665 -0.16501772 -0.17923771 -0.34603927
-0.10596246 0.3170206 -0.05676052 0.019774262 -0.2912097 -0.24278069 0.21758021 0.01262994
-0.09678931 -0.09105057 -0.21613383 -0.25722197 -0.26687357 -0.27441078 -0.12086576 -0.3324561
0.08343481 -0.27524635 -0.06906932 -0.25457254 -0.08643532 -0.05847068 0.051631548 -0.1966545
-0.16697338 -0.17868213 -0.20858341 -0.22919977 0.20888473 -0.034336757 0.027354348 -0.37385967
-0.42023745 -0.23128977 -0.18598193 -0.0252063 -0.1628795 0.2751942 0.213075 -0.31263006
0.05854332 0.25286695 0.2547926 -0.061219025 -0.08272532 -0.4105533 -0.09307508 -0.16999626
0.09177725 -0.15162493 0.30572182 -0.15483546 -0.33382076 -0.41763312 0.003656372 0.10055918
0.0915029 -0.3319 0.1277403 0.043899447 0.08274754 0.23334822 0.14821526 0.03473161
0.07494044 -0.19803484 -0.034612305 -0.4582973 0.12633312 -0.31858656 -0.22164482 -0.096094124
0.13820004 -0.39403078 0.0045973146 -0.28809175 -0.14462797 -0.039075423 -0.2546499 -0.02362876
-0.3121502 -0.11321459 0.20880473 -0.2463894 -0.17004642 0.18335807 0.071527176 0.27648374
-0.040328193 -0.27271554 0.10898532 0.06110794 -0.12763134 0.25547647 -0.22507536 0.006664205
0.10326182 0.23402242 0.053183585 -0.32267606 0.18232192 -0.27787694 0.12765555 -0.2305724

a2c_network.actor_mlp.2.weight f4 [128, 128]
00000000: a763 873e 1bc7 b2be d51a c4bc c8e7 c3bd
00000010: 20ab 59be 4cbb 7a3e 0a5b 283d 762f 913d
00000020: 4063 563e 3b13 72bd 9998 82bd 8380 27be
00000030: 2df6 973c d59e 333e 5064 12be 2bea 35bd
00000040: a9dc ad3d 2d08 f03d 104d 3a3e 9fdd 52be
00000050: 3505 8f3e 2582 793d 4547 5e3d 28d4 3e3e
00000060: 1e08 35be c88a 8ebd aaf5 36bd c647 bb3d
00000070: 22b5 1e3e ef25 d33d 57d1 07be 92be 74bd
00000080: 043c 12bd 22a9 33be 53de 813e 7e45 f4bd
00000090: dd58 fc3d d4bc ba3d 4639 963d dc9d 803e
000000a0: c816 8d3d 79ad 7a3d 32fa a23d e5bd ff3d
000000b0: c320 233d ab9f 4cbd bc1f 38be c34e 39bb
000000c0: 4496 a63d 235e 2a3e 409e a0bd 81d4 c9bc
000000d0: c8ed cdbd 4316 673e b450 4abd a0cc 803e
000000e0: 09d0 993d bc0e 283e ebe3 023d b435 6dbd
000000f0: d515 8d3c 7d28 6e3c da5f b5bd 24f3 7a3e
00000100: e68e c5bd 838e 9a3c 5a21 babd 3968 febd
00000110: 2175 b63d e676 bb3d 2c66 283e 7333 a13d
00000120: 9976 debd 2a9e 8b3d e912 1abe e1e4 18bd
00000130: cb86 373e bc2b 083e c915 a93c 5e49 80be
00000140: 3898 92bd a74a 883e 7657 d6bd e5ff 3cbd
00000150: 901d a83d a27d 39bd 2b20 4fbd f22c 30be
00000160: 4c62 aebe eff2 fb3d 3a84 42bb cf3b 8bbc
00000170: f626 77be 67de 643e 08b8 18be 9d7f e1bb
00000180: 72f0 2dbe 1e70 e03d 5ad7 31be 119e a13d
00000190: 0dc4 0c3e 4c17 ed3d 305b d13d 09f7 d23d
000001a0: b7af 8e3c 1e03 2a3c 9628 11be e9b1 80bd
000001b0: a4e1 67bd a431 50be f619 a9bd eecf d9bd
000001c0: cbd9 2dbd 92ef 533e 3c80 16be 47c7 80bb
000001d0: 0635 bf3d 111f 9dbd cd9c 723d 3383 bc3d
000001e0: 10e4 883c 934e cfbd 8a2e 11bd 2af6 9fbb
000001f0: fa8e 45bb 4a06 d43c d581 63be 200a 24bd
00000200: 7505 36bd 4b52 9ebc 3d0b 10bd 75fe b1bc
00000210: 13b8 b8bc b9a9 183d f032 ceba 51ea 183d
00000220: 4f11 193c a300 bebd ecf9 22be 97f9 183c
00000230: 3596 5e3d 1ee6 6c3d 5a39 793d 7a5a 05be
00000240: 7e86 b23c 700f bf3d cb3a 0d3c 128b 2cbd
00000250: 6c77 06bc 6ff4 1e3e 623d e1bd b51f 63bd
00000260: 20c3 c53d 592f 04be 2503 07bd c3cb 8cbd
00000270: b33a 403c 4e5b 093d 55ab 4ebd d16c d6bc
00000280: 8737 453d 542d bb3d 45ce 3d3e 8d1c fbbc
00000290: 4413 503d 8f80 ccbd 253b d13d 6da9 0c3e
000002a0: dd76 7a3d f795 43bc 01ef 773d 3ad2 4fbd
000002b0: 9de6 5b3d 2d6f ec3b fc52 bebd 7326 06bd
000002c0: 8688 a8bb f231 193d 7fb3 083d faf7 723d
000002d0: fd4f 1b3c 60db 493e 421a ac3d 1054 df3d
000002e0: e676 a03d 5990 d9bc 5e47 92bd 590f f73c
000002f0: 3295 d83d 16c8 77bd 8644 e7bc 20e2 1bbd
00000300: 80d9 153e a146 203e 483a be3c 2e09 433d
00000310: b66f 8e3c b0bc 053c 9646 4fba 2733 233d
00000320: 51d5 a1bc 5ccb e2bd bddd e43c 6beb c83c
00000330: 55cc 1a3c c0c9 0e3b b49c 9cbc 0084 a83d
00000340: 42c1 92bd 0bed 8b3d 2650 2e3d 336e ffbc
00000350: 4a38 17be 31d3 84bd 2269 80bd 927a ef3d
00000360: f407 f73d 1373 abbd 867d 143d f98d 583d
00000370: ede2 d03d d823 06bd 6977 d0bd 820b 8fbd
00000380: 91b9 a43d e8d1 523d d364 8cbd c8c5 73bc
00000390: 3ef8 333c dc8f 9e3d 381f c33c e494 01be
000003a0: e0f1 393e 048c d3bd 2642 913d 0b6b 813c
000003b0: f7ef 653d 6152 6c3d 73e9 8bbd b269 c3bd
000003c0: 6a2d 9b3d ec3f 03bd 86e1 013d 5293 a5bd
000003d0: ddad 27bd 20eb ac3d ac47 6e3d 00c6 06be
000003e0: 8fae 633d 8d20 cdbd 88dd 323d b221 763c
000003f0: 7e35 853c 7853 5b3d 94ee 523b eadd c63d
0.26443216 -0.3491753 -0.023938576 -0.09565693 -0.21256685 0.2448551 0.041102447 0.070891306
0.20936298 -0.05910037 -0.06376762 -0.16357617 0.018550003 0.17541058 -0.14296079 -0.044412773
0.08489353 0.117203094 0.1819346 -0.20592354 0.2793366 0.06091513 0.054267187 0.18635619
-0.17678878 -0.06960064 -0.044667877 0.09144549 0.15498784 0.1030997 -0.1326345 -0.059752055
-0.035701767 -0.17544988 0.25364932 -0.11927317 0.12321637 0.09118047 0.07335143 0.25120437
0.06889111 0.061200593 0.07957877 0.124873914 0.039826166 -0.04995696 -0.17980856 -0.0028275705
0.0813413 0.16637473 -0.07842684 -0.024637463 -0.10055119 0.22567086 -0.04939337 0.25156116
0.07510383 0.1641187 0.03195564 -0.057912543 0.017222324 0.01453602 -0.08856173 0.24506813
-0.09646396 0.018866783 -0.090883926 -0.12422223 0.08909059 0.091535375 0.16445225 0.07871141
-0.108624645 0.06817277 -0.15046276 -0.03732765 0.17922513 0.13297933 0.02064027 -0.25055975
-0.0715794 0.26619455 -0.104659006 -0.046142478 0.082087636 -0.04528583 -0.050567787 -0.17204645
-0.3405937 0.12302195 -0.0029680864 -0.016996292 -0.24135956 0.22350465 -0.14913952 -0.0068816678
-0.16986254 0.10958885 -0.17367306 0.07891477 0.13746662 0.11576709 0.10222471 0.103010245
0.017417772 0.01037672 -0.14175639 -0.06283934 -0.056611672 -0.20331436 -0.08256905 -0.106353626
-0.04244403 0.20696858 -0.14697355 -0.0039300057 0.09336285 -0.07671941 0.059231568 0.09204712
0.016710311 -0.10122409 -0.035444774 -0.00488164 -0.0030145035 0.025881905 -0.22217496 -0.04004872
-0.044438798 -0.01932635 -0.035166968 -0.02172778 -0.02254871 0.037271235 -0.0015731733 0.037332837
0.009342506 -0.09277465 -0.1591565 0.009336851 0.054342467 0.057836644 0.06084571 -0.13022795
0.021792646 0.09329116 0.008619974 -0.042124815 -0.008207183 0.15522932 -0.10998036 -0.05545016
0.09656358 -0.12908687 -0.032961983 -0.06874802 0.011732745 0.03353434 -0.050456364 -0.026174935
0.048148658 0.09139505 0.18535717 -0.030653263 0.050799623 -0.09985458 0.10216359 0.13736506
0.061148513 -0.01193761 0.060530666 -0.050737597 0.053686727 0.0072154016 -0.09293172 -0.03275151
-0.005143228 0.037401147 0.033374306 0.05931852 0.00947952 0.19712591 0.08403446 0.109047055
0.07835178 -0.026558088 -0.071425185 0.030158686 0.10575332 -0.06049355 -0.028230917 -0.038057446
0.14633751 0.15651943 0.02322115 0.047616176 0.017387252 0.008162662 -0.00079069415 0.039843705
-0.019755038 -0.11073944 0.027937764 0.024526319 0.009448131 0.0021787733 -0.01911769 0.08228302
-0.07165767 0.06832322 0.042556904 -0.031180477 -0.14767566 -0.06485594 -0.062700525 0.116933
0.12062064 -0.08371558 0.03625252 0.05286977 0.10199533 -0.032749027 -0.10179026 -0.06984617
0.080432065 0.051469713 -0.06855168 -0.014878698 0.0109844785 0.07742283 0.023818597 -0.12654454
0.18158674 -0.1032944 0.07092695 0.015798112 0.05613705 0.05769575 -0.06831636 -0.09541644
0.075770214 -0.032043383 0.031709217 -0.0808474 -0.040937293 0.08443284 0.05817382 -0.13161469
0.055586394 -0.10015974 0.0436683 0.015022682 0.016260859 0.0535464 0.003218566 0.097102955

a2c_network.actor_mlp.2.bias f4 [128]
00000000: 54f8 6bbe 37bd 02bd d7b5 9dbd aad2 bd3d
00000010: eaa8 65bd 5ad3 453a 5abc d6bd 0cd8 c9bd
00000020: 2e1b dfbd a86a 013d 7aeb 8cbe 149b c6bc
00000030: 96f6 53be 9e5a 3ebe d96f 1c3d 9fc2 33be
00000040: 80de 9ebb 80a6 19be 5d6c 8abd d996 dbbd
00000050: a274 1ebe 6ffe ffbd e19a 45bd e8a6 6cbc
00000060: cdbb 9f3d 9497 30be 72e8 51be 2840 b4bd
00000070: 3ff6 3cbe 669f 31bd 4a06 1dbd a17e 06be
00000080: 8137 a4bb 801d 26be 6c38 a0bd 7943 92bd
00000090: cb0d babd 274e dc3d ab88 b0bd ba84 273d
000000a0: 2850 56be 8b50 a03d 441b 853d 01bc 13be
000000b0: eae8 2f3e c32f 1ebd 240c 96bd 2507 8c3c
000000c0: f660 d63c 7fa8 0cbe ec2e 023e 973b 23bd
000000d0: c3ec f93c 9c20 fd3b cd9f 0abe 20d6 813d
000000e0: fbc3 623d 519d 7e3d 9edf a33d ed1b 963d
000000f0: 14a9 9cbd 125b b7bd 3126 0cbe 7395 f33d
00000100: f8e7 e2bd 1957 4dbe 809b 86bd fe4d a23c
00000110: 5eab 4fbd 26ef d5bc c1a5 cfbd 52c3 9cbd
00000120: 34ed 2bbc 7d3b 92be 3c65 e23c fd72 d7bd
00000130: 8673 3abe de25 67bc dc23 313c a0b9 34be
00000140: 965c 79be 919d b0bd 554d 2a3c 95c1 0a3d
00000150: a33d b63d ba10 4a3d 7f77 e03c 86b3 dbbd
00000160: c80a 36bd ed1e 08be 5eb6 d4bc 0448 90be
00000170: a421 62be b29f 86bc b5d7 22be eb18 47be
00000180: 9151 e9bd 3a12 fe3d 595a a73c 5a24 09be
00000190: aff9 c2bb 2b75 983c e188 e4bd 080b 5cbc
000001a0: 5e6c e7be dc5a cebd 8b44 83be e0b2 b13c
000001b0: 4e21 aebd 7891 44bd 6595 ccbb 0018 12be
000001c0: bdc9 ecbd debb b03d 3c03 b3bb 3204 113d
000001d0: 581d 2bbe 536b ce3c 1dae 103d c3e7 003d
000001e0: 791e eb3d c4fc d5bd f1ea 8dbd 9fc1 9bbe
000001f0: ab88 ab3c c6b3 6dbe 2fcc aebc 60e0 cebd
-0.23043948 -0.03191873 -0.07700699 0.092686966 -0.056069292 0.00075464475 -0.10485144 -0.09855661
-0.10893856 0.031595856 -0.27523404 -0.024243869 -0.20699534 -0.18589255 0.038192604 -0.17554711
-0.0048483014 -0.15004921 -0.0675895 -0.10722131 -0.1547418 -0.12499701 -0.048243407 -0.01444409
0.07799492 -0.17245322 -0.20498827 -0.08801299 -0.1845331 -0.043364905 -0.038336076 -0.13134243
-0.0050114994 -0.16222191 -0.078232616 -0.07141776 -0.09084662 0.10757094 -0.08619817 0.040898062
-0.20929015 0.07827862 0.06499341 -0.14427187 0.17178693 -0.038619768 -0.073265344 0.01709325
0.026169281 -0.13736151 0.12713212 -0.03985175 0.030508405 0.0077248346 -0.13537522 0.06339669
0.055362683 0.062161747 0.08001636 0.07329545 -0.076494366 -0.08952917 -0.13686444 0.118937396
-0.11079401 -0.20052756 -0.06572628 0.01981258 -0.050700538 -0.026115011 -0.10139037 -0.07654442
-0.010493565 -0.2856101 0.027636163 -0.10519979 -0.18208131 -0.014108149 0.010811772 -0.17648935
-0.24351725 -0.086238034 0.010394414 0.03387602 0.08898475 0.049332358 0.02740073 -0.10727601
-0.044443876 -0.13293047 -0.025965866 -0.28179944 -0.22083145 -0.01643357 -0.15902598 -0.19443099
-0.11392511 0.1240582 0.020428823 -0.13392773 -0.0059501748 0.018610558 -0.1115892 -0.013430364
-0.45199865 -0.10075924 -0.25638232 0.02169174 -0.08502446 -0.047990292 -0.006243395 -0.14266968
-0.11561916 0.08629583 -0.005463032 0.03540439 -0.16710413 0.02519766 0.035322297 0.031471025
0.114804216 -0.10448602 -0.06929577 -0.3042116 0.020939192 -0.2321311 -0.021337597 -0.1010139

a2c_network.value.weight f4 [1, 128]
00000000: 21e7 f7bd 8372 e63b b8dd 223d cdad d93d
00000010: f768 61bd 19b7 f5bc 8662 093c 133f 203d
00000020: f9c0 93bd 5b69 1abb ce5a 4ebd 243b 633d
00000030: b651 33be 0819 67bd b779 ddbc e899 323b
00000040: 0478 c8bd 6417 37bd 51d1 953b a41f 963d
00000050: 89db 343c b093 7ebd 9fab 21be 5f74 45bb
00000060: 4bcc b93d 0b94 cc3c 5de2 6f3c a32e 893d
00000070: 487c 21be 3d50 09be 552b 94bd 87a3 47bd
00000080: 6629 e3bd 3c11 24bc a571 a5bd 5230 88bd
00000090: 14c6 f03a 1b20 6fbd 18d5 a9bc 1641 613d
000000a0: 22fb 0dbe d62f 3c3e f100 c73d 18a6 55bd
000000b0: fc06 b93d 8418 573d ddd9 e33b d3a3 0ebd
000000c0: df98 c83c 78ae a73d 26a7 083e 4773 a23d
000000d0: 48ef ac3d 1334 bb3c f26a 0fbe cb69 073e
000000e0: 5cc5 143b 73b6 b43d 5b7f 30bc 8f2d cb3d
000000f0: 7a78 14be be7b d9bd f17b 1ebe e889 443d
00000100: d0ed 363c a899 c8bd 8e7e 093d 625d 4b3d
00000110: 74d7 1f3d cf0c a5bc e40f 03be 06bb c43d
00000120: ba87 14be cc73 dbbd 3039 18be d272 a0bd
00000130: 96f1 083c 31c2 0c3e aafa f7bc 905a d7bd
00000140: 675a 05be 9fa4 3ebd 026f b1bd e879 b83d
00000150: f2c9 3f3e ac93 02bd d5d2 16be 3043 9638
00000160: dbb1 683d 374a 48be 0205 a1bc 2db1 d5bb
00000170: 705d cfbd c42c 523d 5757 f4bd 7764 04be
00000180: dcef f039 1f04 0e3e b3a0 713c 440d e53b
00000190: dcad 433d 5a0d d3bd 9511 fabb 9a12 63bc
000001a0: 0b14 02be f27f dfbd 985d 96bc 7a90 be3d
000001b0: a3d5 27bc 5132 85bc 84c1 283d a9fb e4bd
000001c0: fe4f 8fbd f89f ad3d 6676 1b3e 5df9 3f3e
000001d0: 7bd5 d2bd c7ac 433e 53ab 683b fc46 b83d
000001e0: 28dd e93d a8d8 14be 4882 3bbe 7989 04be
000001f0: 9ea0 e23c 39ef 35bd c11a be3d 30e5 55bc
-0.12104631 0.007032694 0.03976223 0.10628853 -0.055031743 -0.029994534 0.008385306 0.039122652
-0.07214541 -0.0023561332 -0.050379567 0.055476323 -0.17511639 -0.056420356 -0.027035577 0.002725238
-0.09788516 -0.04470004 0.0045720716 0.07330254 0.011038669 -0.062152565 -0.15788125 -0.0030129177
0.09072169 0.024972936 0.014641372 0.066983484 -0.15770066 -0.13409515 -0.072348274 -0.048739936
-0.110918805 -0.010013875 -0.080783166 -0.06649841 0.0018369579 -0.058380228 -0.020731494 0.05499371
-0.13865331 0.18377623 0.097169764 -0.052160352 0.09034535 0.052513614 0.0069534616 -0.034824204
0.024486957 0.08187574 0.13345012 0.07932144 0.08444077 0.02285198 -0.1400564 0.1322395
0.0022700643 0.08823862 -0.010772551 0.09920799 -0.14499083 -0.10619305 -0.15476967 0.04798308
0.011165097 -0.097949326 0.033567958 0.049649604 0.03902383 -0.02014771 -0.1279903 0.096059844
-0.145049 -0.10715446 -0.14865565 -0.078344 0.00835838 0.13745953 -0.030270893 -0.1051532
-0.13022767 -0.046543714 -0.08663751 0.09007627 0.1872938 -0.031879112 -0.14728864 7.165072e-05
0.05681024 -0.1955956 -0.019655708 -0.006521365 -0.10125244 0.051312223 -0.11930721 -0.1292895
0.00045955076 0.1386876 0.014747786 0.006990107 0.047773227 -0.10305281 -0.0076314905 -0.013859415
-0.12702958 -0.109130755 -0.018355176 0.093049005 -0.010243806 -0.016259344 0.041200176 -0.11180813
-0.06997679 0.08477777 0.15181884 0.18747468 -0.102946244 0.19108878 0.0035502508 0.08997914
0.11419135 -0.14535773 -0.18311417 -0.12943067 0.027664479 -0.044417594 0.09282447 -0.013055131

a2c_network.mu.weight f4 [6, 128]
00000000: ddf0 15bc 4ef9 273c 6fff 843d 12b5 873c
00000010: b338 e23c 1029 d43d 13cf 283c 646b ccbc
00000020: 16a2 89bd 6f88 e7bc 12c6 863c b11c 77bd
00000030: 3397 8b3c 1237 443d 1a36 e43b 0484 42bc
00000040: c4f5 323d b847 853d d967 133e 8f1c f7bb
00000050: 3d43 1bbd 1f88 4bbd 0fef c13c 8ab6 9dbb
00000060: 8e5b e33c 69bd c83d ead3 17bb bbad adbb
00000070: 066a 5abd a9a1 963d 8cc5 febd 6c4d 3f3b
00000080: d66b 053d 1b89 11be 99d9 613c 9492 863d
00000090: 7b2f 1b3e 1928 b9bc 160e 71bc b217 573e
000000a0: fe67 13bd e7b1 b3bc ca93 afbc 81dd 7a3d
000000b0: ee06 973d 158d 9a3d 5e5c ecbc 5031 07bd
000000c0: c5fc 633c 9cdd d63d 5b8b 8abd 2817 913c
000000d0: 6ccc 593d 2258 aa3d d4d4 9dbd 248e 133c
000000e0: ba47 27bd 6f7c e5bc ab93 64bc 17bf a13d
000000f0: d0e6 c2bd 7d2b 87bd 7b64 2abb b3d6 013c
00000100: 4b7a 6b3c 4b27 883c 36ba d5bd a18e d7bc
00000110: 7327 3e3b 31a2 1d3d e018 55bb acf5 8b3a
00000120: 3a0b a8ba 32da 1cbe 9429 a5bd 030f 1ebc
00000130: 62a5 353c 9b87 8ebd e6ea 7cbd 1bea 1c3d
00000140: 967f 70bc 26d5 2e3c bcb0 ecbc d26c e33c
00000150: 4112 00bd 4cda 98bd 5abe 903d f8e5 64bc
00000160: 8310 4cbd a09c 263d b526 e93b 955a 5fbd
00000170: fc08 1abe 4c97 7cbb 50a2 ed3d e0fd 2c3e
00000180: 87c1 f3bd 2085 e6ba fa04 f53c 4723 3abe
00000190: 87c0 453d df9a b23c 1bc5 0c3d 1e6c 7dbd
000001a0: 4ba9 f7bd a0df e33c d5c6 6cbd 6524 9c3c
000001b0: 1142 9abd f9fd a43c 45ad abbd d1cd 71bc
000001c0: b808 18bd 355b 863d 20c8 1e3a c4a4 7c3c
000001d0: 495a 8fbd 7631 c6bd df2e 083c c1dd 2b3d
000001e0: a94d ab3d eace c03d a805 2fbd 18c4 1439
000001f0: a1f3 283d 3e8b 2dbd 5239 923d 65f6 9a3c
00000200: 80ca 1cbe 5ca1 8bbc f757 c8bb 3630 0b3e
00000210: 67cf 34bd a11c 06bd ac73 9dbd 1688 59bd
00000220: a734 48be 7dd4 12bd c7ae 8c3d 8d83 043c
00000230: 1d1a 8e3b 7e8e 353d 09ff 28bd 82c2 943d
00000240: 8424 cabc f075 6e3d 11fe 733c 602e 673d
00000250: 1df3 e03c b01e 86bd 72b3 b03d 332c abba
00000260: 1389 4bbd e299 c1bd d712 28be 9f14 9b3c
00000270: d420 07be 4d8f 8e3c 93f4 253c 3e6d 0a3d
00000280: 6ed3 4d3c 2cda bd3c 37fc 69bc cc35 2dbd
00000290: 3788 b8bb ca9e 61bd bed9 683c 560a 03be
000002a0: 6882 d43b bf7a d1bd a72c 39bd 33e7 d33c
000002b0: 5621 a13c 0d30 d8bd a568 353d e419 373c
000002c0: 8ab0 fe3c 8699 efbd 6742 99bd e1d3 69bd
000002d0: 0fc5 b13c b08b ffbd 290d 00be 2f57 f4bd
000002e0: 8250 4abd 2f56 733c e564 7a3d 4571 f5bb
000002f0: b1d2 17bb f225 47bd cefd 543b 3636 39bd
00000300: bde7 12bd 20fd 043d f08b b13b c2b8 b7bd
00000310: 0470 af3c 1ce0 46bd 1a9c 30bc d56a 8fbd
00000320: 7fcf 963c 3bcf f63d eb4c 1dbd 73ef 7c3d
00000330: 83d0 113e 600b 743c 21af c53b 8160 903c
00000340: 4b4b 883d c21b 1fbc 7961 883d 3f98 d2bd
00000350: 1aab 783d 3fb0 7dbc 0e02 7ebd 9d98 993d
00000360: 89a5 033e 0af3 70bd 0266 1cbc 793e 8b3d
00000370: 9e5d a93d add2 45bd 4827 20bc 3e6a b6bd
00000380: feb6 9a3d cfb1 f63c e6aa b0bc 8372 ef3d
00000390: 3cee 69bd 2a92 70bd 244e 803d d04b b4bb
000003a0: d87c 343e 6f9f 163e 9282 37bd b443 dd3d
000003b0: baf8 593c 2b00 b9bd c43e 25bc 4312 f1bc
000003c0: 7ebd ee3d 46e3 36bd a1e0 a0bc 9c29 ec3c
000003d0: de35 593d a72a 6ebd 106b cabc 5dc5 84bd
000003e0: e22a 7bbd c35f 0239 7619 94bc 0548 cfbd
000003f0: 074d 25bd cc9a ab3d 4327 2c3c 7a93 3ebb
-0.009151665 0.01025231 0.064940326 0.016565833 0.027614927 0.103593946 0.010303277 -0.024953552
-0.067203686 -0.028263299 0.01645187 -0.060330097 0.01703987 0.04790408 0.006964457 -0.011872295
0.04369141 0.0650782 0.14395083 -0.0075412462 -0.03790592 -0.049690362 0.023673562 -0.00481302
0.027753618 0.09801752 -0.0023167082 -0.0053002513 -0.053323768 0.07355053 -0.12440023 0.0029190434
0.032573543 -0.14212458 0.0137847895 0.06570926 0.15154831 -0.022602128 -0.014712831 0.21005133
-0.035987847 -0.021935416 -0.021432776 0.0612464 0.073743686 0.075464405 -0.028852638 -0.033006012
0.013915245 0.104914874 -0.06764861 0.017711237 0.053173468 0.08317591 -0.07706609 0.009006057
-0.04083989 -0.028013436 -0.013951222 0.078977756 -0.0951668 -0.066000916 -0.0025999832 0.007924723
0.014372419 0.016620299 -0.104359075 -0.026313128 0.0029015213 0.038484756 -0.0032516047 0.0010678074
-0.0012820729 -0.1531761 -0.08064571 -0.009647134 0.011086794 -0.069594584 -0.061747454 0.038309198
-0.014678856 0.010670936 -0.028892867 0.02776185 -0.03126741 -0.07463512 0.07067557 -0.013970844
-0.049820434 0.040676713 0.00711521 -0.054529745 -0.1504249 -0.0038542328 0.11603224 0.1689372
-0.11902147 -0.0017587282 0.0299096 -0.1817752 0.04827931 0.021802364 0.034367662 -0.061870687
-0.12092837 0.027816594 -0.05780681 0.019060323 -0.075321324 0.020140635 -0.08382658 -0.014758543
-0.03711769 0.06560365 0.00060570426 0.015420143 -0.069996424 -0.09677403 0.008311956 0.041959528
0.08364422 0.09414466 -0.042730004 0.0001418743 0.041247968 -0.04236912 0.07139839 0.018916318
-0.15311623 -0.017044716 -0.006114002 0.1359261 -0.044143107 -0.032742146 -0.07688078 -0.053108297
-0.19551335 -0.035847176 0.06869274 0.008088005 0.004336609 0.044325344 -0.041258845 0.07263662
-0.024675615 0.058217943 0.014892117 0.05644071 0.027459675 -0.06548822 0.086279765 -0.0013059437
-0.04969127 -0.09453179 -0.16413437 0.018930731 -0.13196117 0.017402316 0.010129112 0.033795588
0.012562616 0.023175322 -0.014281324 -0.042287633 -0.0056314724 -0.055083074 0.01421207 -0.12796912
0.006485272 -0.1022849 -0.0452086 0.02586708 0.019669216 -0.1055604 0.04428925 0.011175606
0.03109004 -0.11699204 -0.07483368 -0.05708683 0.02170041 -0.12477815 -0.1250502 -0.119306915
-0.049393184 0.014852091 0.061131377 -0.0074903094 -0.0023166353 -0.04862017 0.0032499912 -0.045217715
-0.035865534 0.03246796 0.005418293 -0.08970787 0.021415718 -0.04855357 -0.010779405 -0.070027985
0.018409489 0.12051245 -0.038403433 0.061751794 0.14239697 0.01489529 0.00603284 0.017624142
0.06654986 -0.009711208 0.066592164 -0.10282945 0.06071005 -0.015483915 -0.06201368 0.07499812
0.12856115 -0.05882553 -0.009545805 0.06799025 0.08269809 -0.04829662 -0.00977499 -0.08906983
0.07554434 0.030114083 -0.021565866 0.11691763 -0.057111964 -0.058733143 0.06264904 -0.0055022016
0.17625749 0.14709257 -0.044802256 0.10803929 0.01330393 -0.09033235 -0.010085765 -0.029427653
0.116572365 -0.04465034 -0.019638361 0.028828435 0.053029887 -0.058146145 -0.024709255 -0.064829566
-0.061320193 0.0001243344 -0.018078547 -0.101211585 -0.040356662 0.083791345 0.010507408 -0.0029079602

a2c_network.mu.bias f4 [6]
00000000: 5777 57bb ddfc 02be 7df4 a23d a06b c5bd
00000010: 5211 f5bd 5fd2 983d
-0.0032877529 -0.12791772 0.07956789 -0.096396685 -0.11966194 0.07462

exp_avg f4 [6]
00000000: 4437 18ba ba89 313a 804a 533b ad4e dbb8
00000010: 42db 4e3a 7688 723a
-0.0005806575 0.0006772537 0.003224045 -0.00010457388 0.00078909483 0.00092519016

exp_avg_sq f4 [6]
00000000: 6cb0 5838 50a3 5a38 9663 3838 201e 7438
00000010: d7b8 7e38 7017 5a38
5.166272e-05 5.2127347e-05 4.3961765e-05 5.820219e-05 6.0730465e-05 5.1997078e-05

exp_avg f4 [128, 30]
00000000: 9a24 6cba aba9 e43a 0593 36ba 398e 013a
00000010: d475 52b9 3d45 3fba 4da2 53ba 2050 1bbb
00000020: 7823 af3a 017c 023b 310c d0ba a5e6 4cba
00000030: bcef 6b3a f559 7fba 5ef3 62ba 6807 093b
00000040: 7c8e 87b9 0d5d aa38 c53f 87ba 7a33 573a
00000050: 58d8 d0b9 7cb1 85ba da21 9a39 ec8d daba
00000060: d1e0 f7b9 75c7 f739 f483 533a 38da 24ba
00000070: 1c83 b53a 0153 7dba bcb8 b13a 9dad 82ba
00000080: 3b53 24b9 5140 053a 2044 bc3a 6cde 783a
00000090: 505c a93a 8ccd ea3a 4f1d f9b9 2538 78ba
000000a0: 7dfd 0c39 b5e7 98b9 a37f 12bb e64c d839
000000b0: eb19 f9ba 6d86 3cba ef83 d2ba 8ce8 5eba
000000c0: 70c7 e33a 65b4 9a3a d3c4 24bb ceb2 373a
000000d0: 82e3 4cb9 1778 1fb9 dc3d 193a cfbc e0b9
000000e0: 4f18 49ba 7503 ccb7 40e9 bbb9 2ad7 beb8
000000f0: a7c1 2c3a 1e92 41ba cb8a bb39 82f0 193a
00000100: 938f b9b9 1dd8 213b dbd3 5439 c46f 02ba
00000110: f158 73b9 9b9b 263a 21c6 383a d01c f037
00000120: 02d8 5436 4776 863a 9f7b 18ba b8f8 5cb9
00000130: d1c7 973a cc5f a0ba 7a3c b939 f994 0537
00000140: 8882 5bba d226 d4b9 c818 e1ba 8360 a1ba
00000150: 96b6 3c3a bb1e 193a 527b 3939 72b3 c3ba
00000160: 1a06 67b8 5d48 09bb 7489 cc39 221e 02ba
00000170: 8b6c 8a39 4991 f439 26c0 e939 9bd7 0f3a
00000180: 5640 f1b6 2d61 3c3a 0d09 d739 0076 3fba
00000190: 9a17 0bba c9f5 23ba d439 b4b7 0463 61ba
000001a0: 16af e838 4642 f637 1c72 5eba 47dd 1b3a
000001b0: 3e64 63b8 1790 eb39 80d3 4fba 44be 2cb9
000001c0: 27c8 003a ec17 83b9 1f6f d0b9 6b30 2fba
000001d0: a6c6 1aba c3f3 57b9 1658 8ab9 7656 a839
000001e0: fc32 e438 9674 8fba 38ef 183a 7670 07ba
000001f0: d3e5 9f37 83f2 d839 3548 d539 4bfe b138
00000200: 9b80 5dba b191 afb8 b4b9 a53a 379b 4c3a
00000210: a4d6 9539 6e85 0c3a d811 9d39 208d 9439
00000220: a229 3c39 3b4c 9d39 f69b 4339 b05b 54ba
00000230: 8a51 b6b9 0d03 5e37 1303 f7b9 3392 8a37
00000240: b162 ee39 f640 d2b8 7392 82ba fc47 2db9
00000250: f54d 053a 30db 9838 a853 3fb9 afc9 3bba
00000260: ba6f 34ba ef60 10b9 115c 0839 33d8 353a
00000270: 9d63 76ba d14c 6cb9 6020 c039 300d 46ba
00000280: db8b 10ba 3761 9db8 f21a 8539 17ae 01ba
00000290: fb35 2fba e100 0bb8 ce50 0d3a 6751 ba38
000002a0: 0fa2 fcb9 690c eb38 24fa 26ba 07eb e7b9
000002b0: cf05 99ba ebcc 2fb9 77d7 09b9 98fc 3439
000002c0: ad65 d2b9 a761 4039 296c 9db9 f0ed 92b8
000002d0: 926b 583a 25d9 4dba 0909 cbb7 7c90 7fb9
000002e0: e59b 0aba eaf9 f2b6 4b14 983a 343a 303a
000002f0: 5e09 8cb9 c896 73ba 2a0b 793a cbd3 f13a
00000300: 0098 073a 0cc4 f33a cf1e 80ba bf41 0d3a
00000310: 6b79 863a e83b 2dba 80d3 353a e64e beba
00000320: 6b52 0d3b 9ba1 8239 289c f1ba 8d66 d3b9
00000330: e403 a73a 93ec cb3a aaa3 023b defe 263a
00000340: afe4 bd38 d255 b0ba 33eb ef38 25b3 d53a
00000350: 6556 0439 529b 3d39 c671 5d39 cbff 25b9
00000360: 6481 73ba e3f0 533a 77e3 e9b9 fb6a 0fba
00000370: 069a 25b9 c77c 6d39 5867 48ba 7000 0aba
00000380: 2cde b3b9 a644 64b9 051a 5ab8 fe29 12ba
00000390: f2fa 8cb9 0b21 ab39 a816 70ba da57 dab9
000003a0: da51 3bba 62cf 2eb9 fd63 62ba 0caf 03ba
000003b0: 3abb c8b9 a060 46b9 eea8 c2b9 c09f 46b9
000003c0: df9f 8638 371b 37ba 5c99 663a 2c90 12ba
000003d0: c4c1 aeba 1cad 8fba b7e8 5139 67dc 3b3a
000003e0: 6fad b53a ef0b 4ab9 2bd9 a0ba 247d 1ab6
000003f0: f1f2 aab9 e2c2 cdba 0330 97ba 358d ce3a
-0.00090081396 0.0017445585 -0.00069646566 0.00049421523 -0.00020071055 -0.0007296389 -0.0008073196 -0.0023698881
0.0013362011 0.0019910338 -0.0015872774 -0.0007816351 0.0009000262 -0.00097408827 -0.00086574804 0.0020908955
-0.00025855366 8.123564e-05 -0.0010318687 0.000820927 -0.0003983404 -0.0010199989 0.0002939839 -0.0016674376
-0.00047279013 0.00047260118 0.0008068674 -0.00062886206 0.0013848278 -0.00096635526 0.0013559083 -0.0009969954
-0.00015671265 0.0005083131 0.0014363565 0.00094935927 0.0012921188 0.0017914041 -0.00047514818 -0.00094688154
0.00013445872 -0.00029164334 -0.002235391 0.00041256024 -0.0019004917 -0.0007191662 -0.0016061048 -0.000850328
0.0017378163 0.0011803029 -0.002514173 0.000700754 -0.0001953971 -0.00015208159 0.00058457046 -0.00042865283
-0.0007671164 -2.4320305e-05 -0.00035841204 -9.0999834e-05 0.0006590136 -0.0007384139 0.00035770828 0.0005872325
-0.0003539292 0.0024695464 0.00020296818 -0.0004975761 -0.00023207419 0.00063555845 0.00070485665 2.8623646e-05
3.1716195e-06 0.0010258638 -0.0005816761 -0.0002107349 0.0011579936 -0.0012235581 0.00035331008 7.962103e-06
-0.00083736377 -0.00040464714 -0.0017173523 -0.0012312088 0.0007198838 0.0005841066 0.00017688915 -0.0014930798
-5.5080374e-05 -0.0020947673 0.00039012323 -0.00049635966 0.00026402282 0.00046647553 0.00044584385 0.0005487145
-7.1898494e-06 0.0007186111 0.0004101474 -0.0007303655 -0.0005305946 -0.00062545814 -2.14846e-05 -0.00085978233
0.000110952344 2.9356346e-05 -0.00084856316 0.00059457537 -5.4214375e-05 0.00044930048 -0.00079279393 -0.00016474078
0.00049126375 -0.0002500409 -0.00039755643 -0.0006682935 -0.0005904235 -0.00020594806 -0.0002638704 0.00032107875
0.00010881384 -0.001094478 0.0005833986 -0.00051665993 1.9061297e-05 0.00041379416 0.00040680324 8.4873835e-05
-0.00084496447 -8.3717874e-05 0.0012643845 0.0007805111 0.00028579414 0.0005360459 0.00029958668 0.00028333906
0.00017944587 0.0003000217 0.00018654749 -0.00081008207 -0.00034774496 1.32329415e-05 -0.00047113802 1.6518961e-05
0.00045468428 -0.0001002568 -0.0009961858 -0.00016525382 0.0005085164 7.288752e-05 -0.00018246344 -0.0007163537
-0.00068831036 -0.00013769021 0.00013004268 0.0006936818 -0.0009398999 -0.0002253533 0.00036645215 -0.00075550657
-0.0005514004 -7.504451e-05 0.00025387813 -0.0004946901 -0.0006683764 -3.3141e-05 0.0005390764 8.8843335e-05
-0.0004818593 0.00011207985 -0.00063696713 -0.00044234862 -0.0011674705 -0.00016765638 -0.00013145605 0.00017260236
-0.00040130076 0.00018346925 -0.0003002596 -7.006142e-05 0.00082557753 -0.00078524865 -2.4203693e-05 -0.0002437252
-0.00052875123 -7.241256e-06 0.0011602727 0.000672254 -0.0002670986 -0.00092921825 0.000950026 0.001844996
0.0005172491 0.0018597855 -0.0009774807 0.000538852 0.0010259574 -0.0006608353 0.0006936118 -0.0014519363
0.0021564018 0.00024915938 -0.0018433379 -0.00040321462 0.0012742248 0.0015558176 0.0019933977 0.00063703756
9.054818e-05 -0.0013453311 0.00011440217 0.0016304 0.00012620685 0.00018082306 0.00021118586 -0.00015830917
-0.0009288995 0.0008084906 -0.00044610698 -0.00054709584 -0.00015793004 0.00022648564 -0.0007644794 -0.00052643474
-0.00034307071 -0.00021769348 -5.1999483e-05 -0.00055757153 -0.0002688985 0.0003264028 -0.00091586495 -0.00041645655
-0.0007145681 -0.00016671189 -0.0008636115 -0.00050233374 -0.00038286467 -0.00018918747 -0.00037128426 -0.00018942263
6.419396e-05 -0.00069849513 0.0008796656 -0.00055909413 -0.0013332893 -0.0010961625 0.00020018486 0.00071663264
0.0013860891 -0.00019268667 -0.0012271752 -2.302063e-06 -0.00032605932 -0.0015698338 -0.0011534694 0.0015758636

exp_avg_sq f4 [128, 30]
00000000: 2a46 a837 ee07 be37 6362 bd37 6801 af37
00000010: 41c3 d737 eba5 8137 6b38 df37 7b23 c037
00000020: 359e 0038 2a25 b537 c486 eb37 56a8 c037
00000030: 8ae6 e237 7f26 0638 964f b837 721d b837
00000040: 91a7 d437 8b0b a737 7dc4 e237 654c 9f37
00000050: 6231 0637 4a16 d237 0c1d 3d37 da77 7d37
00000060: c185 c537 a7fa 9937 dd36 1937 92bb a637
00000070: 036c 3b37 7155 bf37 b5b4 8d37 626d 3338
00000080: 9014 3338 2162 cd37 ed9a 3738 f7d8 2738
00000090: 9008 8338 fe59 0a38 beba 7138 9eda 0238
000000a0: df31 5938 1f10 1f38 05e5 8138 7c7c 4838
000000b0: 836e f837 eadd 2c38 a692 5b38 8732 5c38
000000c0: 14be 8838 4c27 2238 579f b337 a288 9438
000000d0: 501e c337 0603 0c38 9420 8438 265f 2d38
000000e0: 5c1b d837 e373 8738 d675 d637 42bb 8f38
000000f0: 0e91 6e37 099f 1238 0d03 0c38 a618 b437
00000100: b215 1538 1fcb 0d38 847e 3b38 dfb9 8e37
00000110: b8b1 f637 aa5c 8837 47b0 d937 50e2 ac37
00000120: 9e13 3e38 2207 0138 df38 8237 9a7d 2d38
00000130: 5238 0038 afeb 2938 d0c2 4a38 216c 1038
00000140: 2733 7937 6963 4d38 2873 b937 1417 0c38
00000150: 146b 3b38 4614 f637 0940 a837 654c 4538
00000160: 6149 bb37 e7bc 5738 a34e 7536 3a23 0337
00000170: d74b 7e36 6708 b436 b961 d736 6402 bf36
00000180: 74ae bb36 d470 4436 e757 ce36 7feb 2e36
00000190: 3ef1 9a36 30fe 7236 f014 cd36 2951 b536
000001a0: a129 8236 0e33 cb36 e9d3 8436 32f4 d136
000001b0: 16d4 d736 e66c a536 b0a4 3d36 252f c236
000001c0: 717c 9a36 9e75 7a36 567f c236 1a4c a336
000001d0: 751f 4f36 1474 b036 5c83 8736 beb0 c436
000001e0: 01c0 4137 04a4 0338 8ad7 cf37 30d3 8537
000001f0: 1570 c137 fca0 9e37 4c33 f737 6c03 5537
00000200: 57d4 cd37 a72b 4b37 4727 af37 2bbc 8837
00000210: 39c7 fb37 2ac7 b837 b348 4937 88ef ce37
00000220: 280e a237 5130 f337 b784 fb37 8452 c537
00000230: 0827 2e37 ae53 0138 ad5a 6137 816b 9a37
00000240: bd60 ee37 2c4b 9b37 6528 5637 d327 f837
00000250: 8937 7937 0c7a fc37 a956 f436 d2d6 9f37
00000260: d147 a537 e47c 3b37 8ed7 9437 ddf2 7b37
00000270: 07d2 c237 37f7 5f37 01f8 8c37 2e40 4e37
00000280: 2221 7537 52db 6e37 a687 9237 047e 5137
00000290: 934b 0437 db91 8a37 d71e 6437 ab37 b437
000002a0: f209 d637 2536 9537 c91b 1537 b518 d437
000002b0: 9001 2337 77a9 6a37 ec53 c137 ad8e 8c37
000002c0: c50e 2937 c823 c437 0c4c 3137 26e8 b937
000002d0: 112a 5a37 c782 e237 69f5 d637 2bca c037
000002e0: f044 fc37 9924 dd37 b8e7 1138 146e 9237
000002f0: 4fd5 1638 511a 8a37 ab7c 0438 1412 b537
00000300: 2c4e 1b38 274e 0738 6907 5f37 8aaf ed37
00000310: 550a eb37 fa43 1238 51fc 2738 fc1d ed37
00000320: 323f a637 9255 1938 7afd ad37 5b18 a237
00000330: 53c0 1038 143b e837 e64c ab37 453f 0b38
00000340: 1071 9c37 ffee 1e38 5630 b636 f13f 9937
00000350: fc68 1937 ad29 8037 7f6a 3437 9812 2b37
00000360: 2b5d 6b37 4ccb e236 7159 8537 d6b7 c736
00000370: c41a 4737 253f 2137 8af5 8637 3622 3737
00000380: 555e 9e36 c8fc 8c37 6959 1137 6d73 0737
00000390: f7a6 5f37 0542 1937 f8a8 af36 69c0 8737
000003a0: 9e17 b136 6ccb 5837 2d68 6237 f400 1737
000003b0: b77e 0337 dd0a 7c37 9fa6 ef36 ea27 8737
000003c0: f495 3737 06cd 4a38 01ec 3438 310c 7337
000003d0: 56e2 2038 e74b 1638 a6e7 7c38 3f06 8137
000003e0: 7698 bd37 11c5 7c37 6dc4 a937 b432 9c37
000003f0: 075d 4738 823b e137 0429 7437 c989 3838
2.0059833e-05 2.2653458e-05 2.257637e-05 2.086228e-05 2.572092e-05 1.545526e-05 2.6609943e-05 2.2904705e-05
3.066492e-05 2.1594187e-05 2.8076938e-05 2.2966571e-05 2.7048653e-05 3.1983942e-05 2.197157e-05 2.194822e-05
2.5350399e-05 1.9913326e-05 2.7032796e-05 1.8989851e-05 7.99852e-06 2.504433e-05 1.1272041e-05 1.510788e-05
2.3546514e-05 1.835574e-05 9.1322845e-06 1.9876086e-05 1.1171217e-05 2.2808761e-05 1.6892658e-05 4.2778796e-05
4.2696076e-05 2.44836e-05 4.3774886e-05 4.0017967e-05 6.248162e-05 3.2985576e-05 5.7632795e-05 3.119802e-05
5.1783278e-05 3.7923568e-05 6.1938576e-05 4.779965e-05 2.9615365e-05 4.121467e-05 5.2350246e-05 5.2499145e-05
6.52039e-05 3.8660408e-05 2.1412661e-05 7.08264e-05 2.3259927e-05 3.3381417e-05 6.300319e-05 4.1335028e-05
2.5761947e-05 6.458887e-05 2.556566e-05 6.853651e-05 1.4219679e-05 3.4957226e-05 3.3381442e-05 2.146915e-05
3.5544574e-05 3.380619e-05 4.47021e-05 1.7014272e-05 2.9408242e-05 1.6255613e-05 2.5950501e-05 2.0609383e-05
4.53178e-05 3.076264e-05 1.552369e-05 4.136339e-05 3.057003e-05 4.0512237e-05 4.8341986e-05 3.443298e-05
1.4853466e-05 4.896839e-05 2.2107342e-05 3.3400094e-05 4.4684e-05 2.9334926e-05 2.005698e-05 4.7039608e-05
2.2326307e-05 5.1435924e-05 3.6553618e-06 7.81641e-06 3.7893094e-06 5.365396e-06 6.4188757e-06 5.692522e-06
5.5933433e-06 2.927195e-06 6.1495116e-06 2.6065097e-06 4.617642e-06 3.6208767e-06 6.1119135e-06 5.4036686e-06
3.879148e-06 6.055815e-06 3.958576e-06 6.2571135e-06 6.4321894e-06 4.9300606e-06 2.8259055e-06 5.787139e-06
4.6040445e-06 3.7321365e-06 5.7964744e-06 4.866638e-06 3.0863714e-06 5.258722e-06 4.0386058e-06 5.8618307e-06
1.1548401e-05 3.1385585e-05 2.4776691e-05 1.5953177e-05 2.3059585e-05 1.8910032e-05 2.9468581e-05 1.2696586e-05
2.4536783e-05 1.21099065e-05 2.0879916e-05 1.6300086e-05 3.0014302e-05 2.2027252e-05 1.199746e-05 2.4668654e-05
1.9318497e-05 2.8990356e-05 2.9983332e-05 2.3522654e-05 1.0380296e-05 3.083393e-05 1.3432157e-05 1.8408291e-05
2.8416858e-05 1.8512445e-05 1.2764799e-05 2.9582448e-05 1.4854487e-05 3.0097573e-05 7.2818552e-06 1.905431e-05
1.9702975e-05 1.1175147e-05 1.774335e-05 1.5017312e-05 2.3224404e-05 1.3349395e-05 1.6804786e-05 1.22935e-05
1.4610852e-05 1.423697e-05 1.7467723e-05 1.2486711e-05 7.885409e-06 1.6518801e-05 1.35970395e-05 2.1483595e-05
2.551542e-05 1.7787397e-05 8.887561e-06 2.5283874e-05 9.715921e-06 1.39869435e-05 2.3046472e-05 1.675574e-05
1.0076624e-05 2.3381683e-05 1.0567728e-05 2.2161821e-05 1.3003607e-05 2.7002197e-05 2.5625066e-05 2.2982325e-05
3.0072842e-05 2.6362295e-05 3.47865e-05 1.7455815e-05 3.5961446e-05 1.6463136e-05 3.158736e-05 2.15853e-05
3.7027683e-05 3.2259293e-05 1.3293561e-05 2.8334343e-05 2.8018994e-05 3.487242e-05 4.005089e-05 2.8266564e-05
1.981817e-05 3.6557736e-05 2.0741241e-05 1.9323246e-05 3.451139e-05 2.7684066e-05 2.0420597e-05 3.3199107e-05
1.8649298e-05 3.7892718e-05 5.4296497e-06 1.8268796e-05 9.143954e-06 1.5278196e-05 1.0753632e-05 1.0196723e-05
1.4028784e-05 6.7589917e-06 1.5896485e-05 5.9520635e-06 1.1867556e-05 9.61105e-06 1.6088383e-05 1.0915615e-05
4.7197486e-06 1.6807011e-05 8.663491e-06 8.073502e-06 1.333071e-05 9.134882e-06 5.235077e-06 1.6182852e-05
5.2777605e-06 1.2921966e-05 1.3494905e-05 9.000523e-06 7.837712e-06 1.50229e-05 7.1421523e-06 1.611184e-05
1.0942564e-05 4.8351496e-05 4.313514e-05 1.4486767e-05 3.8357764e-05 3.5833476e-05 6.029722e-05 1.5380907e-05
2.260155e-05 1.5066254e-05 2.0237838e-05 1.862026e-05 4.7531936e-05 2.68498e-05 1.4553083e-05 4.399734e-05

exp_avg f4 [128]
00000000: af2d 30ba 72d7 b1ba 3e59 93ba 6e53 3539
00000010: 2cc7 cdb7 92db 803a 76ae 7cb9 85c0 c1b9
00000020: 25af 3539 4c08 39b9 9a97 96ba b5e9 efb8
00000030: 2ca5 1cb9 767c 953a 5f5c 08ba 0304 f3b9
00000040: 540b baba 777d 873a 54b0 493a da59 03ba
00000050: 5615 b938 e2f0 c83a c8a2 fbb8 c2ae 20b9
00000060: 940b f0b9 831d 8dba efe3 ba38 27a4 e038
00000070: 15a7 8538 632b 403a b007 3fb9 18e0 fb39
00000080: c001 28b8 35fc a237 7d97 313a 5eb2 1eba
00000090: 983a 213a 6103 f838 e229 3b3a c70b 983a
000000a0: f7d8 1b3a fba2 26ba d98d b63a 87b8 2c3a
000000b0: be8f 463a c060 e3b9 536b 17ba 7de2 ab37
000000c0: 71c9 04ba 1999 b53a d8e2 f739 6ce1 b839
000000d0: 654a 5039 e7f7 913a 49d0 8c3a 3d84 6d3a
000000e0: 39e8 e939 8960 103a 53d7 38ba 5346 8239
000000f0: eddd 44b8 f688 af39 0e41 5c39 f438 da39
00000100: 2321 cb39 afbf 053a d060 01ba 403f 8fb9
00000110: 2b7c b5b9 7c21 bbb9 4b1b c93a 8056 b139
00000120: dd9d 473a 38f2 64b7 2c9e 93ba 99ac d0b9
00000130: 6597 883a 55dd 9b3a 2d42 91ba 152e 47ba
00000140: 36e3 7638 7194 7d3a e0e1 493a 23f1 e7b9
00000150: 633f 18b9 14b2 453a a54a 95b9 469a 94ba
00000160: ce40 bd39 4d10 0538 31ed ed39 eb10 5939
00000170: eb85 94b9 2f77 203a 4aab 9bb9 30d8 73ba
00000180: 663e 113a b16d a03a c511 90ba 309c d3b8
00000190: 6d58 2eba 187f ec38 e64e 7539 4d67 e739
000001a0: 84f3 033b 1e0a 43ba fae6 2bba 2937 e639
000001b0: af77 d639 6714 58b9 4741 15b8 ff5f 08ba
000001c0: 9f60 2a38 7b84 ae39 bb4e 3bb9 820a d2b8
000001d0: f0fd 043a 7553 3538 d0f7 4539 f20a 4eb9
000001e0: b9a3 623a 3aa6 2dba b18e a9ba 7523 813a
000001f0: 6695 05ba c596 c6b9 b1ec ce39 de0d e338
-0.00067206746 -0.0013568236 -0.0011241806 0.00017292585 -2.4530651e-05 0.0009831062 -0.00024097585 -0.00036955267
0.00017326752 -0.00017646066 -0.0011489273 -0.000114399394 -0.0001493885 0.001140489 -0.00052017526 -0.0004635156
-0.001419405 0.0010337074 0.00076938164 -0.00050106423 8.8254616e-05 0.0015330578 -0.00011998933 -0.00015323891
-0.00045784994 -0.0010766241 8.911627e-05 0.00010711728 6.373056e-05 0.0007330684 -0.00018218043 0.00048041414
-4.005595e-05 1.9429348e-05 0.00067745877 -0.00060538005 0.0006150394 0.00011826191 0.0007139725 0.001160019
0.0005945111 -0.00063566834 0.0013927772 0.0006588776 0.000757452 -0.00043368898 -0.00057761854 2.0490255e-05
-0.00050654175 0.0013854831 0.00047280523 0.00035263167 0.0001986414 0.0011136503 0.0010743226 0.00090605376
0.00044614243 0.0005507549 -0.0007051129 0.00024847928 -4.6936726e-05 0.00033480645 0.0002100507 0.00041622634
0.00038743866 0.00051021104 -0.00049353857 -0.0002732221 -0.00034615523 -0.00035692367 0.0015343217 0.00033824518
0.0007614771 -1.3646255e-05 -0.0011262349 -0.00039801447 0.0010421096 0.0011891524 -0.0011082344 -0.00075981143
5.8862577e-05 0.00096733036 0.00077011995 -0.00044239414 -0.00014519463 0.00075414893 -0.0002847511 -0.0011337481
0.00036097172 3.1724852e-05 0.00045380884 0.00020701035 -0.00028328536 0.00061212754 -0.00029691524 -0.0009301929
0.0005540609 0.0012239722 -0.0010991624 -0.00010090356 -0.000665075 0.0001127703 0.00023394413 0.00044136718
0.002013416 -0.0007440167 -0.00065575505 0.00043910116 0.00040906432 -0.00020606966 -3.5585163e-05 -0.0005202293
4.0621144e-05 0.00033286572 -0.00017863039 -0.000100155376 0.000507324 4.323149e-05 0.00018879701 -0.00019649768
0.00086456124 -0.0006624196 -0.0012936202 0.0009852486 -0.00050958095 -0.00037877835 0.0003946773 0.000108267865
