training/runs/WalkBot/nn/last_WalkBot_ep_100_rew_2.7443466.pth (torch, 267394 bytes, 30 tensors)

running_mean f8 [30]
0	0x3fc7a15920f24f03	0.18461145504681306
1	0xbfbf7beb1dfc5e71	-0.12298459512782657
2	0xbfb848f6d930bb40	-0.09486334612368541
3	0xbfd28c1d921524f9	-0.2898019720638128
4	0xbfe096f79a186771	-0.5184286126779921
5	0xbfd398ba65129db8	-0.30619678373701786
6	0x3fa7d32b6a3f90d8	0.04653297111488691
7	0x4010bec1cbb1431b	4.186286146826002
8	0x3ff94ebdb640a9b2	1.5817238921396037
9	0xc011d7ce29ae941b	-4.460747386246136
10	0x3f876604ccc7a1ad	0.011425054072746155
11	0x3f9379a86957ea83	0.019018775396015385
12	0xbfae8eda6d73936e	-0.05968363367154593
13	0xbfdaf9ccca245a28	-0.4214965795557952
14	0x3fd648fdd7c00583	0.3482050520834365
15	0x3fb55575d443f11a	0.08333527023564039
16	0xbfd36bbca8a9a22e	-0.30345074149093676
17	0x3fd878d726b62b25	0.38237551479748993
18	0xbfb829a04e3946e8	-0.09438516530760988
19	0xbf9749637ffc71f5	-0.022740893065121132
20	0x3fb7fac5a8698b1d	0.09367022859218506
21	0x3f9cef0499b097fc	0.028255531197054026
22	0xbf97511aa3c9f93e	-0.022770324942478874
23	0xbfaab8dffd080012	-0.05219173396835698
24	0x3f8bae3e0bb2945e	0.013515934688550665
25	0xbfb24433c5b2aea7	-0.07135318352328089
26	0x3fcad394660b50e5	0.2095818994772635
27	0xbf99dd23bdab299e	-0.025257643176510684
28	0xbfd0f23ac3e15517	-0.26478451851774437
29	0x3fa44721b1119539	0.039605191101865285

running_var f8 [30]
0	0x3f43e78567c3ddd8	0.0006074334519600667
1	0x3fa66a687043b40d	0.04378057833114477
2	0x3fbfc7391e069bbb	0.12413365347911924
3	0x3fb54358aa963de0	0.08305887379378118
4	0x402541a135807203	10.628183051995626
5	0x40146c051d4ceb90	5.105488260097346
6	0x402bc49e9a7f6d28	13.88402254872797
7	0x400980e1eb370fca	3.1879309059313288
8	0x3fb43218d7a0588c	0.07888942016902173
9	0x3ff7f78d92da8c05	1.4979377495262736
10	0x3fb65cff2d86c8a6	0.08735651837813183
11	0x3fb5108ca86fe08c	0.08228377449256835
12	0x3fb0a10c7dedc956	0.0649574096148958
13	0x3fbc66ed807ee032	0.11094555270290199
14	0x3fad1742d3649fd1	0.05681809263688787
15	0x3fab33d4d583575f	0.053129817069630596
16	0x3fa9ae53e9b2377c	0.05015814044700925
17	0x3fbfd74a9af050ca	0.12437883646663575
18	0x400820b2f196b580	3.015966308032773
19	0x40124c497b62c91b	4.574499061493294
20	0x40137f2f49551cc9	4.874203821010448
21	0x40068ec81d90e937	2.819717627510865
22	0x400693ec3c67cce0	2.8222279280831657
23	0x401279957ae1582a	4.618734283451014
24	0x3fe3d711fcd2d4c7	0.6200036943397657
25	0x3fe315d81b35ca88	0.5964165240714729
26	0x3fe24bc014ce6b4d	0.5717468649266749
27	0x3fe44ac844fdf95c	0.6341286990644153
28	0x3fdbd50e7d2ce010	0.43487894271993444
29	0x3fe4e42d01c046e8	0.6528534921837634

count f8 []
0	0x4159000040000000	6553601.0

running_mean f8 [1]
0	0x3fe48195c2a95e9c	0.640818481634557

running_var f8 [1]
0	0x3fdd7baf8143fac8	0.4606741678580133

count f8 []
0	0x4139000100000000	1638401.0

a2c_network.sigma f4 [6]
0	0xbf61c006	-0.8818363
1	0xbf5a04bf	-0.8516349
2	0xbe949592	-0.29020363
3	0xbf48eb4f	-0.7848405
4	0xbf68af94	-0.9089291
5	0xbf1395c9	-0.5765043

a2c_network.actor_mlp.0.weight f4 [128, 30]
0	0x3e4338b9	0.19064607
1	0xbee34028	-0.44384885
2	0x3dd7421a	0.10510655
3	0x3e26e463	0.1629806
4	0xbda6503b	-0.081207715
5	0x3e21ff1e	0.15819976
6	0x3e2b5e85	0.16735275
7	0xbad306f0	-0.001610009
8	0x3e2598bc	0.16171545
9	0x3d8a1d95	0.067439236
10	0xbd8eb333	-0.06967773
11	0xbbce3725	-0.006293195
12	0x3e966a7a	0.2937811
13	0x3e5f4761	0.21804573
14	0x3e309a18	0.17246282
15	0xbe8ab03d	-0.27087584
16	0x3d919408	0.07108313
17	0xbd7dba00	-0.06194496
18	0x3e27e2eb	0.16395156
19	0xbd6a78f2	-0.05724425
20	0xbe00ac72	-0.12565783
21	0xbd676b1a	-0.056498624
22	0xbd3861c1	-0.0450151
23	0x3e27ccfa	0.16386786
24	0x3e09b493	0.1344779
25	0x3c52556f	0.012837752
26	0x3d452fd0	0.0481413
27	0x3c1f46f0	0.009721503
28	0x3e57f297	0.21088634
29	0xbcc0b5a8	-0.02352412
30	0x3d06cfa0	0.03291285
31	0xbead5625	-0.33854786
32	0x3dd47a5e	0.10374902
33	0xbed5eea3	-0.41783628
34	0xbd86d74c	-0.06584033
35	0x3dfea224	0.124332696
36	0x3e3adf9b	0.18249361
37	0xbd30a169	-0.043122683
38	0xbe8ecf82	-0.2789269
39	0xbcc7a2af	-0.024369566
40	0x3e62075d	0.22073121
41	0x3def38b8	0.1168074
42	0x3e2f755e	0.17134616
43	0xbef251ea	-0.4732812
44	0xbe72af97	-0.23699795
45	0xbd721b89	-0.05910829
46	0xbeed7e1d	-0.4638528
47	0xbe8beb72	-0.27328068
48	0xbe68aa09	-0.22721113
49	0x3dee677d	0.116408326
50	0xbe09322a	-0.13398042
51	0xbe53ae37	-0.20671926
52	0x3e6f5351	0.23371626
53	0xbdc9da26	-0.09856062
54	0x3da1433d	0.07874153
55	0xbcd97048	-0.026542798
56	0xbbebcff1	-0.0071964194
57	0xbd87134e	-0.06595479
58	0xbd703546	-0.058644556
59	0x3e4f5e8d	0.20250912
60	0x3e02f3e1	0.12788345
61	0x3e2976d9	0.16549243
62	0x3d55c4d7	0.052189674
63	0x3de95c0d	0.113945104
64	0xbdfe8229	-0.1242717
65	0xbe3d1676	-0.184656
66	0x3e05a265	0.1305023
67	0xbe20ae49	-0.15691485
68	0xbc73c6a7	-0.014878905
69	0xbe51c50d	-0.20485325
70	0xbd279327	-0.04091182
71	0xbab9b5df	-0.0014168582
72	0xbcf222cd	-0.02955761
73	0xbe8bd655	-0.2731196
74	0xbdcdaf29	-0.10043175
75	0xbe1f9e87	-0.15587817
76	0xbe50ee1b	-0.2040333
77	0xbe548270	-0.20752883
78	0xbdc09b7b	-0.094046555
79	0xbe0070d0	-0.12543035
80	0x3e0d0562	0.13771585
81	0x3d678c77	0.056530442
82	0x3d4b1148	0.049577028
83	0xbdb8b476	-0.09018795
84	0xbda7cede	-0.08193754
85	0xbc054bb0	-0.008135721
86	0x3df733f8	0.12070459
87	0xbe5b96a9	-0.21444191
88	0xbdb6015a	-0.088869765
89	0xbdfbde4e	-0.12298261
90	0x3e600d04	0.21879965
91	0xbd97bf0e	-0.07409488
92	0x3e54a543	0.20766167
93	0xbe8cb649	-0.27482823
94	0xbd3a34cd	-0.04546051
95	0x3e032b6f	0.12809537
96	0xbd3f0c72	-0.04664273
97	0x3d9ad83a	0.07560773
98	0xbc52c6bc	-0.012864765
99	0xbe4296ca	-0.19002834
100	0x3eb0f11c	0.34558952
101	0x3df5dd59	0.12005109
102	0xbc3058e7	-0.0107633835
103	0x3e95d9d5	0.29267755
104	0x3d773e13	0.060361933
105	0x3cddde44	0.027083524
106	0xbe674823	-0.22586112
107	0xbe57df68	-0.21081316
108	0xbddd38d4	-0.10801855
109	0x3caa329e	0.02077609
110	0x3d6fbe18	0.058530897
111	0xbd07e84e	-0.033180527
112	0x3ea6c064	0.32568657
113	0xbe44c84b	-0.1921703
114	0xbdc5f402	-0.096656814
115	0xbde7853f	-0.113047116
116	0x3e812f19	0.25231245
117	0x3e31100f	0.17291282
118	0x3e88c153	0.26709995
119	0xbd263c5e	-0.040584914
120	0x3d88eef8	0.06686205
121	0xbeabd749	-0.33562687
122	0xbd6edefa	-0.058318116
123	0xbe4f9b68	-0.20274127
124	0x3d82178b	0.06352147
125	0xbe521b61	-0.20518257
126	0x3e1be5db	0.15224402
127	0x3e1c0cf6	0.15239319
128	0xbe7b2336	-0.2452515
129	0x3c4e1f6d	0.012580735
130	0x3ed111e9	0.40833977
131	0x3e0de846	0.13858137
132	0x3e1a8ba9	0.15092339
133	0xbea48583	-0.3213311
134	0xbe99598d	-0.29951134
135	0xbd954935	-0.07289354
136	0xbdab0a1f	-0.0835154
137	0xbd0c565c	-0.034262046
138	0x3df5ea2f	0.120075576
139	0xbe34d032	-0.17657545
140	0x3c992961	0.018696489
141	0xbd11f412	-0.035633154
142	0x3da9053d	0.08252952
143	0x3d8978c7	0.067124896
144	0xbdcdeb52	-0.100546494
145	0x3e0247df	0.12722729
146	0x3c6c2f30	0.014415547
147	0xbc8b4ef4	-0.017005421
148	0x3ddff82e	0.109360084
149	0xbe11df39	-0.14245309
150	0x3e765181	0.24054529
151	0xbe11ad99	-0.14226379
152	0x3e138086	0.14404497
153	0xbd18c5d5	-0.037298042
154	0x3e39c929	0.18143143
155	0x3df334e2	0.11875321
156	0x3d950561	0.072764166
157	0xbd759b14	-0.059962347
158	0x3c35d23f	0.01109749
159	0xbd813628	-0.063091576
160	0xbda053b2	-0.078284636
161	0xbe1c7c4e	-0.15281793
162	0x3e090587	0.13381015
163	0x3e701134	0.23444062
164	0xbe22cae1	-0.15897705
165	0xbdc820c1	-0.09771872
166	0x3ccb5bb9	0.02482401
167	0x3e3c33e8	0.18379176
168	0x3dd6f2bf	0.10495519
169	0x3e141f52	0.14465073
170	0xbdf1c8c6	-0.118058726
171	0x3d195fa8	0.03744474
172	0x3de99f14	0.11407295
173	0xbd98077f	-0.07423305
174	0xbe3d3b03	-0.18479542
175	0xbe333a11	-0.1750262
176	0xbd272259	-0.04080424
177	0xbe1cd874	-0.15316945
178	0xbe01dd7e	-0.12682149
179	0xbdc8e761	-0.09809757
180	0x3df961eb	0.121768795
181	0x3dd3faed	0.10350595
182	0xbdc614ec	-0.09671959
183	0xbe0fca07	-0.14041911
184	0xbe07b6c4	-0.13253313
185	0xbd516f4b	-0.051131528
186	0x3d716169	0.05893079
187	0xbddd369d	-0.10801432
188	0x3e24d890	0.16098237
189	0xbd93551f	-0.0719397
190	0xbe4aecde	-0.1981692
191	0x3d88c8b7	0.06678908
192	0xba9070f8	-0.0011019995
193	0xbe851d99	-0.25999144
194	0xbe4aea06	-0.19815835
195	0xbe67700c	-0.22601336
196	0x3e0fdea7	0.14049779
197	0x3dac7d64	0.08422354
198	0x3cb98442	0.022646073
199	0xbe6a76ec	-0.22896928
200	0xbe70b51a	-0.23506585
201	0x3e20df93	0.15710287
202	0x3e07d638	0.13265312
203	0x3e1c36f8	0.15255344
204	0x3d852969	0.06502039
205	0x3d738728	0.059455067
206	0xbcb5a875	-0.022175053
207	0xbe84c43d	-0.25930968
208	0xbce95235	-0.028481582
209	0xbe8a8427	-0.2705395
210	0x3e860de1	0.26182464
211	0xbe4f0d85	-0.20220001
212	0xbdf3b774	-0.11900225
213	0xbdb382c2	-0.087651744
214	0x3db40500	0.08790016
215	0x3da1100e	0.0786439
216	0x3abbeb31	0.001433706
217	0x3dd35aca	0.10320051
218	0xbd6d7c06	-0.057979606
219	0x3e1b15a0	0.15144968
220	0xbcf3299b	-0.029682925
221	0xbd661e23	-0.056181084
222	0xbda707a8	-0.08155757
223	0x3d462592	0.048375674
224	0xbd1cf1b8	-0.03831646
225	0xbd887f3f	-0.06664895
226	0x3b39ba11	0.0028339664
227	0xbe169732	-0.14706114
228	0x3d5763f1	0.052585546
229	0x3dc95b32	0.09831847
230	0x3e2040ba	0.15649691
231	0xbdd4352f	-0.103617065
232	0x3e016d98	0.12639463
233	0xbdb747ef	-0.08949267
234	0x3e4974f7	0.19673525
235	0x3d40d61b	0.047079187
236	0xbd8998ce	-0.06718598
237	0x3dc03d2c	0.093866676
238	0xbda04bee	-0.078269824
239	0xbcfcc665	-0.03085632
240	0x3e057d05	0.13035972
241	0xbe1b8e52	-0.1519101
242	0x3ea03d5d	0.31296816
243	0x3f0758d1	0.528699
244	0x3e709607	0.23494731
245	0xbe00118f	-0.12506698
246	0xbe1ca3fa	-0.15296927
247	0x3e5734a2	0.21016172
248	0x3eaa5a70	0.33272123
249	0xbcd1525a	-0.025551964
250	0xbea05ae5	-0.31319347
251	0xbdcb8b28	-0.09938651
252	0x3d982933	0.07429733
253	0x3de24942	0.11049129
254	0xbd11f982	-0.03563834
255	0xbe567550	-0.20943189

a2c_network.actor_mlp.0.bias f4 [128]
0	0xbec2f383	-0.3807641
1	0x3e4df6c4	0.20113665
2	0x3e6541d4	0.22388393
3	0x3e977d0f	0.295876
4	0x3e5724e9	0.21010174
5	0xbdf1a4d3	-0.11799016
6	0xbe5c6aac	-0.21525067
7	0xbdbe6c6d	-0.09298024
8	0xbeb635d4	-0.35587943
9	0xbdc2f5ac	-0.095195144
10	0x3cd0723b	0.025445094
11	0xbe07d8a2	-0.13266233
12	0x3e304e03	0.17217259
13	0xbe6a9002	-0.22906497
14	0x3e46ec58	0.19426095
15	0x3e3a557b	0.1819667
16	0x3bdfbf0a	0.0068281936
17	0xbe8dd84e	-0.2770409
18	0xbe64338b	-0.22285287
19	0xbdd973fb	-0.10617825
20	0xbe3eb456	-0.1862348
21	0xbe24f116	-0.16107592
22	0xbe110190	-0.14160752
23	0xbe8ae242	-0.27125746
24	0xbda2048d	-0.07911024
25	0x3e886b67	0.2664444
26	0xbd96a346	-0.07355361
27	0x3c1ff951	0.0097640315
28	0xbe60e59f	-0.21962593
29	0xbe630c5b	-0.22172682
30	0x3e39143c	0.18074125
31	0x3d434ea6	0.047682427
32	0xbd631a11	-0.05544478
33	0xbdcf74ae	-0.10129677
34	0xbe6d2b17	-0.23160969
35	0xbe873636	-0.26408547
36	0xbe848a94	-0.25886977
37	0xbe9e3da3	-0.309064
38	0xbe29c1f2	-0.1657789
39	0xbe8e623a	-0.27809316
40	0x3d98639b	0.07440873
41	0xbe461b53	-0.19346361
42	0xbdba3f9f	-0.09094166
43	0xbe56a5e6	-0.20961723
44	0xbd9bada6	-0.0760148
45	0xbdb71870	-0.08940208
46	0x3ddb2d53	0.10702004
47	0xbe03b3b2	-0.12861517
48	0xbe2b6a40	-0.1673975
49	0xbe3594af	-0.177325
50	0xbe3ae005	-0.18249519
51	0xbe181b2d	-0.14854117
52	0x3e5b42c7	0.21412192
53	0xbcc84b3d	-0.024449939
54	0x3d140744	0.03613974
55	0xbeaa8b3e	-0.33309358
56	0xbeba6ae5	-0.3640968
57	0xbe3e1f40	-0.18566608
58	0xbe14a95e	-0.14517733
59	0xbd83f5ce	-0.06443368
60	0xbe45d48c	-0.19319361
61	0x3e6f0b93	0.23344259
62	0x3e862cdf	0.2620611
63	0xbeab7661	-0.33488753
64	0x3bbd3ea3	0.005775289
65	0x3e84ea2f	0.25959918
66	0x3e7f965d	0.24959703
67	0xbd9ea1b0	-0.07745683
68	0xbdcaeecf	-0.099088304
69	0xbec67cdc	-0.38767135
70	0xbb0d2f53	-0.00215431
71	0xbe4ccbb1	-0.19999577
72	0x3db3b45e	0.08774637
73	0xbe0ed401	-0.1394806
74	0x3e92201e	0.28540128
75	0xbdf8d6d2	-0.12150349
76	0xbe8ffe16	-0.2812354
77	0xbed47e76	-0.41502732
78	0x3bfda58d	0.0077406825
79	0x3cd8dd62	0.026472751
80	0x3d77f948	0.060540468
81	0xbe9a2ebd	-0.30113783
82	0x3e46a355	0.19398244
83	0x3d594255	0.053041775
84	0x3d3484f7	0.044072118
85	0x3e2b5535	0.16731723
86	0x3e1c36fa	0.15255347
87	0x3d354a54	0.044260338
88	0x3e12f1a0	0.14349985
89	0xbe3cf417	-0.18452488
90	0x3c4016a2	0.011724146
91	0xbebd43cc	-0.36965787
92	0x3deedd71	0.1166333
93	0xbe936084	-0.28784573
94	0xbe247c5a	-0.16063061
95	0xbd74ea52	-0.059793778
96	0x3e211457	0.15730415
97	0xbe9690b6	-0.2940728
98	0x3d72f257	0.059313145
99	0xbe8dc693	-0.27690563
100	0xbdb8f4f7	-0.09031098
101	0xbce85d0d	-0.028364683
102	0xbe650fb7	-0.22369276
103	0xbd855499	-0.06510276
104	0xbe89cf64	-0.2691604
105	0xbdfd8cc2	-0.12380363
106	0x3e4e8ae8	0.20170176
107	0xbe6a3fc8	-0.22875893
108	0xbe300826	-0.17190608
109	0x3e21a05b	0.15783827
110	0x3dc3fd59	0.095698066
111	0x3e6a1ce4	0.22862583
112	0xbd273c2e	-0.040828876
113	0xbe887baf	-0.26656863
114	0x3db6b528	0.089212716
115	0x3d3a62be	0.045504324
116	0xbdf62bc9	-0.1202007
117	0x3e5cb7a0	0.21554422
118	0xbe7882f5	-0.24268706
119	0xbd340e7b	-0.043959122
120	0x3d96623b	0.07342955
121	0x3e5a6867	0.21328889
122	0x3d9b86f3	0.07594099
123	0xbe7dd066	-0.24786529
124	0x3e2de6a6	0.16982517
125	0xbe418580	-0.18898582
126	0x3e20c511	0.15700175
127	0xbe3a356a	-0.18184438

a2c_network.actor_mlp.2.weight f4 [128, 128]
0	0x3e55542b	0.20832889
1	0xbec4e0b9	-0.384527
2	0x3c7ecba0	0.015551478
3	0xbe0853fa	-0.13313285
4	0xbe8e6bf2	-0.2781673
5	0x3e4bcd4c	0.19902533
6	0x3d7fd882	0.062462337
7	0x3b929462	0.004473255
8	0x3e345c5d	0.17613359
9	0xbd2e39c5	-0.042535562
10	0xbcd8aac5	-0.026448617
11	0xbe31f381	-0.17378046
12	0xbbc4b32b	-0.006002804
13	0x3e125d22	0.1429334
14	0xbe0036e4	-0.12520939
15	0xbcf8e62f	-0.030383198
16	0x3d874816	0.06605546
17	0x3de5f157	0.112276725
18	0x3e1c4384	0.1526013
19	0xbe57bb3f	-0.21067522
20	0x3e705229	0.23468842
21	0x3d914366	0.07092933
22	0x3d513ade	0.05108153
23	0x3e5164a5	0.20448549
24	0xbe1e20ba	-0.15442172
25	0xbdd0be60	-0.10192561
26	0xbd95a1b7	-0.07306235
27	0x3deb3206	0.114841506
28	0x3e063ae4	0.13108402
29	0x3d9dbd34	0.07702103
30	0xbde53c38	-0.111931264
31	0xbcbbf858	-0.022945568
32	0xbd2e634a	-0.04257516
33	0xbe0fa93f	-0.14029406
34	0x3e444b60	0.19169378
35	0xbe1fe5ab	-0.15614955
36	0x3da3d71b	0.080000125
37	0x3d991be3	0.07476022
38	0x3d5d762d	0.05406778
39	0x3e30d47f	0.17268561
40	0x3d6e4cd6	0.058178745
41	0x3d603933	0.05474205
42	0x3dc92832	0.0982212
43	0x3da454f3	0.08024015
44	0x3c8d7712	0.017268691
45	0xbc2e8dee	-0.010653956
46	0xbe3e11e5	-0.18561514
47	0x3bde49c3	0.0067836954
48	0x3d7f6148	0.062348634
49	0x3e1190dd	0.14215417
50	0xbca169cf	-0.019703774
51	0xbd199306	-0.037493728
52	0xbdd33e04	-0.10314563
53	0x3e154ad5	0.14579327
54	0xbd48e331	-0.04904479
55	0x3e3ad6ac	0.18245953
56	0x3cf9d8bf	0.03049886
57	0x3e07e83b	0.13272183
58	0x3d47d07a	0.048782803
59	0xbcbcabfc	-0.023031227
60	0x3d8c4c95	0.06850544
61	0xbcdea393	-0.027177608
62	0xbd2e587e	-0.04256486
63	0x3e51db85	0.20493896
64	0xbdaed9ef	-0.08537661
65	0xbb599d74	-0.0033205422
66	0xbdacd319	-0.08438701
67	0xbe04bef7	-0.12963472
68	0x3d5616af	0.052267727
69	0x3dce566d	0.10075078
70	0x3e1b726b	0.15180366
71	0x3d5bbef5	0.053648908
72	0xbdf64239	-0.1202435
73	0x3db908fe	0.09034918
74	0xbe40628a	-0.1878759
75	0xbd6a193e	-0.05715298
76	0x3e1eb871	0.15500046
77	0x3e057936	0.1303452
78	0x3d2e2d6d	0.04252379
79	0xbe88e315	-0.2673575
80	0xbda6b4c3	-0.08139946
81	0x3e88fa79	0.26753595
82	0xbdc40c76	-0.09572689
83	0xbc9b5de0	-0.018965662
84	0xbc13e2d0	-0.009026244
85	0xbd0f3b58	-0.034968704
86	0xbc9784eb	-0.018495997
87	0xbe4b9db1	-0.19884373
88	0xbe71f0d7	-0.2362703
89	0x3e1a8b68	0.15092242
90	0xbb5004a1	-0.003174104
91	0x3c034517	0.008012078
92	0xbe958252	-0.2920099
93	0x3e799b5a	0.24375668
94	0xbe0e2b03	-0.13883595
95	0xbc516ea8	-0.01278273
96	0xbe62b810	-0.22140527
97	0x3db58a81	0.08864308
98	0xbe744494	-0.23854285
99	0x3dc4bb76	0.09606068
100	0x3e1ba6f3	0.15200405
101	0x3da6ce40	0.08144808
102	0x3dace451	0.084419854
103	0x3bb28b3b	0.0054487265
104	0xbcf954b2	-0.030435894
105	0xbc2d9ffa	-0.010597223
106	0xbde0f678	-0.1098451
107	0xbd1dfdb3	-0.038572025
108	0xbc972765	-0.018451402
109	0xbe4ac7b4	-0.19802743
110	0xbe1944a8	-0.14967597
111	0xbd8bcc3f	-0.06826066
112	0xbd2320ba	-0.039826132
113	0x3e6a3226	0.22870693
114	0xbdf01b69	-0.11723978
115	0x3c99f7ad	0.018794859
116	0x3d9af0a3	0.07565429
117	0xbd7de9dd	-0.061990608
118	0x3cda62f2	0.026658509
119	0x3d9f278e	0.07771216
120	0xbd34e787	-0.044166114
121	0xbdc3dd5f	-0.095637076
122	0xbcbbd317	-0.022927804
123	0x3c882785	0.016620407
124	0xbd096bd4	-0.0335501
125	0x3c5b5b7e	0.013388513
126	0xbe4a029d	-0.1972756
127	0xbd2fe029	-0.042938385
128	0xbcf39431	-0.02973375
129	0xbd6213ae	-0.05519455
130	0xbcc62fa0	-0.024192631
131	0xbcf02c8e	-0.02931812
132	0xbc6d87e0	-0.014497727
133	0x3d15a0d5	0.036530335
134	0xbc95215e	-0.018204387
135	0x3c971a14	0.018445052
136	0x3c310308	0.010803945
137	0xbdf2c214	-0.11853424
138	0xbe1c0e0f	-0.15239738
139	0xbc7c5dca	-0.01540322
140	0x3d5c8eeb	0.053847235
141	0x3d588ff3	0.052871656
142	0x3d713d8d	0.05889659
143	0xbe04faab	-0.12986247
144	0x3c6cb394	0.014447112
145	0x3daacc88	0.083397925
146	0x3d2acff3	0.041702222
147	0xbd0584d7	-0.03259739
148	0x3c121e39	0.008918338
149	0x3e2f6e19	0.17131843
150	0xbdd64907	-0.104631476
151	0xbd48caee	-0.049021654
152	0x3dafe080	0.08587742
153	0xbdbe4035	-0.0928959
154	0xbd1915af	-0.037374195
155	0xbd96d39a	-0.073645785
156	0x3cd9ceef	0.026587931
157	0x3c227866	0.009916401
158	0xbd6e88b4	-0.05823584
159	0xbd42e1d7	-0.04757866
160	0x3d377758	0.04479155
161	0x3dbd6978	0.09248632
162	0x3e47817f	0.19482993
163	0xbd4dd3b3	-0.05025072
164	0x3d6046c7	0.054755
165	0xbd9da41b	-0.07697316
166	0x3dab253b	0.083567105
167	0x3e230d01	0.1592293
168	0x3d8536fb	0.06504627
169	0xbcd5477a	-0.02603506
170	0x3dbed746	0.09318404
171	0xbd397d3b	-0.045285445
172	0x3d77ee24	0.060529843
173	0x3baa2c95	0.005193303
174	0xbd9a0c0d	-0.0752183
175	0xbc6fb439	-0.014630371
176	0xbb9a0470	-0.004700236
177	0x3d042b44	0.032267824
178	0x3d10fb12	0.03539569
179	0x3d8c6b01	0.06856347
180	0xbc426e94	-0.011867184
181	0x3e4c9fad	0.19982786
182	0x3db3d8b6	0.08781569
183	0x3de7e4ec	0.1132296
184	0x3dbbfda9	0.09179241
185	0xbcd53bbb	-0.026029458
186	0xbdcc8100	-0.09985542
187	0x3d1f2148	0.0388501
188	0x3dee9327	0.11649161
189	0xbd9fbd7f	-0.077998154
190	0xbcf13260	-0.029442966
191	0xbd349b28	-0.04409328
192	0x3df721a2	0.12066962
193	0x3e181939	0.14853372
194	0x3d0e4705	0.0347357
195	0x3d4b5707	0.049643543
196	0x3ca26e24	0.01982791
197	0x39450c3b	0.0001879194
198	0x3c11fba4	0.008910093
199	0x3d04cf25	0.03242411
200	0xbcdf3ecf	-0.02725163
201	0xbdb01778	-0.08598226
202	0x3cd1b480	0.025598764
203	0x3c9a22fb	0.018815508
204	0x3d021636	0.031759463
205	0x3bd751fa	0.0065710517
206	0xbc46741c	-0.012112644
207	0x3d85d190	0.065341115
208	0xbdaaf9b3	-0.083484076
209	0x3dabedc3	0.08394959
210	0x3d3c54fc	0.045979485
211	0xbd20eb7e	-0.039287083
212	0xbdeb4e0c	-0.11489496
213	0xbd3ce232	-0.046114154
214	0xbd8315b6	-0.064006254
215	0x3e050d7d	0.12993427
216	0x3de8c230	0.11365163
217	0xbd75475a	-0.0598825
218	0x3d33bc00	0.043880463
219	0x3d39e4f1	0.04538435
220	0x3df0a11f	0.117494814
221	0xbc34d46c	-0.011036973
222	0xbdc8f94d	-0.09813175
223	0xbd74d050	-0.059768975
224	0x3db3ecab	0.08785375
225	0x3d7ee4b0	0.062229812
226	0xbd93f436	-0.07224314
227	0xbc9dba50	-0.01925388
228	0x3c4da58a	0.012551675
229	0x3d98e6bb	0.07465883
230	0x3cac0ed0	0.021003157
231	0xbdee060f	-0.11622249
232	0x3e1a7a8a	0.15085807
233	0xbdc21b22	-0.094778314
234	0x3d74509e	0.059647195
235	0x3c088715	0.008332987
236	0x3d50ea5d	0.051004756
237	0x3d8972cf	0.06711351
238	0xbd7b3568	-0.06133023
239	0xbdb1b901	-0.08677865
240	0x3dbc0889	0.091813155
241	0xbc465e55	-0.012107451
242	0x3cd5d779	0.026103722
243	0xbd88dbc4	-0.06682542
244	0xbcbc2b14	-0.02296976
245	0x3d9656c3	0.07340767
246	0x3d804089	0.06262309
247	0xbe122420	-0.14271593
248	0x3d5c7687	0.053823974
249	0xbdae5536	-0.085123464
250	0x3d478da2	0.048719056
251	0xbcd0ed9a	-0.025503922
252	0x3cabe825	0.020984719
253	0x3d61639d	0.05502664
254	0x39780f06	0.0002365672
255	0x3dab09b2	0.083514586

a2c_network.actor_mlp.2.bias f4 [128]
0	0xbe5799c9	-0.21054758
1	0xbcf34b7b	-0.029699078
2	0xbd848b30	-0.064718604
3	0x3da6ab8e	0.0813819
4	0xbcf869f5	-0.030323962
5	0x3c5738e4	0.013136122
6	0xbdd04cda	-0.10170908
7	0xbdd32bc1	-0.1031108
8	0xbdbff215	-0.09372345
9	0x3d177d30	0.036984622
10	0xbe8599cf	-0.2609391
11	0xbc8f4cfc	-0.017492764
12	0xbe405155	-0.18781026
13	0xbe3ea6e9	-0.18618359
14	0x3d3f1dbc	0.046659216
15	0xbe334828	-0.17507994
16	0x3c49ff2b	0.012328903
17	0xbde6157c	-0.112345666
18	0xbd83d1ea	-0.06436522
19	0xbdd3c312	-0.10339941
20	0xbe10dba0	-0.1414628
21	0xbe02968a	-0.12752739
22	0xbd962001	-0.07330323
23	0xbca800c9	-0.020508187
24	0x3d5753c7	0.05257013
25	0xbe19658b	-0.14980142
26	0xbe3ff832	-0.18747023
27	0xbd839725	-0.06425313
28	0xbe74c539	-0.2390336
29	0xbd9a1084	-0.07522681
30	0xbd6d1207	-0.05787852
31	0xbe02ead2	-0.1278489
32	0x3bf373de	0.007429584
33	0xbe25208b	-0.16125695
34	0xbcd8d459	-0.026468443
35	0xbd60df73	-0.054900598
36	0xbd931952	-0.07182564
37	0x3dca8ff0	0.09890735
38	0xbda48226	-0.08032636
39	0x3d9867f4	0.074417025
40	0xbe507c20	-0.2035985
41	0x3e07eb19	0.13273276
42	0x3d8363a2	0.06415488
43	0xbe053eeb	-0.13012283
44	0x3e345751	0.17611434
45	0xbd37ebc7	-0.04490259
46	0xbdb6c6bd	-0.08924625
47	0x3b10a73e	0.002207234
48	0x3d1d44f4	0.038395837
49	0xbdee3c35	-0.11632577
50	0x3de78c3d	0.11306045
51	0xbc016777	-0.007898203
52	0x3cf27e34	0.029601194
53	0x3c907531	0.017634006
54	0xbe02ba38	-0.1276635
55	0x3d59d489	0.053181205
56	0x3d1b227e	0.03787469
57	0x3d778527	0.06042972
58	0x3da16f1b	0.0788252
59	0x3d62b34a	0.055346765
60	0xbd8e6b9f	-0.06954121
61	0xbd9066b9	-0.07050843
62	0xbe0299d4	-0.12753993
63	0x3de7aff5	0.11312858
64	0xbdc91439	-0.0981831
65	0xbe363331	-0.17792965
66	0xbda8c498	-0.08240622
67	0x3c8fe343	0.017564422
68	0xbd356713	-0.044287752
69	0xbcd7398b	-0.026272556
70	0xbd465f4b	-0.048430722
71	0xbd7fdc97	-0.06246623
72	0xbd293bc3	-0.04131676
73	0xbe7d6fa8	-0.24749625
74	0x3d31f109	0.04344276
75	0xbdc4bf99	-0.09606857
76	0xbe2354d1	-0.15950324
77	0xbc0d90a9	-0.008640447
78	0x3c653364	0.013989303
79	0xbe10433d	-0.1408815
80	0xbe827b1b	-0.25484547
81	0xbd741459	-0.059589718
82	0x3d20b456	0.03923448
83	0x3d7d92c7	0.061907556
84	0x3da92648	0.08259255
85	0x3d07c717	0.03314885
86	0x3c93772e	0.018001165
87	0xbdc4f0c4	-0.09616235
88	0xbd31e239	-0.043428633
89	0xbe5cb3ac	-0.21552914
90	0xbd28e92e	-0.041238002
91	0xbe803598	-0.2504089
92	0xbe39129e	-0.18073508
93	0xbc5bcae3	-0.013415071
94	0xbe392331	-0.1807983
95	0xbe21be26	-0.15795192
96	0xbde802f4	-0.11328688
97	0x3dd82d75	0.10555545
98	0x3d178211	0.036989275
99	0xbdefc50a	-0.11707504
100	0x3c38e013	0.011283892
101	0x3c6c5c76	0.014426341
102	0xbdbbe9d4	-0.091754586
103	0xbc405ba5	-0.0117406
104	0xbeb95d7a	-0.3620413
105	0xbddd5ded	-0.108089305
106	0xbe5a54ad	-0.21321364
107	0x3d2e7c6a	0.04259912
108	0xbda30f51	-0.07961906
109	0xbd3a041e	-0.045414083
110	0xbc0b196c	-0.008489948
111	0xbd9fa751	-0.07795585
112	0xbd917a9a	-0.071034625
113	0x3daa74be	0.08323048
114	0x3d169e7b	0.036772233
115	0x3da8d04e	0.08242856
116	0xbe2b5612	-0.16732052
117	0x3cff28ce	0.031147387
118	0x3d296b44	0.041362062
119	0x3cb88480	0.022524118
120	0x3dd55a51	0.10417617
121	0xbda3e260	-0.08002162
122	0xbd81b473	-0.06333246
123	0xbe932353	-0.28737888
124	0x3cae0ee1	0.02124733
125	0xbe4a2fa8	-0.19744742
126	0x3cdf56c3	0.02726305
127	0xbdbdea9d	-0.092732646

a2c_network.value.weight f4 [1, 128]
0	0xbe0b5738	-0.1360749
1	0xbc5ec854	-0.013597567
2	0x3c9d84f5	0.019228438
3	0x3de80bf8	0.11330408
4	0xbd15cb92	-0.036571093
5	0xbca98e43	-0.020697718
6	0xb9f8de6d	-0.00047467966
7	0x3d1738b5	0.036919314
8	0xbd92955d	-0.07157395
9	0xbc78e384	-0.015190963
10	0xbd781142	-0.060563333
11	0x3d8b970e	0.06815921
12	0xbe258ebb	-0.16167729
13	0xbd7ec67c	-0.06220101
14	0xbc0f3c7e	-0.00874245
15	0x3c3637e5	0.011121725
16	0xbda76866	-0.08174209
17	0xbd04c676	-0.03241583
18	0x3cb4010d	0.021973157
19	0x3d8785e6	0.06617336
20	0x3c0c737e	0.008572457
21	0xbd0ec6fd	-0.03485774
22	0xbe10be51	-0.141351
23	0xbbfb2393	-0.007664153
24	0x3db5feb6	0.08886473
25	0x3d2bedb6	0.041974746
26	0x3b0242cd	0.0019876242
27	0x3d3b97a4	0.045798913
28	0xbe0c7b45	-0.13718899
29	0xbdfd3f4f	-0.12365591
30	0xbd9dfa77	-0.07713788
31	0xbd209ea2	-0.039213784
32	0xbdae3258	-0.08505696
33	0xbd16358e	-0.036672167
34	0xbd96d57c	-0.07364938
35	0xbd28d9ca	-0.041223325
36	0xbc442cfa	-0.011973614
37	0xbd4825f6	-0.048864327
38	0xbc96d888	-0.018413797
39	0x3d9246fe	0.07142447
40	0xbde03c12	-0.109489575
41	0x3e2e3705	0.17013176
42	0x3d9405ec	0.07227692
43	0xbcee460a	-0.029086132
44	0x3df45893	0.11930957
45	0x3d872548	0.06598908
46	0x3c06f897	0.008237979
47	0xbcaeecf1	-0.021353217
48	0x3c374c65	0.0111876475
49	0x3dbbb89d	0.091660716
50	0x3e164cf9	0.146778
51	0x3da39325	0.0798705
52	0x3dbb0da1	0.09133459
53	0x3ca06d99	0.01958351
54	0xbdcb07d5	-0.09913603
55	0x3e0a2f03	0.13494496
56	0x3b0f28d0	0.0021844395
57	0x3dd58c2d	0.10427127
58	0x3bc750ab	0.0060826144
59	0x3db72993	0.089434765
60	0xbe01f194	-0.12689811
61	0xbdd92906	-0.10603528
62	0xbda1e90e	-0.0790578
63	0x3d5ef775	0.054435212
64	0x3bf2f8c3	0.0074149086
65	0xbd62b424	-0.055347577
66	0x3d4778f5	0.048699338
67	0x3d87255f	0.06598925
68	0x3d323964	0.043511763
69	0x3ad41ccd	0.00161829
70	0xbdfefc4f	-0.12450468
71	0x3dc9aefc	0.09847829
72	0xbdd1a859	-0.10237188
73	0xbdbe8f82	-0.09304716
74	0xbe160443	-0.14650063
75	0xbd05fa7e	-0.03270959
76	0xbb6858d4	-0.0035453336
77	0x3e117e89	0.14208426
78	0xbc8648ed	-0.016392196
79	0xbe03d120	-0.12872744
80	0xbe013cfa	-0.12620917
81	0xbd3acb38	-0.04560396
82	0xbd387a58	-0.04503855
83	0x3db02eea	0.08602698
84	0x3e472dce	0.19451067
85	0xbc9b9411	-0.018991502
86	0xbdd87714	-0.10569587
87	0xbcb0b36b	-0.021569928
88	0x3d272abb	0.040812235
89	0xbe5fdc26	-0.21861324
90	0xbd03b8ba	-0.03215859
91	0xbd0fb5b3	-0.03508539
92	0xbdd67909	-0.104723044
93	0x3d5d7b84	0.05407287
94	0xbe0f18b7	-0.13974272
95	0xbddeb956	-0.10875194
96	0x3b07ba22	0.002071031
97	0x3e11efd7	0.14251648
98	0x3d247c42	0.040157564
99	0x3cfdde3e	0.030989762
100	0x3cdae267	0.026719285
101	0xbdb909de	-0.09035085
102	0xbd0930be	-0.03349375
103	0xbcd7211a	-0.026260901
104	0xbdeda86f	-0.11604392
105	0xbddfc817	-0.10926836
106	0xbda0d3f9	-0.078529306
107	0x3dec8435	0.11548654
108	0xbcb7837f	-0.02240157
109	0xbca59f05	-0.020217428
110	0x3d102b0d	0.035197306
111	0xbe000ed6	-0.1250566
112	0xbd3a46d6	-0.04547771
113	0x3dac6653	0.08417954
114	0x3e2ca9ae	0.16861603
115	0x3e442a0c	0.19156665
116	0xbdebe234	-0.11517754
117	0x3e1630c8	0.14667046
118	0x3be614ea	0.007021536
119	0x3daa7e5f	0.083248846
120	0x3df7994b	0.12089785
121	0xbde7f0ff	-0.11325263
122	0xbde9fc48	-0.11425072
123	0xbe11a80b	-0.1422426
124	0x3cc0562b	0.023478588
125	0xbd1d959f	-0.038472768
126	0x3dc46d94	0.09591213
127	0xbcfdfea7	-0.031005217

a2c_network.mu.weight f4 [6, 128]
0	0xbd16309e	-0.03666746
1	0xbbd812ea	-0.0065940516
2	0x3d936530	0.07197034
3	0x3cbba937	0.022907836
4	0x3d0818ac	0.033226654
5	0x3dda93a9	0.10672695
6	0x3c9bde09	0.019026773
7	0xbd3ecc75	-0.046581704
8	0xbd52baa7	-0.051447537
9	0xbb96af25	-0.0045985156
10	0x3c0c8bcb	0.008578251
11	0xbd84e1f2	-0.06488408
12	0x3c466f1a	0.01211145
13	0x3d33d6f8	0.043906182
14	0x3c299f84	0.010352973
15	0x3b46e073	0.0030346185
16	0x3d562db1	0.05228967
17	0x3da07017	0.078338794
18	0x3e0d3d31	0.13792874
19	0xbbac06f8	-0.005249854
20	0xbd0e486a	-0.03473703
21	0xbd7ee40e	-0.06222921
22	0x3b96eb4e	0.004605687
23	0xbc0b1ad9	-0.008490288
24	0x3d0b950b	0.034077685
25	0x3d91f065	0.0712593
26	0xbbae7520	-0.005324021
27	0xbd2c1809	-0.04201511
28	0xbd131e14	-0.035917357
29	0x3dc3b569	0.095560856
30	0xbdda045f	-0.10645365
31	0x3c5e8e8f	0.013583793
32	0x3d3c95e9	0.046041403
33	0xbe14dd52	-0.14537552
34	0x3d15d930	0.03658408
35	0x3d4933c2	0.049121626
36	0x3e2951ed	0.16535158
37	0xbc883efa	-0.016631592
38	0xbc2f7af2	-0.010710465
39	0x3e55110b	0.20807283
40	0xbd472671	-0.048620645
41	0xbcbf02de	-0.023316797
42	0xbc679385	-0.0141342925
43	0x3d918621	0.07105661
44	0x3da8b076	0.08236782
45	0x3d7356cd	0.05940895
46	0xbbbb7ef0	-0.0057219192
47	0xbd295c75	-0.04134794
48	0x3c98027e	0.018555876
49	0x3da38cf9	0.07985873
50	0xbd9b6b87	-0.075888686
51	0x3c3a51f3	0.011372077
52	0x3d5183a5	0.051150937
53	0x3d83aa89	0.064290114
54	0xbdb8d399	-0.09024734
55	0xbc0c4b74	-0.008562911
56	0xbd839f2e	-0.064268455
57	0xbcc0909e	-0.023506459
58	0x3acbd78b	0.0015551908
59	0x3daeb6e8	0.0853098
60	0xbdb81f86	-0.089903876
61	0xbd585d04	-0.05282308
62	0x3b5a7b47	0.003333764
63	0x3b0a6043	0.0021114505
64	0x3c51f912	0.012815731
65	0x3d350772	0.044196554
66	0xbdc8cd17	-0.09804743
67	0xbcbf5e71	-0.023360463
68	0x3a36f447	0.0006979149
69	0x3cb87421	0.022516312
70	0xbcc897eb	-0.024486503
71	0xbc7a5502	-0.0152790565
72	0x3b0519a8	0.0020309482
73	0xbe244062	-0.16040185
74	0xbd9777a3	-0.07395866
75	0x3b891186	0.004182997
76	0x3cb97f85	0.022643814
77	0xbd814b9d	-0.0631325
78	0xbd128277	-0.035768952
79	0x3cb4dfd9	0.022079395
80	0xbca1585f	-0.019695459
81	0xbbd6caf9	-0.006554958
82	0xbcc2df4e	-0.02378812
83	0x3be06e95	0.00684912
84	0xbcfdedb7	-0.03099714
85	0xbd93eada	-0.07222529
86	0x3d5e1126	0.054215573
87	0xbd2d9bba	-0.04238484
88	0xbd51364e	-0.05107718
89	0x3d00dd9e	0.03146135
90	0xbbb1123d	-0.0054037855
91	0xbd4460c3	-0.04794384
92	0xbdf4084f	-0.11915647
93	0xbcfa4ba1	-0.03055364
94	0x3dcf9a6a	0.10136874
95	0x3e2a7a06	0.16648111
96	0xbdcd8b66	-0.10036354
97	0x3abd4039	0.0014438696
98	0x3c1c9e3f	0.009559213
99	0xbe49d61c	-0.19710582
100	0x3d5fb257	0.054613438
101	0x3cd10815	0.02551655
102	0x3cf5a3e9	0.029985385
103	0xbd3bdc9b	-0.045864683
104	0xbddcce26	-0.10781507
105	0x3d163021	0.036666993
106	0xbcac402b	-0.021026691
107	0x3d3b38a6	0.04570832
108	0xbd917ccd	-0.07103882
109	0x3b264266	0.0025369166
110	0xbd8cb151	-0.06869758
111	0x38baa5cd	8.900054e-05
112	0xbd1be768	-0.038062483
113	0x3d857b56	0.06517665
114	0xbca8a274	-0.020585276
115	0xbc0e9d11	-0.00870444
116	0xbdb68d3a	-0.089136556
117	0xbdd885bd	-0.105723836
118	0xba1e10a3	-0.0006029701
119	0x3d5120ea	0.05105678
120	0x3dd9ad11	0.10628713
121	0x3da2edca	0.07955511
122	0xbce597a1	-0.028026404
123	0xbd212730	-0.039344013
124	0x3d00b02e	0.031418018
125	0xbd72ba75	-0.05925985
126	0x3d4348c5	0.04767682
127	0x3c7e7d92	0.015532868
128	0xbdf962ae	-0.12177025
129	0x3bd1e23e	0.006405144
130	0x3c7cb956	0.015425047
131	0x3deec01d	0.116577365
132	0xbd445f71	-0.047942583
133	0xbd0f22d5	-0.034945328
134	0xbda04da0	-0.07827306
135	0xbd66722e	-0.056261234
136	0xbe306899	-0.17227401
137	0xbc7487f3	-0.014924991
138	0x3d8b862f	0.06812703
139	0xbc288238	-0.010284953
140	0x3d195c47	0.03744152
141	0x3d02238f	0.031772193
142	0xbd08dff1	-0.033416692
143	0x3d8c1bb3	0.06841221
144	0xbd2640a2	-0.040588982
145	0x3d443713	0.047904085
146	0xbc32cf4c	-0.010913681
147	0x3d7d0c94	0.061779574
148	0x3d0b8dbf	0.034070726
149	0xbd10cd06	-0.035351776
150	0x3dac8687	0.084240966
151	0xbbb8c197	-0.005638312
152	0xbd22917b	-0.039689522
153	0xbdab9616	-0.08378236
154	0xbe06e1e9	-0.13172115
155	0x3be10d26	0.0068680225
156	0xbdd104fb	-0.10206028
157	0x3cf99775	0.030467728
158	0x3b3763d7	0.0027983093
159	0x3c8d0ad4	0.017217077
160	0xbb13ae68	-0.0022534374
161	0x3c17d67c	0.009267446
162	0xbd23d9d1	-0.040002648
163	0xbbf74d21	-0.0075470363
164	0xbc1dedbf	-0.009639203
165	0xbcf8d2a4	-0.030373879
166	0x3c649932	0.01395254
167	0xbdfc1d65	-0.12310294
168	0xbc5a2df0	-0.013316616
169	0xbdb088e0	-0.08619857
170	0xbd1d64d3	-0.03842623
171	0x3cafeac2	0.021474246
172	0x3d0cd31c	0.034381017
173	0xbdb1708f	-0.08664047
174	0x3d51f620	0.051260114
175	0xbb9286fd	-0.0044716583
176	0x3d43c034	0.04779072
177	0xbda8ea34	-0.08247796
178	0xbda8f414	-0.08249679
179	0xbd5d1ff3	-0.053985547
180	0x3bbdd401	0.005793095
181	0xbdf48f17	-0.11941355
182	0xbde596b0	-0.11210382
183	0xbdeafae9	-0.114736386
184	0xbd29a667	-0.04141846
185	0x3be35205	0.0069372677
186	0x3d70336a	0.058642782
187	0xb9924f27	-0.00027906263
188	0x3c39c93e	0.011339484
189	0xbd411975	-0.04714342
190	0x3cfa6c1a	0.030569125
191	0xbd45ea35	-0.04831906
192	0xbd1c3611	-0.0381375
193	0x3cfb58f1	0.030682059
194	0xbbae8db6	-0.005326952
195	0xbdc7618c	-0.097354025
196	0x3cb45a66	0.022015762
197	0xbd18259e	-0.03714525
198	0xbcab437e	-0.020906206
199	0xbd882123	-0.06646945
200	0xbcc65002	-0.024208073
201	0x3e018611	0.12648799
202	0xbd029370	-0.03187889
203	0x3d3e24f1	0.04642195
204	0x3e1a7950	0.1508534
205	0x3c79ba3c	0.015242156
206	0x3a358d13	0.0006925624
207	0x3d06e1a9	0.03293005
208	0x3d86c4e2	0.06580521
209	0xbc845692	-0.016154561
210	0x3d7bd9c0	0.06148696
211	0xbdae453f	-0.085093014
212	0x3d45a223	0.04825033
213	0xbb799146	-0.0038080974
214	0xbdbc2d85	-0.0918837
215	0x3d9f2be1	0.07772041
216	0x3e14042f	0.14454721
217	0xbc8516de	-0.016246255
218	0xbcad5909	-0.02116062
219	0x3db28274	0.08716288
220	0x3dc9b376	0.098486826
221	0xbd45d07d	-0.048294533
222	0xbc8aae17	-0.016928716
223	0xbd860ced	-0.06545434
224	0x3db4a83b	0.0882115
225	0x3cc52a77	0.0240681
226	0xbc8995cb	-0.01679506
227	0x3dbc9ef2	0.09210004
228	0xbc905b73	-0.017621731
229	0xbd8f7c35	-0.070061125
230	0x3d91eb85	0.07125
231	0xbbe5321f	-0.0069945003
232	0x3e2d30b3	0.16913109
233	0x3e0d6217	0.1380695
234	0xbd16ed50	-0.036847413
235	0x3dc0d26b	0.09415134
236	0x3caf858f	0.02142599
237	0xbdb8d66d	-0.090252735
238	0x3b857bee	0.0040736115
239	0xbd0eabc6	-0.034831785
240	0x3def1829	0.1167453
241	0xbd040fa9	-0.032241497
242	0xbd24f54d	-0.040273
243	0x3c83dc57	0.016096277
244	0x3d4bcb0e	0.049754195
245	0xbd6e9010	-0.058242857
246	0xbc83599a	-0.016033936
247	0xbd760664	-0.06006469
248	0xbcf07b06	-0.029355537
249	0xbc926874	-0.017872073
250	0xbc42eeb2	-0.01189773
251	0xbdaf3a77	-0.08556073
252	0xbc9dd4d9	-0.019266533
253	0x3ddd6944	0.108110934
254	0xbad356f0	-0.0016123932
255	0xbce610a9	-0.028084116

a2c_network.mu.bias f4 [6]
0	0x3c3992fc	0.011326548
1	0xbdee0d4a	-0.116236284
2	0x3d9ed7ed	0.07756028
3	0xbdb679e5	-0.08909968
4	0xbdeb08d0	-0.1147629
5	0x3d87aae3	0.06624391

exp_avg f4 [6]
0	0x3c410811	0.011781708
1	0x3b3e3416	0.0029022745
2	0x3b741c5c	0.0037248349
3	0x3bcf2741	0.006321818
4	0x3be03c3d	0.0068431185
5	0x3baf0aa9	0.005341847

exp_avg_sq f4 [6]
0	0x38768592	5.8775368e-05
1	0x38731537	5.7955473e-05
2	0x3824b17a	3.9265935e-05
3	0x386dd1e6	5.6700686e-05
4	0x389a3db2	7.354784e-05
5	0x385e340e	5.2977404e-05

exp_avg f4 [128, 30]
0	0xb9ee4a76	-0.00045450375
1	0x3a4fcc49	0.0007926864
2	0xb9d42a5d	-0.00040467354
3	0xb9eb43b5	-0.00044873139
4	0xba502c02	-0.0007941128
5	0xba22f75f	-0.0006216671
6	0x39339464	0.0001712605
7	0xb8f0dbec	-0.000114850554
8	0xba8c6118	-0.0010710089
9	0x3a0b5f4b	0.0005316629
10	0x3a2b0475	0.00065237965
11	0x3aac1e04	0.0013131504
12	0x39a39004	0.00031197083
13	0x3af6f3d5	0.0018840978
14	0xbb008182	-0.0019608443
15	0x39c77c2b	0.0003804875
16	0x38c87a18	9.559485e-05
17	0xb9b286ee	-0.00034051336
18	0xb92640ad	-0.00015855087
19	0x3ac1f68d	0.0014798209
20	0xb955237c	-0.00020326482
21	0xb8a86588	-8.029776e-05
22	0x3971edc4	0.00023072126
23	0x3a5c86e7	0.0008412436
24	0xba08f45f	-0.00052244024
25	0x3ac4f4f4	0.0015026615
26	0xba1538d2	-0.0005692366
27	0xb9c39889	-0.00037306946
28	0x3aac2374	0.0013133124
29	0xb9a7c5a5	-0.0003199998
30	0x3ac51a5a	0.0015037761
31	0xbb1779c8	-0.0023113359
32	0xba1a2835	-0.0005880625
33	0x3aeb7c29	0.001796608
34	0x3a9dfe18	0.0012053875
35	0x3ad97789	0.001659141
36	0x3ad18a48	0.0015986646
37	0x3acd7892	0.0015676192
38	0x3a7535d5	0.000935403
39	0xbaafa538	-0.001340068
40	0x39b05cce	0.0003363848
41	0xbab1016f	-0.0013504456
42	0x3b00453f	0.0019572524
43	0xbb140388	-0.0022585113
44	0x3aef0613	0.0018236063
45	0x3a798088	0.0009517749
46	0x385fe67b	5.3381995e-05
47	0x3b27bc36	0.002559436
48	0x3b359ef6	0.0027713156
49	0xbb1ecba7	-0.0024230273
50	0xb9c1d674	-0.0003697161
51	0x3b658dea	0.0035027214
52	0xbacc332d	-0.0015579216
53	0xb993e5e8	-0.00028209318
54	0x3ae5a51d	0.0017520521
55	0xbabb2661	-0.0014278406
56	0xba36f86e	-0.0006979768
57	0x3aeaa463	0.0017901774
58	0xbabda2a0	-0.0014468022
59	0x3aa7353d	0.0012756955
60	0xba7c10cb	-0.00096155395
61	0x3a4ab43e	0.00077325467
62	0x3ac831bb	0.001527361
63	0xba36792a	-0.0006960804
64	0xba2384d9	-0.00062377524
65	0x39b795dc	0.00035016134
66	0xb9ac56bc	-0.0003287102
67	0x3ad7ba5a	0.0016458735
68	0xb8dedc12	-0.00010626776
69	0xbabf83d6	-0.0014611434
70	0xba20b106	-0.0006129894
71	0xba6d98f2	-0.0009063623
72	0xb95c95f2	-0.00021036694
73	0xba213c2b	-0.00061506283
74	0xba023771	-0.0004967368
75	0x3a99bd5e	0.001172941
76	0x3a303c54	0.0006722857
77	0xba524063	-0.00080204586
78	0xbac68eb9	-0.0015148736
79	0x39cbc431	0.0003886535
80	0x3a0e8916	0.00054372975
81	0xbadd26d1	-0.001687253
82	0xb91513b1	-0.00014217083
83	0x3a94afb8	0.0011343872
84	0xba2c2ac8	-0.0006567654
85	0xba75d84b	-0.00093782385
86	0x39e63af7	0.0004391295
87	0xb987e6c3	-0.00025921137
88	0x380bedf9	3.336181e-05
89	0xb9c03934	-0.00036663713
90	0xb8a83e1a	-8.0224316e-05
91	0xb829030a	-4.029557e-05
92	0xb95ebdeb	-0.0002124232
93	0x39fa33bb	0.00047722258
94	0xb825dc95	-3.95445e-05
95	0xb907cc51	-0.00012950717
96	0xb9d71728	-0.00041025248
97	0x3a2f4230	0.0006685583
98	0x3a81c285	0.000989989
99	0xba5422cb	-0.0008092343
100	0xba4e2a54	-0.0007864584
101	0x39e0ba21	0.00042863286
102	0x38fc8d22	0.000120425844
103	0x38281588	4.0074374e-05
104	0x3a0f8b81	0.0005475805
105	0xba36fed5	-0.0006980722
106	0xb9fea9ab	-0.00048573068
107	0xb9205b91	-0.000152929
108	0x390d3d9d	0.0001346976
109	0xba3deffc	-0.0007245538
110	0xb8f86c48	-0.000118457305
111	0x3a2a87c6	0.0006505217
112	0xb9aacb88	-0.0003257657
113	0x39deaf8d	0.00042473935
114	0xb6c8a426	-5.979574e-06
115	0xba6524cf	-0.00087411416
116	0xba80f5b6	-0.0009838853
117	0x3a04005d	0.00050354545
118	0x38b300ec	8.535557e-05
119	0x383bfe8b	4.4821336e-05
120	0x3a836b38	0.001002646
121	0x3a913554	0.0011078515
122	0xba09205b	-0.00052309566
123	0xba25bafe	-0.00063221145
124	0xb929f8b2	-0.00016209742
125	0x39b19e65	0.00033878084
126	0xb9946d55	-0.00028310218
127	0xba8fadaa	-0.001096179
128	0x393ceb3d	0.0001801671
129	0x39d54af4	0.0004068237
130	0x39f03045	0.0004581233
131	0xbadabe9f	-0.001668889
132	0xb83b4952	-4.465256e-05
133	0xb920a11d	-0.00015318808
134	0x3b2dc230	0.002651345
135	0x3895ef30	7.149426e-05
136	0x39f5248a	0.00046757265
137	0xba820a80	-0.0009921342
138	0xb8e74bcd	-0.00011029057
139	0xbae302b3	-0.001731953
140	0xb962f88c	-0.0002164563
141	0x3a3af259	0.00071314495
142	0x39a8506d	0.0003210338
143	0xba4d625d	-0.00078347867
144	0x3a6fbe83	0.0009145515
145	0xbb020f34	-0.0019845488
146	0xb9875ddb	-0.00025819134
147	0x3aa8a94a	0.0012867835
148	0x3a29558a	0.00064595847
149	0x3a6ad4b7	0.00089580886
150	0xbabbcb74	-0.0014327602
151	0xb90273f6	-0.00012440965
152	0x3a1fbdd0	0.0006093653
153	0xba9da777	-0.0012028058
154	0xb99a4437	-0.00029423993
155	0xba6c7d76	-0.00090213807
156	0x39bdc37e	0.00036194542
157	0xb6ff8df2	-7.616117e-06
158	0x3967fa89	0.00022123208
159	0xb9afd7c5	-0.00033539362
160	0xba80e3d0	-0.0009833518
161	0x3a90c105	0.0011043852
162	0xba007288	-0.0004899879
163	0x38ecc9a5	0.00011290916
164	0x3a1f6f2c	0.00060819346
165	0xb9809413	-0.00024524386
166	0xba91631e	-0.0011092161
167	0xb8ee0b49	-0.000113508264
168	0xbab01c94	-0.0013436251
169	0x39e29508	0.00043217116
170	0xbaf1f4ac	-0.0018459759
171	0xb954303d	-0.00020235866
172	0x399f0d0a	0.00030336558
173	0x39384fb4	0.00017577299
174	0xb9e7e5a4	-0.0004423085
175	0xb8042de2	-3.1513984e-05
176	0xbb09bc9c	-0.002101696
177	0x38f08df1	0.000114705304
178	0xb9ef7187	-0.00045670217
179	0x394c5235	0.0001948558
180	0x394c73fb	0.00019498162
181	0x3ab3712e	0.0013690346
182	0x3a130f25	0.00056098617
183	0x39d102f1	0.00039865778
184	0xba76846a	-0.00094038865
185	0xba3cd40c	-0.00072032283
186	0xba75c5f3	-0.0009375505
187	0xba9dd4bc	-0.0012041549
188	0xba13246e	-0.00056130334
189	0x3a5e95ed	0.00084909686
190	0x38b253d3	8.503315e-05
191	0xb89e1fa7	-7.539923e-05
192	0xb9f12247	-0.0004599264
193	0xb9971772	-0.00028818432
194	0xba4eb59d	-0.0007885339
195	0x3a88ac1f	0.0010427273
196	0x3ac02214	0.0014658594
197	0xb9d1d22e	-0.00040020182
198	0xbb4aaa93	-0.0030924424
199	0x39db9429	0.00041881323
200	0xb8e15db2	-0.00010746288
201	0xbb1c13af	-0.0023815443
202	0xb9964de8	-0.00028668274
203	0x3ae0291f	0.0017102099
204	0xbad7442d	-0.0016423516
205	0xba0534a2	-0.000508139
206	0xba52af7f	-0.0008037015
207	0xba0ff6be	-0.00054917845
208	0x3a93582a	0.0011241485
209	0xba5da22b	-0.0008454646
210	0x39077e36	0.0001292162
211	0xbacb2822	-0.0015499631
212	0x370d43e1	8.420059e-06
213	0xb8cd8dfc	-9.8016084e-05
214	0xb95858e3	-0.00020632478
215	0xb982b986	-0.00024933758
216	0x3a043846	0.0005043786
217	0xba091096	-0.0005228607
218	0xba40baf6	-0.0007352078
219	0x3a166f58	0.00057386374
220	0x3a91d73f	0.001112677
221	0x3b0e5d7f	0.0021723208
222	0xb92ae9bd	-0.00016299538
223	0x3a3dd214	0.0007241082
224	0xb87bdbf7	-6.004792e-05
225	0xbac6ad0a	-0.0015157771
226	0x39882398	0.0002596646
227	0x39f9a0c6	0.00047612767
228	0x3af1016b	0.0018387263
229	0x3a802a94	0.0009778314
230	0xb917c50e	-0.00014473891
231	0x3a9d1019	0.0011982947
232	0x39ab2a15	0.00032647015
233	0xb99ac803	-0.0002952219
234	0x3a323d36	0.0006799282
235	0x3a5b94b7	0.0008376347
236	0x3a3e46f7	0.00072584994
237	0xb94abc47	-0.0001933436
238	0x393a197d	0.00017747837
239	0xba05fe73	-0.0005111463
240	0xba1f6ec8	-0.00060818763
241	0xba530e73	-0.00080511643
242	0xba4f0de6	-0.00078984944
243	0xba94a29b	-0.0011339964
244	0x3995d323	0.00028576804
245	0xb967c55c	-0.00022103399
246	0xb901c765	-0.00012376679
247	0xbadf0af8	-0.0017016819
248	0xbaae344b	-0.0013290731
249	0x3a0545ec	0.00050839665
250	0x3ad659a2	0.0016353617
251	0x39e76114	0.00044132082
252	0xbaf2e38a	-0.0018530947
253	0x3b1b617f	0.0023709235
254	0x3aa1282a	0.0012295295
255	0xbad687f6	-0.0016367424

exp_avg_sq f4 [128, 30]
0	0x3812916e	3.4944554e-05
1	0x37bcc63c	2.2503657e-05
2	0x37e4191a	2.7191407e-05
3	0x37ef6980	2.8540147e-05
4	0x380394a0	3.137125e-05
5	0x37398ec8	1.1060103e-05
6	0x37ec31bd	2.8156554e-05
7	0x37ae52a4	2.0780899e-05
8	0x37e91287	2.7784392e-05
9	0x37ad82d8	2.0684136e-05
10	0x37df606b	2.662857e-05
11	0x37bd3e4c	2.2559565e-05
12	0x37bd2e5e	2.2552147e-05
13	0x38274ce9	3.988753e-05
14	0x37e4fe00	2.7297996e-05
15	0x37af9a7f	2.0933569e-05
16	0x379e2115	1.8850473e-05
17	0x37a8be78	2.0115855e-05
18	0x37d3d30a	2.5251433e-05
19	0x37b675f3	2.1751015e-05
20	0x3704a1e9	7.905511e-06
21	0x37adaa3e	2.0702482e-05
22	0x374da06b	1.2256302e-05
23	0x3749170d	1.19859005e-05
24	0x37adc820	2.0716398e-05
25	0x376fe58f	1.4298958e-05
26	0x36c11769	5.7545735e-06
27	0x37628d2b	1.3503518e-05
28	0x3726da74	9.945234e-06
29	0x377752dd	1.474164e-05
30	0x378f869d	1.7109613e-05
31	0x380fa51a	3.424762e-05
32	0x38012135	3.0786923e-05
33	0x37d61d14	2.5524329e-05
34	0x3809c654	3.2848053e-05
35	0x37fb68a4	2.9970259e-05
36	0x381a087f	3.6724374e-05
37	0x3796a64b	1.795883e-05
38	0x382e0b73	4.1495496e-05
39	0x37985dcc	1.816349e-05
40	0x38123632	3.4859586e-05
41	0x37de152c	2.6474321e-05
42	0x38309586	4.2100924e-05
43	0x3824a3cd	3.92532e-05
44	0x379622ea	1.7897652e-05
45	0x37fd2ac5	3.0179866e-05
46	0x37be6410	2.269636e-05
47	0x381b5505	3.703406e-05
48	0x3823e69b	3.9076996e-05
49	0x37de7540	2.6519061e-05
50	0x3740761f	1.1471594e-05
51	0x3820b742	3.8317645e-05
52	0x376b8408	1.4037832e-05
53	0x378f6880	1.709559e-05
54	0x380799b4	3.2329655e-05
55	0x37c57a9e	2.3541328e-05
56	0x37726ea5	1.44500855e-05
57	0x380795c3	3.2325985e-05
58	0x378554cb	1.589432e-05
59	0x37f87b0f	2.9621207e-05
60	0x37137436	8.78894e-06
61	0x37974515	1.8032772e-05
62	0x37536950	1.26011e-05
63	0x37a3bf3c	1.9520165e-05
64	0x37849c27	1.580834e-05
65	0x37428d7e	1.1596245e-05
66	0x3769aa4d	1.39275335e-05
67	0x3717dbd6	9.051486e-06
68	0x3772c1a4	1.44694095e-05
69	0x37232751	9.724711e-06
70	0x3736a62f	1.0886738e-05
71	0x371faa65	9.516812e-06
72	0x378f3023	1.7069344e-05
73	0x376e7b46	1.4214607e-05
74	0x36b8de20	5.509486e-06
75	0x378b796a	1.6626629e-05
76	0x37023eec	7.763254e-06
77	0x378126b7	1.5396026e-05
78	0x37686ab6	1.3853123e-05
79	0x375d34fc	1.3184963e-05
80	0x369b5953	4.6297587e-06
81	0x37792e79	1.4852377e-05
82	0x36d6b105	6.398305e-06
83	0x37335f37	1.06914e-05
84	0x374f712d	1.2364512e-05
85	0x372f1975	1.043674e-05
86	0x36cdce00	6.1334576e-06
87	0x37557b0d	1.2724439e-05
88	0x3700500d	7.648033e-06
89	0x377b7108	1.4987083e-05
90	0x3684b181	3.9545707e-06
91	0x36d5bbd9	6.369763e-06
92	0x365389d6	3.1521681e-06
93	0x36bc18df	5.605732e-06
94	0x36b5aabe	5.4140974e-06
95	0x3641611b	2.8815764e-06
96	0x3669740b	3.4787251e-06
97	0x36172091	2.251971e-06
98	0x36b7e8b7	5.4809166e-06
99	0x36166c45	2.2414763e-06
100	0x3686089a	3.9945126e-06
101	0x365d19a1	3.2946484e-06
102	0x368fe01c	4.287822e-06
103	0x368bc61c	4.165586e-06
104	0x36166168	2.240844e-06
105	0x36918fb6	4.338067e-06
106	0x365c6472	3.2841021e-06
107	0x36a0e4a4	4.794989e-06
108	0x36800c85	3.8161547e-06
109	0x366c8736	3.5245444e-06
110	0x35bc47d9	1.4028002e-06
111	0x366c5a75	3.5219393e-06
112	0x3623c7ad	2.440512e-06
113	0x362d93c2	2.5865015e-06
114	0x36567741	3.19579e-06
115	0x3673b92b	3.6317604e-06
116	0x35cb6b28	1.5155865e-06
117	0x364a84f1	3.0177728e-06
118	0x361b2a44	2.3121402e-06
119	0x3668acc5	3.467126e-06
120	0x374e972e	1.2313756e-05
121	0x37ea2791	2.7913398e-05
122	0x37b50a31	2.1581627e-05
123	0x37893d09	1.6360094e-05
124	0x37bd1632	2.2540891e-05
125	0x377e0c08	1.5142381e-05
126	0x37bc854e	2.2473421e-05
127	0x373730fb	1.0919054e-05
128	0x37bbb4e6	2.2376375e-05
129	0x3735c296	1.0833746e-05
130	0x37a09222	1.9141535e-05
131	0x378f8984	1.7110964e-05
132	0x37cb0814	2.4203247e-05
133	0x37a761b7	1.9953453e-05
134	0x373713c7	1.0912255e-05
135	0x37993263	1.8262484e-05
136	0x377deccd	1.513511e-05
137	0x37ce710a	2.4609752e-05
138	0x37c21742	2.3137432e-05
139	0x37aaf224	2.0378335e-05
140	0x3717534c	9.019695e-06
141	0x37bc8056	2.2471108e-05
142	0x37367f0c	1.0877626e-05
143	0x37375653	1.0927749e-05
144	0x37ae8c23	2.0807673e-05
145	0x376d6999	1.4150887e-05
146	0x3717eda3	9.0556305e-06
147	0x37a2fa5d	1.942849e-05
148	0x37468b6b	1.183418e-05
149	0x379e7a74	1.889209e-05
150	0x36dbe21c	6.553031e-06
151	0x37448919	1.1714431e-05
152	0x374e192b	1.2284417e-05
153	0x371a4314	9.194733e-06
154	0x37528963	1.2548963e-05
155	0x371157fd	8.66316e-06
156	0x375b0841	1.3055339e-05
157	0x36f51bd6	7.3048095e-06
158	0x373aac06	1.1126516e-05
159	0x36fec627	7.592858e-06
160	0x3726c87e	9.941052e-06
161	0x371e16cf	9.422844e-06
162	0x372505eb	9.836144e-06
163	0x3724fe35	9.834349e-06
164	0x36bb28b4	5.5777728e-06
165	0x3718d0e4	9.108542e-06
166	0x36f65489	7.3412125e-06
167	0x376df7af	1.4183969e-05
168	0x376f224d	1.4253496e-05
169	0x37417f9f	1.15334105e-05
170	0x36b678bd	5.4380785e-06
171	0x37637dea	1.3559571e-05
172	0x36c60cc9	5.902348e-06
173	0x36a3f6b7	4.8865e-06
174	0x3740ffb2	1.15036255e-05
175	0x3727a805	9.993096e-06
176	0x36c4e5d5	5.868011e-06
177	0x373ba6cb	1.1184903e-05
178	0x36d96b1b	6.4795727e-06
179	0x371c7327	9.325136e-06
180	0x37294ad4	1.0090607e-05
181	0x37ad30af	2.0645877e-05
182	0x379ebfa1	1.8924302e-05
183	0x37bb0b0e	2.2297285e-05
184	0x37c2683d	2.3175142e-05
185	0x375d8d00	1.3205456e-05
186	0x37d06506	2.4842575e-05
187	0x3735f433	1.0845298e-05
188	0x37f75bab	2.948738e-05
189	0x373b3a6f	1.1159674e-05
190	0x37cd151f	2.444774e-05
191	0x3789249d	1.6348722e-05
192	0x37ebcaaf	2.8108565e-05
193	0x37e78902	2.7601145e-05
194	0x36fc0955	7.5112716e-06
195	0x37b9ad4c	2.2134416e-05
196	0x3785e270	1.5960279e-05
197	0x37c73453	2.3747014e-05
198	0x37f36cf8	2.90186e-05
199	0x37a94e40	2.0182808e-05
200	0x3746582f	1.18222515e-05
201	0x37cf6a8b	2.4725936e-05
202	0x37563b4a	1.2769198e-05
203	0x3747851b	1.1892315e-05
204	0x37b943cb	2.2085287e-05
205	0x378da408	1.6884893e-05
206	0x373cd740	1.125579e-05
207	0x37aab504	2.0349871e-05
208	0x3739db82	1.1077967e-05
209	0x37aac153	2.0355603e-05
210	0x36a9b313	5.0574395e-06
211	0x379373d4	1.7577702e-05
212	0x3726a5a8	9.932941e-06
213	0x37a24a4a	1.9346498e-05
214	0x373ec7b8	1.1371383e-05
215	0x36d7e6db	6.4343744e-06
216	0x375d8189	1.3202786e-05
217	0x36745a2f	3.6411327e-06
218	0x3793f566	1.7638038e-05
219	0x367ff5c4	3.8141015e-06
220	0x374de8e8	1.227318e-05
221	0x3713de20	8.8136e-06
222	0x3768410a	1.3843421e-05
223	0x37331ca3	1.0675899e-05
224	0x362c09e7	2.5635761e-06
225	0x375341d0	1.2591903e-05
226	0x36e531d4	6.8305326e-06
227	0x36f11db5	7.185818e-06
228	0x37594a04	1.2951441e-05
229	0x37164263	8.956154e-06
230	0x36860225	3.993761e-06
231	0x377810d7	1.4785873e-05
232	0x369a4931	4.5980782e-06
233	0x37146537	8.845053e-06
234	0x374d03e0	1.2219854e-05
235	0x3709ed56	8.221095e-06
236	0x36c3b065	5.831988e-06
237	0x3749d98c	1.2031185e-05
238	0x36c08846	5.73791e-06
239	0x375bbddd	1.3097623e-05
240	0x36c16d1f	5.7645516e-06
241	0x37f7b710	2.952994e-05
242	0x378aef10	1.6562204e-05
243	0x374eec4f	1.2333577e-05
244	0x378a0ccf	1.6456846e-05
245	0x37824ec9	1.5533895e-05
246	0x37be3c74	2.2677916e-05
247	0x370ffedc	8.582803e-06
248	0x3740c567	1.1490053e-05
249	0x37135f6f	8.784103e-06
250	0x372867b2	1.0037724e-05
251	0x372bcb2e	1.0239701e-05
252	0x37c39401	2.3314731e-05
253	0x37849d18	1.5808779e-05
254	0x36c23cda	5.7887346e-06
255	0x37a437fa	1.957639e-05
