training/runs/WalkBot/nn/WalkBot.pth (torch, 267394 bytes, 30 tensors)

running_mean f8 [30]
0	0x3fc759a8d66655e6	0.18242369145143228
1	0xbfc9ea2baa812bc0	-0.20245881867808002
2	0xbfb3c8adff265046	-0.07728087882270626
3	0xbfd5bfdb1c0d947a	-0.33983495463900903
4	0xbfc3b5bca6e64068	-0.15398367070565944
5	0xbfa2b7cd1d1e968c	-0.036558542065262406
6	0x3f9cad220eed6a3d	0.028004200135322888
7	0x4011de425d3a4b8a	4.467050034220742
8	0x3ffa4e6147aafa41	1.6441357421423535
9	0xc012aeb5b5c4a765	-4.670615043762017
10	0xbfae6cbd33c5b4ee	-0.05942336327539431
11	0xbfad08a812676c67	-0.056706669088918464
12	0xbfa4c6114a280ff4	-0.04057363538962014
13	0xbfdf57ccbf2744a0	-0.48973387400935486
14	0x3fd9f6560e132927	0.4056601655435252
15	0x3f9e37c48465ad00	0.029509611683733006
16	0xbfd8feee81b0e348	-0.39055979409345243
17	0x3fe28aec897eff79	0.579458492800753
18	0xbfa6232cecef89d0	-0.04323711769372418
19	0xbf804ee39d9d6887	-0.007962969062351511
20	0x3f8d18c245263a0c	0.014207380042333483
21	0x3f91efa12b38ceea	0.017515676749282706
22	0xbf8be8e2e2fab320	-0.013627789069994345
23	0xbfbf68e399c24a35	-0.1226942301166581
24	0x3f9915db39f54eea	0.02449743787049289
25	0xbfc140257b513273	-0.13477009316774832
26	0x3fcd4a2fd1c98f67	0.22882650130770374
27	0xbfac9576e5b6d178	-0.055827823201442806
28	0xbfd7e41708e3f860	-0.37329650753225074
29	0x3fc111bdd5556edb	0.13335392872510607

running_var f8 [30]
0	0x3f3840d6b3bebf7f	0.0003700756240005917
1	0x3fa39c55e6ca3605	0.0383021206117569
2	0x3fbaacc765a8d5ba	0.10419889671250973
3	0x3fab80490e58853a	0.05371311473960323
4	0x4024d18d72e1f7f6	10.409282293399865
5	0x4015f6bd8fb8b284	5.490957494400053
6	0x402c92e234965911	14.286882060387628
7	0x4000f9894250c37a	2.1218438321015443
8	0x3fad5d6a7bc6ea2e	0.05735333214711989
9	0x3fef36282f9ca10f	0.9753609590452771
10	0x3fafeceeeae804a4	0.06235453240879821
11	0x3fad6c1c1e0ecb31	0.057465437573588914
12	0x3faf721a1da37c4b	0.06141740428733352
13	0x3fb7007998c9e43d	0.08985099773589496
14	0x3fa776d4511317c6	0.04582847108535719
15	0x3fa95e086df13631	0.049545539303477056
16	0x3fa574e161aa5b71	0.04190735165791793
17	0x3fbde11a87fd1024	0.11671605892212306
18	0x400c1c578f9ec732	3.513838884385131
19	0x40112fada3934c8c	4.296560817590159
20	0x4012af23028cb176	4.671031989896042
21	0x4009977b096cc131	3.1989651428522383
22	0x4004e5247a463898	2.611885981815316
23	0x40114b4e97b6caec	4.323541994601992
24	0x3fe4572e7be8296a	0.6356422824913299
25	0x3fe29a8e744afee9	0.581366755613968
26	0x3fe1bd3e5e6615bd	0.5543510287977181
27	0x3fe513c31d6a9e6d	0.6586623739758132
28	0x3fd78ed6cbcf8818	0.368093203576906
29	0x3fe6a740194ea7bd	0.7079163069040458

count f8 []
0	0x416d800020000000	15466497.0

running_mean f8 [1]
0	0x3ffda71d41568e17	1.8532993843335868

running_var f8 [1]
0	0x3fffbb4e71257fba	1.9832291049751647

count f8 []
0	0x414d800080000000	3866625.0

a2c_network.sigma f4 [6]
0	0xbf9e8ce8	-1.2386751
1	0xbf8819dc	-1.0632892
2	0xbf2ee2dd	-0.68314916
3	0xbfa49e94	-1.2860894
4	0xbf9fd7f7	-1.2487782
5	0xbf348154	-0.7050984

a2c_network.actor_mlp.0.weight f4 [128, 30]
0	0x3e6d6caf	0.23185991
1	0xbee747e3	-0.45172033
2	0x3df98a21	0.12184549
3	0x3e193d31	0.14964749
4	0xbcfd55cb	-0.030924698
5	0x3e5640ad	0.2092311
6	0x3e13c116	0.14429125
7	0x3cd1934e	0.025582936
8	0x3e4d789c	0.2006554
9	0x3ddf99dd	0.10918019
10	0xbb9a02cd	-0.004700041
11	0xbbaad6f6	-0.0052136136
12	0x3e8a45ba	0.27006322
13	0x3e52b564	0.20577008
14	0x3e1617a6	0.14657459
15	0xbeb2ba35	-0.3490769
16	0x3d8ee075	0.069764055
17	0xbdb3148d	-0.08744154
18	0x3e0eac1c	0.13932842
19	0xbdd226d8	-0.10261315
20	0xbdf98b1a	-0.12184735
21	0xbd88673c	-0.066603154
22	0xbd099c0a	-0.033596076
23	0x3e043ab9	0.12913026
24	0x3dec6a40	0.11543703
25	0x3ccf63d0	0.025316149
26	0x3d351f95	0.044219572
27	0x3c66de88	0.0140911415
28	0x3de123e9	0.109931774
29	0xbd9e65d4	-0.07734266
30	0xbc739c11	-0.014868752
31	0xbe77df5f	-0.24206303
32	0x3dd7a884	0.10530189
33	0xbed73e16	-0.42039555
34	0xbdaeb9b4	-0.08531514
35	0x3dd7effd	0.10543821
36	0x3e0c7583	0.13716702
37	0xbe13a295	-0.14417489
38	0xbe9436b4	-0.28947985
39	0xbd6e88e0	-0.058236003
40	0x3e588c5f	0.21147297
41	0x3e131ef3	0.14367275
42	0x3e081b78	0.13291728
43	0xbefb637e	-0.49099344
44	0xbe4c5e00	-0.19957733
45	0xbd92f6e4	-0.07175997
46	0xbecbb499	-0.39786223
47	0xbe984112	-0.29737145
48	0xbe8961fa	-0.26832563
49	0x3e2377f2	0.15963724
50	0xbdf878d0	-0.12132418
51	0xbe4846e5	-0.19558294
52	0x3e6f0a40	0.23343754
53	0xbd836ee9	-0.06417639
54	0x3d5fb51f	0.05461609
55	0xbce10846	-0.027469765
56	0x3d2ce24c	0.042208
57	0xbd836720	-0.06416154
58	0xbdb2b1be	-0.08725308
59	0x3e332920	0.17496157
60	0x3e0f49df	0.13993023
61	0x3e256196	0.16150507
62	0xbd4080f3	-0.046997976
63	0x3e3904a4	0.18068177
64	0xbdcbf664	-0.09959105
65	0xbe66d59e	-0.22542426
66	0x3dcd8ac4	0.10036233
67	0xbe530656	-0.20607886
68	0xbb806a29	-0.0039189053
69	0xbe7b99e6	-0.24570426
70	0xbd43f5b9	-0.04784176
71	0x3d914156	0.0709254
72	0x3c67d615	0.014150162
73	0xbea2ed75	-0.3182179
74	0xbd2d102c	-0.04225175
75	0xbe3c85f4	-0.18410474
76	0xbe78927c	-0.2427463
77	0xbe391287	-0.18073474
78	0xbdc9dbd1	-0.0985638
79	0xbe0f8996	-0.14017329
80	0x3db5d0db	0.08877727
81	0x3dd30d1b	0.10305234
82	0x3c91a839	0.01778041
83	0xbda7a511	-0.08185781
84	0xbdae10c0	-0.084992886
85	0xbd7518ff	-0.05983829
86	0x3daf84b9	0.08570237
87	0xbe622d20	-0.22087526
88	0xbe05a01d	-0.1304936
89	0xbe0ccb8d	-0.13749523
90	0x3e7ab0c0	0.24481487
91	0x3cc8da2f	0.0245181
92	0x3e95ec52	0.2928186
93	0xbe5fcebe	-0.2185621
94	0xbcace5c1	-0.021105649
95	0x3df3c701	0.11903191
96	0xbd0b7762	-0.0340494
97	0xbd64f0fc	-0.055893883
98	0xbd5212d3	-0.051287483
99	0xbd90b671	-0.07066048
100	0x3ecb5480	0.39712906
101	0x3e0d8b43	0.13822655
102	0xbd8f4fa5	-0.06997613
103	0x3ea32d48	0.31870484
104	0x3dc6fccd	0.09716187
105	0x3d61956d	0.055074144
106	0xbdfeedd8	-0.12447709
107	0xbead1381	-0.33803943
108	0xbca0fcbf	-0.019651769
109	0x3d1b2529	0.037877236
110	0x3d1de042	0.038543947
111	0x3b76ad71	0.003764
112	0x3e70cc44	0.23515421
113	0xbdfb8c10	-0.12282574
114	0xbcd28592	-0.025698457
115	0xbe006deb	-0.1254193
116	0x3e936464	0.2878753
117	0x3e03d84a	0.12875476
118	0x3e8e3806	0.27777117
119	0xbd956865	-0.07295302
120	0x3c3cbdb2	0.011519836
121	0xbeaa939e	-0.33315748
122	0xbd3862f2	-0.045016237
123	0xbe148afd	-0.14506145
124	0x3c2c614a	0.010521242
125	0xbe7db959	-0.24777736
126	0x3e13a936	0.14420018
127	0x3e1d7eef	0.15380453
128	0xbe8a2c75	-0.26987043
129	0x3d1025f9	0.035192464
130	0x3ebf3feb	0.37353453
131	0x3e42fdb8	0.19042099
132	0x3e21db7b	0.15806381
133	0xbeb474f5	-0.3524548
134	0xbe80b915	-0.25141206
135	0xbd3a6111	-0.045502726
136	0xbd2ab0f4	-0.041672662
137	0xbd99fbbb	-0.07518717
138	0x3d950bb1	0.072776206
139	0xbe2a8b4e	-0.16654703
140	0x3ca7bb71	0.020475121
141	0xbd82ecf8	-0.063928545
142	0x3dca4c1a	0.098777965
143	0x3dc02277	0.09381574
144	0xbdf7a9fc	-0.12092969
145	0x3e43da18	0.19126165
146	0xbbff2819	-0.0077867624
147	0xbd21a706	-0.039465927
148	0x3df41bd4	0.1191937
149	0xbe15d39d	-0.14631505
150	0x3ebf691a	0.37384874
151	0xbe41a712	-0.18911389
152	0x3e851ac1	0.25996974
153	0xbd4e30b6	-0.050339423
154	0x3e58b5e7	0.2116314
155	0x3e0e6d47	0.13908873
156	0x3d354b88	0.044261485
157	0xbd021b15	-0.03176411
158	0xbcf60a05	-0.030034075
159	0xbb944425	-0.004524725
160	0x3d0ddd9d	0.034635175
161	0xbe3c6d59	-0.18401088
162	0x3db8a628	0.09016067
163	0x3e86b2cc	0.26308286
164	0xbe1548bf	-0.14578532
165	0xbe0eeaf9	-0.13956822
166	0x3d15c553	0.036565136
167	0x3e5629df	0.2091441
168	0x3e25f45e	0.162065
169	0x3e537e3d	0.20653625
170	0xbd89b5d8	-0.06724137
171	0x3ce4a903	0.027912622
172	0x3e10bc6c	0.14134377
173	0xbd2df4e0	-0.04246986
174	0xbe3a39fb	-0.1818618
175	0xbe2b68fe	-0.1673927
176	0x3d2a7ea8	0.041624695
177	0xbe4c5113	-0.19952802
178	0xbe05408c	-0.13012904
179	0xbdf254a5	-0.11832551
180	0x3dc15493	0.094399594
181	0x3d83866e	0.06422125
182	0xbe08b78d	-0.13351269
183	0xbe1bf7f2	-0.15231302
184	0xbdf8eb8a	-0.121543005
185	0xbc830f5f	-0.01599854
186	0x3d58a865	0.05289497
187	0xbd987675	-0.07444469
188	0x3e17f160	0.14838171
189	0xbda010f8	-0.078157365
190	0xbe4c444c	-0.19947928
191	0x3daf6748	0.08564621
192	0xbc09a6ac	-0.008401554
193	0xbe7f432e	-0.24927971
194	0xbe3ce4a8	-0.184466
195	0xbe52a4fd	-0.2057075
196	0x3e1c8499	0.15284957
197	0x3da53e4e	0.08068524
198	0xbc9919d1	-0.018689068
199	0xbe64b519	-0.22334708
200	0xbe79d5ac	-0.24397916
201	0x3e202f56	0.15643057
202	0x3e4bce52	0.19902924
203	0x3d8891c4	0.066684276
204	0x3d665e95	0.056242544
205	0x3da0a168	0.07843286
206	0xbd8cf963	-0.06883504
207	0xbe8775e2	-0.26457125
208	0xbd0e1e4c	-0.034696862
209	0xbe904a45	-0.28181663
210	0x3e9de03a	0.30835134
211	0xbe70d9ea	-0.23520628
212	0xbdb4287b	-0.087967835
213	0xbe0638db	-0.13107626
214	0x3e1a83ce	0.15089342
215	0x3cab0e52	0.020880852
216	0xbcc82efd	-0.024436468
217	0x3e4355fc	0.19075769
218	0xbd30cd5e	-0.043164603
219	0x3e0bda96	0.13657603
220	0x3c244193	0.0100254
221	0xbdf6e8e0	-0.12056136
222	0xbdd51142	-0.10403682
223	0x3dba2c77	0.09090512
224	0xbcb42a13	-0.021992719
225	0xbdf3de1f	-0.119076006
226	0xbd85a680	-0.06525898
227	0xbe136446	-0.1439372
228	0x3d3acfe6	0.045608424
229	0x3d86805a	0.0656745
230	0x3e1aefb7	0.15130506
231	0xbdb3aa45	-0.08772711
232	0x3e016dda	0.12639561
233	0xbd6c2f47	-0.057662275
234	0x3e4e1197	0.20123897
235	0x3d0c8b0e	0.0343123
236	0xbd4c6403	-0.049900066
237	0x3df73478	0.120705545
238	0xbdf7e688	-0.12104517
239	0xbc34aed1	-0.011028008
240	0x3e1b6e95	0.15178902
241	0xbe521ce3	-0.20518832
242	0x3ebe3abb	0.37154183
243	0x3f078d63	0.52950114
244	0x3e88f79e	0.26751417
245	0xbe29ae71	-0.1657045
246	0xbe28237a	-0.16419783
247	0x3e455cc5	0.1927367
248	0x3e83b4a3	0.25723752
249	0x3da0e14f	0.07855474
250	0xbea2f2bd	-0.3182582
251	0xbe3634c9	-0.17793573
252	0x3da9bd67	0.08288079
253	0x3e0544d4	0.13014537
254	0x3c209ed2	0.009803491
255	0xbe88ddce	-0.26731724

a2c_network.actor_mlp.0.bias f4 [128]
0	0xbed910f0	-0.42395735
1	0x3e39617b	0.18103592
2	0x3e7bcde6	0.24590263
3	0x3e88f609	0.2675021
4	0x3e33ccb5	0.17558558
5	0xbe0bccf7	-0.13652407
6	0xbe5c5525	-0.21516855
7	0xbded551a	-0.115884975
8	0xbeaa00f9	-0.33203867
9	0xbe0a76dc	-0.13521904
10	0xbd7d77ae	-0.061881714
11	0xbe6dd53b	-0.23225872
12	0x3e3fd9a7	0.18735372
13	0xbe6d964e	-0.23201868
14	0x3e5ba675	0.21450217
15	0x3e723dde	0.23656413
16	0x3d95bae3	0.073110364
17	0xbe8571cc	-0.26063383
18	0xbe96ada4	-0.29429352
19	0xbdf87030	-0.12130773
20	0xbe6c827f	-0.23096655
21	0xbe2a4016	-0.1662601
22	0xbe41903f	-0.18902682
23	0xbeb2697c	-0.34846103
24	0xbdddb108	-0.10824782
25	0x3ea48959	0.32136038
26	0xbd68fdad	-0.05688255
27	0x3cb761c7	0.022385491
28	0xbe9c282b	-0.30499396
29	0xbe75bd28	-0.23997939
30	0x3e68bb18	0.2272762
31	0x3c95a789	0.018268364
32	0xbddd2cee	-0.10799585
33	0xbdc0f8dd	-0.09422467
34	0xbe547598	-0.20747983
35	0xbe828226	-0.2548992
36	0xbe87c89b	-0.26520237
37	0xbe8e1ae3	-0.27754888
38	0xbded9a27	-0.11601668
39	0xbea8f8bf	-0.33002278
40	0x3dd2b94f	0.10289251
41	0xbe99e38c	-0.30056417
42	0xbd7d7163	-0.061875712
43	0xbe859efd	-0.2609786
44	0xbdabb5bc	-0.083842725
45	0xbd6723df	-0.056430694
46	0x3d3e9023	0.04652418
47	0xbe50219d	-0.20325322
48	0xbe340650	-0.17580533
49	0xbe355d4d	-0.17711373
50	0xbe517fc0	-0.20458889
51	0xbe713840	-0.23556614
52	0x3e5a255b	0.21303312
53	0xbd2c7f43	-0.042113554
54	0x3ce6ddf7	0.028182013
55	0xbec45531	-0.38346246
56	0xbedfc815	-0.43707338
57	0xbe72b3ed	-0.23701449
58	0xbe5a9cc0	-0.21348858
59	0xbc83959d	-0.016062552
60	0xbe1f24ad	-0.15541334
61	0x3e90e8f9	0.28302744
62	0x3e5143f4	0.20436078
63	0xbe9c73cc	-0.30557096
64	0x3d6a4eda	0.057204105
65	0x3e7bc36f	0.24586271
66	0x3e8969e4	0.268386
67	0xbd50ca7a	-0.050974347
68	0xbd840bb3	-0.06447544
69	0xbed10e33	-0.40831146
70	0xbdcdee62	-0.100552335
71	0xbe2172bf	-0.15766428
72	0x3dc0bd3f	0.09411096
73	0xbe21dc66	-0.15806732
74	0x3ea286cb	0.31743464
75	0xbe320792	-0.173857
76	0xbeaa50b5	-0.332647
77	0xbed120d0	-0.40845346
78	0x3ba41f1d	0.005008592
79	0x3dda3d47	0.10656219
80	0x3db8e6db	0.09028407
81	0xbeaa72cf	-0.33290717
82	0x3def19e2	0.11674859
83	0x3d5d50ad	0.054032017
84	0x3db1439f	0.08655476
85	0x3e7c3a98	0.24631727
86	0x3e164a68	0.14676821
87	0x3d0bb354	0.034106568
88	0x3d93dab9	0.072194524
89	0xbe43a356	-0.19105276
90	0xbd051797	-0.0324932
91	0xbef6f4c4	-0.48233616
92	0x3dfd2004	0.12359622
93	0xbea44dc9	-0.32090595
94	0xbe816b08	-0.2527697
95	0xbdd83dac	-0.10558638
96	0x3e07f8ea	0.13278547
97	0xbed0c366	-0.40774077
98	0xbc2f9447	-0.010716504
99	0xbe92738b	-0.28603777
100	0xbe1f3c1a	-0.1555027
101	0xbd1cf9da	-0.038324215
102	0xbe85208e	-0.260014
103	0xbcd06d1b	-0.02544265
104	0xbe9ec118	-0.31006694
105	0xbdea3ba8	-0.1143716
106	0x3e5534a0	0.20820856
107	0xbe75f741	-0.24020101
108	0xbe33d7f9	-0.17562856
109	0x3e453575	0.19258673
110	0x3d869132	0.065706626
111	0x3e94a3a6	0.29031104
112	0xbcf9aa23	-0.030476635
113	0xbe8900ae	-0.2675833
114	0x3df7b67d	0.12095354
115	0x3da2044d	0.079109766
116	0xbe0a0dd3	-0.13481836
117	0x3e838598	0.2568786
118	0xbe569499	-0.20955123
119	0x3cc8aece	0.024497416
120	0x3ded2a85	0.115803756
121	0x3e6ecb86	0.23319826
122	0x3d5704c0	0.052494764
123	0xbead3233	-0.3382736
124	0x3e382e9c	0.1798653
125	0xbe953b26	-0.2914669
126	0x3dffd13b	0.124910794
127	0xbe7aca40	-0.24491215

a2c_network.actor_mlp.2.weight f4 [128, 128]
0	0x3e80485e	0.25055212
1	0xbea72274	-0.32643473
2	0xbd262d07	-0.040570285
3	0xbdc2aa8c	-0.095051855
4	0xbe503a1a	-0.20334664
5	0x3e820eb4	0.25401843
6	0x3cd8f2e4	0.026483007
7	0x3dae69a3	0.08516242
8	0x3e5c785d	0.2153029
9	0xbd7ce283	-0.061739456
10	0xbd95aac1	-0.07307959
11	0xbe2f0647	-0.17092238
12	0x3c6e7e39	0.014556461
13	0x3e389b7c	0.18028063
14	0xbe0ed174	-0.13947088
15	0xbd59665f	-0.053076144
16	0x3d8c4136	0.068483755
17	0x3e0848ed	0.13309069
18	0x3e3e85a4	0.18605667
19	0xbe42ebbf	-0.19035242
20	0x3e941ad4	0.28926718
21	0x3d95b31f	0.07309555
22	0x3d7e777d	0.06212567
23	0x3e388e6d	0.18023081
24	0xbe19b4df	-0.15010403
25	0xbd8c3557	-0.06846111
26	0xbd1cd854	-0.038292244
27	0x3dca2766	0.09870796
28	0x3e28a3ef	0.16468786
29	0x3dbdbc68	0.09264451
30	0xbe0d967a	-0.13826934
31	0xbd62e64b	-0.055395406
32	0xbd1d5972	-0.03841538
33	0xbe366469	-0.17811741
34	0x3e8da62e	0.27665848
35	0xbdd81399	-0.10550613
36	0x3e01ec80	0.12687874
37	0x3dca475e	0.098768935
38	0x3daf118f	0.08548271
39	0x3e81c5d4	0.25346243
40	0x3da34921	0.079729326
41	0x3d79c13a	0.06097529
42	0x3d80e685	0.06293968
43	0x3e025aa1	0.12729885
44	0x3d48de41	0.049040083
45	0xbd646760	-0.05576265
46	0xbe2b6bf0	-0.16740394
47	0xbb14e1e5	-0.0022717651
48	0x3dba6b18	0.09102458
49	0x3e3ce6b0	0.18447375
50	0xbd91fc0f	-0.071281545
51	0xbce0b008	-0.027427688
52	0xbdc9f878	-0.09861845
53	0x3e6f17a9	0.2334887
54	0xbd89badc	-0.06725094
55	0x3e7b092d	0.24515219
56	0x3d9985ca	0.07496221
57	0x3e221540	0.15828419
58	0x3bcbfa62	0.0062249163
59	0xbd842f4c	-0.06454334
60	0x3c68ba7a	0.014204616
61	0x3c8e9414	0.017404594
62	0xbdb4ac97	-0.088219814
63	0x3e837188	0.25672555
64	0xbd9fee4d	-0.07809124
65	0x3cce3a46	0.025174271
66	0xbdc534a8	-0.09629184
67	0xbdf96d21	-0.12179018
68	0x3dc3fb3e	0.09569405
69	0x3d9d09c2	0.07667877
70	0x3e284a6b	0.16434638
71	0x3da09fcd	0.078429796
72	0xbdcc1961	-0.09965778
73	0x3d93543f	0.07193803
74	0xbe15f884	-0.14645582
75	0xbd41cece	-0.047316365
76	0x3e2d9c24	0.16954094
77	0x3e12feb7	0.14354979
78	0x3a5084d4	0.0007954363
79	0xbe78fd04	-0.24315268
80	0xbd82c841	-0.06385852
81	0x3e80df47	0.25170347
82	0xbdd584e7	-0.1042574
83	0xbd81963d	-0.06327484
84	0x3da80a17	0.082050495
85	0xbd3e3e2f	-0.04644602
86	0xbd8689ff	-0.065692894
87	0xbe40077d	-0.18752857
88	0xbeac26a2	-0.33623224
89	0x3e04f0ab	0.12982433
90	0x3be00537	0.006836559
91	0xbd0d008d	-0.034424353
92	0xbe6bbe99	-0.23021926
93	0x3e58a9bf	0.21158503
94	0xbe2466d1	-0.16054846
95	0xbc680ace	-0.014162732
96	0xbe1d9c67	-0.15391694
97	0x3df2fd1a	0.118646815
98	0xbe41accc	-0.18913573
99	0x3db02d98	0.08602446
100	0x3dfc9c25	0.1233447
101	0x3dfde720	0.12397599
102	0x3dd83ba3	0.1055825
103	0x3e00de56	0.12584814
104	0x3cc57fb7	0.02410875
105	0x3c368dde	0.011142222
106	0xbe1740de	-0.14770839
107	0xbd893ef9	-0.06701464
108	0xbd48207d	-0.04885911
109	0xbe5c2569	-0.21498646
110	0xbdaeed1c	-0.08541319
111	0xbde812bd	-0.11331699
112	0xbd576e73	-0.052595567
113	0x3e4c4f7d	0.19952197
114	0xbe16b779	-0.14718427
115	0xbc81479b	-0.015781214
116	0x3dadc358	0.084845245
117	0xbdbf4a2b	-0.09340318
118	0x3d7df4ae	0.062000923
119	0x3db75625	0.08951978
120	0x3d0678d5	0.03283008
121	0xbde3a8d5	-0.111161865
122	0xbd17d00f	-0.037063655
123	0xbc8655ca	-0.01639833
124	0xbcb0c04a	-0.021576066
125	0x3c844dff	0.016150473
126	0xbe5d0c75	-0.21586783
127	0xbd344f73	-0.04402108
128	0xbd3cf46c	-0.046131536
129	0xbcb47cfd	-0.022032255
130	0xbceb630e	-0.028733756
131	0xbcbab79a	-0.022792626
132	0xbcc19807	-0.023632063
133	0x3ceb122e	0.028695192
134	0x3ca25446	0.019815575
135	0x3d097d32	0.03356666
136	0xbb2164c0	-0.0024626702
137	0xbdc81137	-0.097689085
138	0xbe204041	-0.15649511
139	0x3c877190	0.016533643
140	0x3d403c4e	0.04693251
141	0x3d679a93	0.056543898
142	0x3d547b30	0.051875293
143	0xbe099a65	-0.13437803
144	0x3c82c50e	0.015963104
145	0x3da10ac9	0.07863385
146	0x3b9ae349	0.0047268015
147	0xbd1732a2	-0.03691352
148	0xbc86819e	-0.016419228
149	0x3e200931	0.15628506
150	0xbdfdf761	-0.124006994
151	0xbda3d825	-0.08000211
152	0x3da79189	0.081820555
153	0xbe088a5e	-0.13334033
154	0xbc9d7724	-0.01922185
155	0xbd87f2f7	-0.06638139
156	0x3c86a67c	0.016436808
157	0x3d01bd2b	0.031674545
158	0xbd5f9b4b	-0.05459146
159	0xbd0c29de	-0.034219615
160	0x3d597ef2	0.05309958
161	0x3dc90377	0.09815114
162	0x3e363777	0.17794596
163	0xbcb68d1e	-0.022284087
164	0x3d53e923	0.05173601
165	0xbdb2cbc0	-0.087302685
166	0x3dd8049c	0.10547754
167	0x3e157db1	0.14598729
168	0x3d25a752	0.040442772
169	0x3b3bf878	0.0028682034
170	0x3d2ee397	0.042697515
171	0xbd212a70	-0.039347112
172	0x3d767d23	0.060177933
173	0xbc9fb236	-0.019494157
174	0xbdc3aeb6	-0.09554808
175	0xbcc06142	-0.023483876
176	0x3bccb743	0.0062474324
177	0x3c8ec566	0.017428111
178	0x3d0fb1f2	0.03508181
179	0x3d76e458	0.06027636
180	0x3c1a5730	0.009420201
181	0x3e5298fd	0.20566173
182	0x3d9c536a	0.076330975
183	0x3dd5eb4e	0.104452714
184	0x3dadb550	0.08481848
185	0xbc9b69da	-0.018971372
186	0xbd8c4dbc	-0.06850764
187	0x3cd6d274	0.026223399
188	0x3dc598bc	0.096482724
189	0xbd7899ca	-0.06069354
190	0xbca689e0	-0.020329416
191	0xbd396730	-0.045264423
192	0x3e141416	0.14460787
193	0x3e1c5514	0.1526683
194	0x3ca61411	0.02027324
195	0x3d49c7d7	0.049262848
196	0x3cb385ed	0.021914447
197	0x3b3d06db	0.0028843198
198	0xbbaf9d8a	-0.0053593563
199	0x3d0573c3	0.032581102
200	0xbc3d1058	-0.011539541
201	0xbdd9a061	-0.10626293
202	0x3d1b4747	0.037909772
203	0x3cde5b74	0.027143218
204	0x3c1cc276	0.0095678475
205	0xbbe828b7	-0.0070849317
206	0xbb90ec1d	-0.004422678
207	0x3daaa775	0.08332721
208	0xbd72c188	-0.059266597
209	0x3d81d6b0	0.063397765
210	0x3d47d6f0	0.048788965
211	0xbd167b35	-0.036738593
212	0xbe1c8a70	-0.15287185
213	0xbd8a05eb	-0.0673941
214	0xbd860bb4	-0.06545201
215	0x3de00a28	0.10939437
216	0x3dfb5750	0.12272513
217	0xbde25cc3	-0.11052849
218	0x3c2335da	0.00996157
219	0x3d889af7	0.06670182
220	0x3dc0d33f	0.09415292
221	0xbcc59c95	-0.024122516
222	0xbdb58c21	-0.08864618
223	0xbd8a236b	-0.06745037
224	0x3d9b2bc8	0.0757671
225	0x3d2d91de	0.042375438
226	0xbd99178e	-0.07475196
227	0xbb609549	-0.0034268668
228	0x3c89730c	0.016778491
229	0x3dc947c7	0.098281436
230	0x3c9ee2d8	0.019395277
231	0xbe11eebc	-0.14251226
232	0x3e3a754f	0.18208812
233	0xbda51dc1	-0.08062316
234	0x3d85423c	0.06506774
235	0x3ca89e4b	0.020583292
236	0x3d8a640d	0.067573644
237	0x3d532acf	0.051554497
238	0xbdaf01cb	-0.08545264
239	0xbdc34700	-0.095350266
240	0x3d8f3d86	0.069941565
241	0xbd385ba1	-0.04500926
242	0x3c9bad6d	0.019003594
243	0xbdb26846	-0.08711295
244	0xbcdd1eec	-0.026992284
245	0x3dc9a5a5	0.09846047
246	0x3d8c1ebe	0.06841801
247	0xbe018426	-0.12648067
248	0x3d289008	0.041152984
249	0xbdc363ce	-0.095405206
250	0x3d321c9a	0.043484308
251	0x3cce0a33	0.025151348
252	0x3cfe0573	0.031008458
253	0x3d7ae340	0.06125188
254	0xbc3645b4	-0.011125017
255	0x3de3a051	0.11114562

a2c_network.actor_mlp.2.bias f4 [128]
0	0xbe6ef738	-0.23336494
1	0xbce64f04	-0.02811385
2	0xbda77e4a	-0.081783846
3	0x3db85d4d	0.09002171
4	0xbd6e3d41	-0.058163885
5	0x3af3cac5	0.0018599859
6	0xbddae821	-0.10688806
7	0xbda94308	-0.08264738
8	0xbddac147	-0.10681396
9	0x3d1fff54	0.03906186
10	0xbe8c0f34	-0.2735535
11	0xbc9e2e38	-0.019309148
12	0xbe566612	-0.20937374
13	0xbe41dd36	-0.18932042
14	0x3d078096	0.033081613
15	0xbe434c1a	-0.19071999
16	0xbb748772	-0.0037312177
17	0xbe2c6a80	-0.16837502
18	0xbd9e8c92	-0.077416554
19	0xbde76542	-0.1129861
20	0xbe154056	-0.14575323
21	0xbdf84f61	-0.12124515
22	0xbd39b83c	-0.045341715
23	0xbbf2a642	-0.0074050734
24	0x3da729df	0.08162283
25	0xbe2cbfd3	-0.1687005
26	0xbe4f299e	-0.2023072
27	0xbdc40bd4	-0.095725685
28	0xbe3713c1	-0.1787863
29	0xbd41bea9	-0.04730097
30	0xbd365219	-0.04451189
31	0xbe0c46f5	-0.13698943
32	0xbbf649e2	-0.0075161317
33	0xbe26f4b9	-0.16304292
34	0xbdc102a3	-0.09424331
35	0xbd866fee	-0.06564318
36	0xbdc7449b	-0.09729882
37	0x3ddd7a48	0.10814339
38	0xbdb17cad	-0.08666358
39	0x3d2310ba	0.039810874
40	0xbe57b4a9	-0.2106501
41	0x3d7826e4	0.060583964
42	0x3d813fa8	0.063109696
43	0xbe17cf07	-0.14825068
44	0x3e30c6b9	0.17263307
45	0xbd328fea	-0.04359428
46	0xbd9652b3	-0.073399924
47	0x3cddc2c0	0.027070403
48	0x3c75258d	0.014962566
49	0xbe0e3413	-0.13887052
50	0x3dfe80b2	0.124268904
51	0xbd1cd23e	-0.03828644
52	0x3cf7c932	0.030247305
53	0x3a47ed1f	0.00076265814
54	0xbe07615e	-0.13220736
55	0x3d55b807	0.052177455
56	0x3d4d5a11	0.050134722
57	0x3d7a7428	0.06114593
58	0x3d9e38a5	0.07725648
59	0x3da33526	0.07969122
60	0xbd8fa19e	-0.07013248
61	0xbdbb9254	-0.09158769
62	0xbe07ff2d	-0.13280936
63	0x3ded2b04	0.1158047
64	0xbdf0aa22	-0.117512
65	0xbe4bfe5f	-0.19921254
66	0xbd91dba6	-0.07121973
67	0x3c92b16b	0.017906865
68	0xbd635abd	-0.055506457
69	0xbc8b34ab	-0.016992887
70	0xbdce5d81	-0.10076428
71	0xbd962eea	-0.07333167
72	0x3b2cc34d	0.0026361526
73	0xbe943aa8	-0.28951
74	0x3cae1e3e	0.021254655
75	0xbde36ec4	-0.11105111
76	0xbe3c009b	-0.18359606
77	0xbc9201f8	-0.017823204
78	0x3bd82a0d	0.0065968097
79	0xbe3f1437	-0.18660055
80	0xbe78fbf2	-0.2431486
81	0xbdb1b0af	-0.08676278
82	0x3af948c0	0.0019018874
83	0x3cd8e4c5	0.026476273
84	0x3db5ee35	0.08883325
85	0x3d14414a	0.036195077
86	0x3d0cdc44	0.03438975
87	0xbdd7854f	-0.105234735
88	0xbd39f4ed	-0.045399595
89	0xbdf7f32f	-0.121069305
90	0xbcbcb12d	-0.023033703
91	0xbe95ee0c	-0.29283178
92	0xbe5a3af7	-0.21311556
93	0xbcc33862	-0.023830596
94	0xbe23df29	-0.16003098
95	0xbe4f4df2	-0.20244578
96	0xbdeba44c	-0.115059465
97	0x3dfcbd12	0.1234075
98	0x3c3740d0	0.011184886
99	0xbe15de43	-0.14635567
100	0xbcd85a9f	-0.026410399
101	0x3cacf138	0.021111116
102	0xbde5fbb2	-0.11229648
103	0xbc5aa9e4	-0.013346169
104	0xbef02379	-0.46902063
105	0xbdd595ad	-0.10428939
106	0xbe85ddad	-0.26145688
107	0x3c6b5a3d	0.014364776
108	0xbda89ff3	-0.08233633
109	0xbd5285b0	-0.051397026
110	0xbbfbdf6a	-0.007686545
111	0xbe2410b2	-0.16021994
112	0xbe10065b	-0.14064924
113	0x3db34072	0.08752526
114	0xbc6750cd	-0.0141183855
115	0x3cb863c3	0.022508508
116	0xbe217d57	-0.1577047
117	0x3cf67ac7	0.030087842
118	0x3d308c71	0.043102685
119	0x3d2a49ee	0.04157441
120	0x3decd42e	0.115639076
121	0xbdc9e71c	-0.09858534
122	0xbd80ee3a	-0.06295438
123	0xbe9cf022	-0.30651957
124	0x3cac7cf0	0.021055669
125	0xbe7576e2	-0.23971131
126	0xbcbfe2f8	-0.023423657
127	0xbdd108a8	-0.10206729

a2c_network.value.weight f4 [1, 128]
0	0xbdec3931	-0.11534346
1	0x3be109a2	0.0068676034
2	0x3d1ff0c4	0.03904797
3	0x3dd35554	0.103190094
4	0xbd6f654c	-0.058446214
5	0xbcfd088d	-0.030887866
6	0x3c4b6e4f	0.012416436
7	0x3d001826	0.03127303
8	0xbd8b01e6	-0.067874715
9	0xbc10f8b5	-0.008848359
10	0xbd283e3c	-0.041074976
11	0x3d53d036	0.051712237
12	0xbe31ef5a	-0.17376462
13	0xbd4f3778	-0.05059001
14	0xbce95798	-0.02848415
15	0x3b1e89cb	0.0024191018
16	0xbdcf2a86	-0.101155326
17	0xbd396956	-0.04526647
18	0xbaffd83b	-0.0019519398
19	0x3d979c9d	0.074029185
20	0x3c531a59	0.0128847
21	0xbd9215b2	-0.07133044
22	0xbe2421b1	-0.16028477
23	0xbabcbf36	-0.0014400247
24	0x3dbae9d6	0.09126632
25	0x3ccfe244	0.025376447
26	0x3cb4b44d	0.02205863
27	0x3d8b1a91	0.067921765
28	0xbe219d6d	-0.1578271
29	0xbe066d53	-0.13127641
30	0xbd8b8a01	-0.068134315
31	0xbd5880de	-0.052857272
32	0xbde1a635	-0.110180296
33	0xbbb78c2f	-0.005601428
34	0xbd989ff0	-0.07452381
35	0xbda29fa0	-0.07940602
36	0xba1bfba9	-0.0005950281
37	0xbd69f54a	-0.05711869
38	0xbca4f9b1	-0.020138593
39	0x3d654f49	0.055983815
40	0xbe0355d8	-0.12825716
41	0x3e3d99ca	0.18515697
42	0x3dcb2e35	0.09920923
43	0xbd4a3064	-0.049362555
44	0x3daf1bcc	0.08550224
45	0x3d4fa1f7	0.05069157
46	0x3aaefb30	0.0013350006
47	0xbd12307a	-0.035690762
48	0x3cc5af60	0.024131477
49	0x3d9f05c9	0.07764775
50	0x3e01b80f	0.12667869
51	0x3d9aced0	0.075589776
52	0x3d9eea91	0.07759584
53	0x3cd5679f	0.026050387
54	0xbe13d65f	-0.14437245
55	0x3e030583	0.12795071
56	0xb92f7100	-0.00016731396
57	0x3da4ef43	0.08053448
58	0xbc876103	-0.016525751
59	0x3dcb8844	0.099381
60	0xbe17383d	-0.14767547
61	0xbde5d14f	-0.11221563
62	0xbe1b618b	-0.15173928
63	0x3d2ab02d	0.04167192
64	0x3c34c388	0.011032946
65	0xbdaf6e15	-0.08565918
66	0x3d4ed6fe	0.050498
67	0x3d18cb6f	0.037303384
68	0x3d0c5328	0.03425899
69	0xbc85d167	-0.016335202
70	0xbdfdd213	-0.12393584
71	0x3db745bf	0.0894885
72	0xbe206665	-0.1566406
73	0xbde14f66	-0.11001472
74	0xbe137771	-0.14401032
75	0xbd9d2bc8	-0.07674366
76	0x3c42a649	0.011880466
77	0x3e061aab	0.1309611
78	0xbd086807	-0.033302333
79	0xbddaba1f	-0.10680031
80	0xbe01303e	-0.12616059
81	0xbd1437ab	-0.0361859
82	0xbdbb9380	-0.09158993
83	0x3db4417f	0.08801555
84	0x3e38ba23	0.18039756
85	0xbd001679	-0.03127143
86	0xbe175d46	-0.14781675
87	0x3bbd898a	0.005784218
88	0x3d6c33f7	0.057666745
89	0xbe4a0b2d	-0.19730826
90	0xbcb6b3f0	-0.022302598
91	0xbbe49abc	-0.0069764536
92	0xbdb1b420	-0.08676934
93	0x3d342e84	0.043989673
94	0xbdde886e	-0.10865866
95	0xbdfeec54	-0.1244742
96	0x3a5c64a5	0.0008407331
97	0x3e09a34a	0.13441196
98	0x3c0a839f	0.0084542325
99	0x3c43c6bf	0.01194924
100	0x3d5919ec	0.053003237
101	0xbdc93e0b	-0.09826287
102	0xbbf96d88	-0.007611934
103	0xbc63652c	-0.013879102
104	0xbe01b6cc	-0.12667388
105	0xbddf011b	-0.10888883
106	0xbb16c7a1	-0.0023007172
107	0x3dae239e	0.08502887
108	0x39e7d2fd	0.00044216952
109	0xbc7683e6	-0.0150460955
110	0x3d350788	0.044196635
111	0xbdda9eaf	-0.10674798
112	0xbda4b338	-0.08041996
113	0x3db218e5	0.086961545
114	0x3e13561e	0.1438832
115	0x3e2d7721	0.16939975
116	0xbdd734e4	-0.10508135
117	0x3e45e4e5	0.19325598
118	0xbc068bbf	-0.008212029
119	0x3db9ceed	0.09072671
120	0x3de81fbd	0.113341786
121	0xbe0f1449	-0.13972582
122	0xbe4bbda5	-0.19896562
123	0xbe03bd83	-0.12865262
124	0x3cc6340e	0.024194743
125	0xbd1f6984	-0.038918987
126	0x3dbd629c	0.09247324
127	0xbc5d8054	-0.013519365

a2c_network.mu.weight f4 [6, 128]
0	0xbb51894c	-0.0031972704
1	0xbb613757	-0.003436526
2	0x3d8bd6bb	0.06828066
3	0x3ca0a138	0.019608125
4	0x3d1c3cf1	0.038144056
5	0x3dd8eaba	0.105916455
6	0xbb41e714	-0.0029587196
7	0xbcfb5513	-0.030680215
8	0xbd8661c9	-0.0656162
9	0xbcdcfb00	-0.026975155
10	0x3c8a9500	0.016916752
11	0xbd83970f	-0.064252965
12	0x3cba3172	0.022728655
13	0x3d38b0de	0.04509055
14	0x3c0df735	0.008664896
15	0xba41b51a	-0.0007389352
16	0x3d2f7301	0.042834286
17	0x3d858b87	0.06520753
18	0x3e122130	0.14270473
19	0xbc28bff9	-0.010299676
20	0xbd3bffa9	-0.045898113
21	0xbd679812	-0.05654151
22	0x3ce8d3e2	0.028421346
23	0xbb8af5d8	-0.0042407326
24	0x3ce1493a	0.027500737
25	0x3dd2c5da	0.102916434
26	0xbc1e7a97	-0.009672782
27	0xbc76360e	-0.015027536
28	0xbd7c79a7	-0.061639454
29	0x3da76e52	0.08175339
30	0xbdf4fae0	-0.11961913
31	0x3c1e3647	0.009656495
32	0x3d4a2114	0.049347952
33	0xbe0fd181	-0.14044763
34	0x3c2d61c7	0.010582394
35	0x3d770f38	0.060317248
36	0x3e297b7b	0.1655101
37	0xbce81ba7	-0.028333498
38	0xbc4de05c	-0.0125656985
39	0x3e553fed	0.20825167
40	0xbcf99ec2	-0.03047121
41	0xbc4119e4	-0.011785958
42	0xbc925f3f	-0.017867683
43	0x3d7d275c	0.061805114
44	0x3d96f9a4	0.07371834
45	0x3da2f1aa	0.0795625
46	0xbcba2cb3	-0.022726392
47	0xbcf4c321	-0.029878201
48	0x3cf00980	0.029301405
49	0x3dcafdcc	0.09911689
50	0xbd94c294	-0.07263675
51	0x3c8065b5	0.015673498
52	0x3d58900f	0.05287176
53	0x3dabe208	0.083927214
54	0xbd981fdd	-0.074279524
55	0x3cb0dc45	0.021589408
56	0xbd08baba	-0.0333812
57	0xbcea8eee	-0.028632607
58	0xbc8a83d0	-0.016908556
59	0x3da2d740	0.07951212
60	0xbdde9ae3	-0.10869386
61	0xbd92204a	-0.07135065
62	0xbca609d7	-0.020268364
63	0x3b1f8fcf	0.0024347191
64	0x3c5a595b	0.013326968
65	0x3d2daf97	0.042403784
66	0xbdbf88f1	-0.093522914
67	0xbccdc69c	-0.025119118
68	0x3b48c044	0.0030632177
69	0x3d1e18a0	0.038597703
70	0x3b1b5ea4	0.0023707533
71	0x3b855629	0.004069109
72	0x3b91979a	0.004443121
73	0xbe13c11b	-0.14429133
74	0xbd9dc171	-0.07702912
75	0x3c55670e	0.013025058
76	0x3bca4a0e	0.006173379
77	0xbda6e8c4	-0.08149865
78	0xbd6e73d1	-0.05821592
79	0x3d4852b4	0.048906997
80	0xbc49c3a9	-0.012314715
81	0x3c81263c	0.015765302
82	0xbcd7b5f1	-0.026331874
83	0x3cf8d40d	0.030374551
84	0xbd0ea8f8	-0.03482911
85	0xbd927052	-0.0715033
86	0x3da82c49	0.08211572
87	0xbc0da9a6	-0.008646404
88	0xbd7c637f	-0.061618324
89	0x3d057787	0.032584693
90	0x3b5e9bea	0.0033967444
91	0xbd7e03b3	-0.062015247
92	0xbe134c25	-0.14384516
93	0xbc1cf9a3	-0.009581002
94	0x3df218d6	0.11821143
95	0x3e3ffb6e	0.18748257
96	0xbdf881fc	-0.121341676
97	0x3a27579b	0.00063835987
98	0x3ce2ff50	0.027709633
99	0xbe3fecf3	-0.18742733
100	0x3d50d685	0.05098583
101	0x3cb524fd	0.022112364
102	0x3cf4041f	0.029787121
103	0xbd925262	-0.071446195
104	0xbe074fad	-0.13213988
105	0x3ced71ff	0.028985022
106	0xbd60850c	-0.054814383
107	0x3ce66cb1	0.028128
108	0xbdb26677	-0.0871095
109	0x3c754fc4	0.014972631
110	0xbdb9e9fa	-0.090778306
111	0xbd04a6a1	-0.032385472
112	0xbd12cfb6	-0.03584262
113	0x3d99ad69	0.075037785
114	0xbb2666bc	-0.0025390824
115	0x3c791986	0.015203839
116	0xbd760b1e	-0.060069196
117	0xbdc8bbbd	-0.09801433
118	0xbb8749fc	-0.0041286927
119	0x3d25baf6	0.040461503
120	0x3dac22b2	0.08405055
121	0x3dcd0f4b	0.100126825
122	0xbd742ba8	-0.059611946
123	0x3c80cf00	0.015723705
124	0x3d5f96bc	0.05458711
125	0xbd58689f	-0.05283415
126	0x3d9a070c	0.07520875
127	0x3cb4e656	0.022082489
128	0xbe26833d	-0.16261001
129	0xbd1bf304	-0.038073555
130	0xbab49f5d	-0.0013780404
131	0x3e0c542f	0.13703988
132	0xbd4a8904	-0.049447075
133	0xbccd4f5e	-0.02506226
134	0xbd9a76e9	-0.075422116
135	0xbd8116dc	-0.06303188
136	0xbe57ca28	-0.2107321
137	0xbd43f681	-0.047842506
138	0x3d827742	0.06370403
139	0x3c103632	0.008801984
140	0xba6c90d6	-0.0009024268
141	0x3d3ed774	0.04659219
142	0xbd160716	-0.03662785
143	0x3da14341	0.07874156
144	0xbd1948a2	-0.037422784
145	0x3d5a3496	0.053272806
146	0x3c98921c	0.018624358
147	0x3d64da1d	0.05587207
148	0x3ca41fdd	0.020034725
149	0xbd9a7af9	-0.075429864
150	0x3dae9b9c	0.08525774
151	0x3a843442	0.0010086375
152	0xbd548ea5	-0.05189385
153	0xbdc4a723	-0.09602191
154	0xbe25771a	-0.16158715
155	0x3cfc0f4f	0.030769018
156	0xbdfce049	-0.123474665
157	0x3c81c81b	0.015842488
158	0x3ca2d399	0.019876288
159	0x3cf12492	0.029436383
160	0x3cb614a9	0.022226648
161	0x3cc0ca72	0.023534033
162	0xbcab3726	-0.02090032
163	0xbd812a92	-0.06306948
164	0x3be7520a	0.0070593404
165	0xbd4961b7	-0.049165454
166	0x3c8bc20e	0.017060306
167	0xbe034425	-0.12818964
168	0x3b501e10	0.00317562
169	0xbddb2dbe	-0.10702084
170	0xbd35ef1a	-0.04441748
171	0x3cf340f9	0.029694067
172	0x3c1c3614	0.009534378
173	0xbddbb850	-0.10728514
174	0x3d12f625	0.035879273
175	0x3c4692ff	0.012120008
176	0x3ca402fc	0.020020954
177	0xbe0cb049	-0.13739122
178	0xbd99861a	-0.07496281
179	0xbd7c96ef	-0.06166738
180	0x3c907ef6	0.017638665
181	0xbe02794c	-0.12741584
182	0xbe0a66e4	-0.13515812
183	0xbdf186cb	-0.11793288
184	0xbd25c3f4	-0.04047008
185	0x3c624ab0	0.013811752
186	0x3d7c731a	0.061633207
187	0xbc303fa3	-0.01075736
188	0xbc1cc382	-0.009568097
189	0xbd349c84	-0.044094577
190	0xbbc6e756	-0.006070058
191	0xbd306f93	-0.043075155
192	0xbcdf5dde	-0.027266439
193	0x3d1678db	0.03673635
194	0x3c2f666d	0.010705573
195	0xbd9f2bd6	-0.07772033
196	0x3cc1a4ce	0.023638155
197	0xbd52d574	-0.051473096
198	0xba7a8494	-0.0009556499
199	0xbd8fd857	-0.070236854
200	0x3c93a43c	0.018022649
201	0x3df9d3a7	0.121985726
202	0xbd2fa224	-0.04287924
203	0x3d65a601	0.056066517
204	0x3e1038a4	0.14084107
205	0x3c92e89b	0.01793318
206	0xbbb8d6ed	-0.0056408555
207	0x3cc7d2da	0.024392534
208	0x3d7198aa	0.058983482
209	0xbb69cb56	-0.0035674176
210	0x3d9fbb86	0.07799439
211	0xbdcedf6b	-0.10101207
212	0x3d755a61	0.059900645
213	0xbc893ad5	-0.016751686
214	0xbd7a9efc	-0.061186776
215	0x3d9b64cf	0.07587587
216	0x3df538e3	0.11973741
217	0xbd52d867	-0.05147591
218	0x3a3aabb5	0.0007120923
219	0x3d83d518	0.06437129
220	0x3d97c3d1	0.07410396
221	0xbd4d8993	-0.05018003
222	0xbc541d51	-0.012946443
223	0xbdd05cb5	-0.101739325
224	0x3d8ac8a9	0.06776554
225	0x3cf4b411	0.029871019
226	0xbc070efc	-0.008243319
227	0x3e03bfb1	0.12866093
228	0xbd946684	-0.07246116
229	0xbd7597bb	-0.059959155
230	0x3d83fb55	0.06444422
231	0xbcb0a030	-0.021560758
232	0x3e36624e	0.17810938
233	0x3e2061e2	0.1566234
234	0xbd8287b9	-0.06373543
235	0x3de3d8a1	0.11125303
236	0x3c9bcab9	0.019017564
237	0xbdc4dfcf	-0.096130006
238	0xbc4aa49a	-0.012368346
239	0xbccf70a5	-0.025322268
240	0x3ddaf4d2	0.10691227
241	0xbd63f1f1	-0.055650655
242	0xbc6dd920	-0.014517099
243	0x3cf55c52	0.029951248
244	0x3d64295c	0.055703506
245	0xbd4b1e7f	-0.04958963
246	0xbce28f8c	-0.02765634
247	0xbd8b327e	-0.0679674
248	0xbd64b198	-0.05583343
249	0xbc81bc54	-0.015836872
250	0xbcb99a69	-0.022656636
251	0xbdd23870	-0.10264671
252	0xbd3f4017	-0.04669198
253	0x3da19013	0.07888808
254	0x3c29f18c	0.010372531
255	0x3bb2c829	0.00545599

a2c_network.mu.bias f4 [6]
0	0xbc0bd54f	-0.008534743
1	0xbe05745f	-0.13032673
2	0x3db40e0c	0.08791742
3	0xbdc10171	-0.09424103
4	0xbdee78d4	-0.1164414
5	0x3dafd563	0.08585622

exp_avg f4 [6]
0	0xbb1da163	-0.0024052493
1	0x3a5f759a	0.0008524299
2	0xb8dc053c	-0.000104913925
3	0x3adc31f4	0.0016799555
4	0x3b89d3f4	0.004206175
5	0x3b05e030	0.0020427816

exp_avg_sq f4 [6]
0	0x3857777e	5.137128e-05
1	0x38605e67	5.349368e-05
2	0x383f675f	4.563422e-05
3	0x3860cd13	5.3596752e-05
4	0x38792d4e	5.940842e-05
5	0x3862e223	5.4093205e-05

exp_avg f4 [128, 30]
0	0x3967669f	0.00022068106
1	0xba7da679	-0.00096759904
2	0xb8a21d45	-7.730214e-05
3	0xb98e8322	-0.00027182052
4	0xb96f047a	-0.00022794484
5	0x3a4d967d	0.0007842554
6	0xba24fb1b	-0.0006293521
7	0x3a01286f	0.00049269845
8	0x38ecad1f	0.00011285603
9	0xba323aac	-0.0006798904
10	0x38eb5267	0.00011221022
11	0xb6c577b4	-5.884993e-06
12	0x3a27694d	0.00063862355
13	0x3914d49a	0.0001419358
14	0xb9b6d97c	-0.00034875784
15	0x39319077	0.00016933853
16	0xb9c92d70	-0.0003837156
17	0x39971304	0.00028815132
18	0x3a5691c0	0.00081851706
19	0x39bb95bf	0.0003577899
20	0xb8656119	-5.4688284e-05
21	0x38c674d7	9.463139e-05
22	0xba8c61c7	-0.0010710292
23	0x3a25496d	0.0006305192
24	0x3a34bb78	0.000689439
25	0x38837b9d	6.2695915e-05
26	0xb928b46c	-0.00016088941
27	0x37c684d8	2.36653e-05
28	0xba35e4bf	-0.0006938688
29	0x398b80a2	0.00026607985
30	0x385935f7	5.178709e-05
31	0x3a375d39	0.0006994787
32	0xbadbf604	-0.0016781692
33	0x3a81a51d	0.0009891127
34	0xb9b4debd	-0.00034498228
35	0xb96de1e8	-0.00022686238
36	0x3a9863d1	0.0011626427
37	0xb9f5a5c8	-0.00046853558
38	0x3a8bc2ea	0.0010662947
39	0x3a267c94	0.0006350961
40	0xba3ffc4b	-0.00073236664
41	0xba2a8619	-0.00065049675
42	0x3a762164	0.0009389131
43	0xb961d853	-0.00021538259
44	0xb98c364c	-0.00026743335
45	0xb92ec7f8	-0.00016668427
46	0xb87c4187	-6.014251e-05
47	0x3911593e	0.00013861523
48	0xba009bb3	-0.00049060135
49	0x39a80293	0.00032045375
50	0xb828feff	-4.0291805e-05
51	0x39eadfda	0.0004479874
52	0xba931d5e	-0.0011223962
53	0x3a066cba	0.0005127896
54	0xb9486b98	-0.00019113568
55	0x3a3947b2	0.00070678734
56	0xb97e3ba2	-0.00024245543
57	0x3aed55fe	0.0018107293
58	0xb9dda634	-0.00042276236
59	0x3acaf6ce	0.001548493
60	0x37fe6f08	3.0330863e-05
61	0xba50c7b9	-0.00079643313
62	0xb9f197ec	-0.00046080293
63	0x3a51e1ea	0.0008006381
64	0xb983a8b0	-0.0002511195
65	0xb9bea4d0	-0.0003636242
66	0xba44ebeb	-0.0007511961
67	0x38fdfc5b	0.00012110985
68	0xb8e32215	-0.00010830552
69	0x390be2e0	0.0001334059
70	0xb7cdcf63	-2.4534476e-05
71	0xba079aa6	-0.0005172886
72	0x3a23745d	0.0006235296
73	0xb98cb10a	-0.00026834785
74	0x3a5741e1	0.0008211416
75	0xb91697a7	-0.0001436161
76	0x3729a525	1.0111636e-05
77	0x3971907e	0.00023037379
78	0xba172874	-0.0005766221
79	0x3a04878e	0.00050555996
80	0x3a369751	0.0006965297
81	0xb98291b1	-0.0002490408
82	0xba0f43e6	-0.0005465135
83	0x3a20036a	0.00061040244
84	0xba5eb189	-0.0008495083
85	0x3a89678b	0.0010483129
86	0x3a38dddd	0.0007052103
87	0x3a34bf3b	0.00068949506
88	0xb9de5b97	-0.0004241138
89	0xb9b7ff61	-0.00035094752
90	0x39308ede	0.0001683789
91	0xb900ca41	-0.00012282377
92	0xba266dc4	-0.0006348754
93	0x3a6a1d7d	0.00089307857
94	0x398ab3c7	0.00026455356
95	0x39d4f90e	0.0004062135
96	0xb9182428	-0.00014509319
97	0xb9e4d5e2	-0.00043646904
98	0x3a189af3	0.0005821429
99	0x39d90e94	0.00041400327
100	0xb9e90e83	-0.00044452035
101	0xb9a33237	-0.00031127196
102	0x398b4171	0.00026560904
103	0xb91d8983	-0.00015023914
104	0xba10bcbd	-0.0005521288
105	0xb8a6c271	-7.951714e-05
106	0xb8e0e735	-0.00010724218
107	0xb897c75c	-7.237375e-05
108	0xba8b7570	-0.0010639858
109	0xb9bdf920	-0.00036234502
110	0x3997ee09	0.00028978314
111	0x38837369	6.2680636e-05
112	0xba66dc1a	-0.00088066014
113	0xb98828bb	-0.00025970288
114	0xba399009	-0.0007078653
115	0xb9e61385	-0.00043883562
116	0xb988b37a	-0.00026073662
117	0xb7f17cc1	-2.8787532e-05
118	0xba833a68	-0.0010011913
119	0xb9855f4c	-0.00025438739
120	0xba2603de	-0.0006332974
121	0x39ed9944	0.00045318354
122	0xb9c82309	-0.00038173076
123	0x3a320314	0.000679062
124	0x3a616a78	0.0008598934
125	0xba4d2d91	-0.00078269193
126	0x38ea97f0	0.0001118629
127	0xb96bb83c	-0.00022479979
128	0x3999ae49	0.00029312287
129	0x39b7ad6e	0.00035033695
130	0xb9f02f5f	-0.0004581166
131	0x3a5327f4	0.0008054965
132	0x39d24db2	0.0004011221
133	0xba76ec4b	-0.00094193657
134	0x3a20d082	0.0006134586
135	0x39f3d46c	0.00046506838
136	0x3a8ac543	0.0010587353
137	0xba0a256e	-0.00052698597
138	0xb72271a9	-9.682416e-06
139	0xbaa8ac37	-0.0012868707
140	0xb910f9e7	-0.00013826006
141	0xb9774bfa	-0.00023584059
142	0x39096008	0.00013101113
143	0x3a8d81c1	0.0010796116
144	0x39a09410	0.00030627893
145	0xb9a45fe5	-0.00031351965
146	0x3920ff4f	0.00015353899
147	0x3a54f54b	0.00081237097
148	0x3909bbdc	0.00013135321
149	0x3aafba8c	0.0013407036
150	0x387ed45f	6.0756105e-05
151	0xba0641b3	-0.0005121484
152	0x3a59f1a9	0.0008313903
153	0xba2180e6	-0.000616087
154	0xba085512	-0.0005200665
155	0xb9eba8c6	-0.0004494844
156	0xbae11a9b	-0.0017174067
157	0xb84bf3ae	-4.8625916e-05
158	0xba41a444	-0.0007386843
159	0x39392fea	0.00017660824
160	0x3a2ae458	0.0006519011
161	0x3a690bcc	0.00088900025
162	0xb8594101	-5.179737e-05
163	0xba0cd0e9	-0.0005371706
164	0xb80145b7	-3.0820924e-05
165	0x3a7606ea	0.00093851855
166	0x3a240bc2	0.00062578556
167	0x39a8d546	0.00032202358
168	0xba93ef4b	-0.0011286525
169	0xb77fbfaf	-1.5243814e-05
170	0xba404aea	-0.0007335382
171	0xb9feedea	-0.00048623915
172	0x3a752622	0.00093516905
173	0xba997e28	-0.0011710571
174	0xba414499	-0.00073725876
175	0xb95f7ca7	-0.00021313374
176	0xba93942b	-0.0011259367
177	0xba989b06	-0.001164288
178	0x3a0a83d0	0.0005283924
179	0xba6c1574	-0.00090058823
180	0xb9e3ad45	-0.0004342591
181	0xba68d4f0	-0.0008881828
182	0xba4df349	-0.00078563817
183	0x39b60bf5	0.00034722654
184	0xb8b4b333	-8.616447e-05
185	0xba76c5b2	-0.0009413614
186	0x39500972	0.00019839944
187	0x3a3c9694	0.0007194069
188	0xba0dc9ad	-0.0005408775
189	0xba3a8c05	-0.00071162015
190	0x39e0dde9	0.00042889945
191	0xb9b1b717	-0.00033896483
192	0x39c23298	0.0003704026
193	0x3a12ed10	0.0005604783
194	0xb8b74d87	-8.7405606e-05
195	0xb9bbe4f3	-0.00035838
196	0xb90e8f17	-0.0001359548
197	0xb9d86e30	-0.00041280827
198	0x3a3b7850	0.0007151412
199	0xba005043	-0.00048947724
200	0x39e8873e	0.00044351252
201	0x39fae22b	0.00047852224
202	0x3991dad9	0.0002781961
203	0x3a253690	0.0006302381
204	0x3a26b237	0.00063589535
205	0x38c9415c	9.596601e-05
206	0xb8f87b7d	-0.00011848563
207	0x3a37274d	0.0006986752
208	0x3a8b263b	0.0010616252
209	0x392c9879	0.00016459999
210	0x38fc3012	0.0001202525
211	0x3a45d370	0.000754646
212	0xb895a244	-7.135098e-05
213	0xb9ce27cf	-0.00039321042
214	0xba3fe047	-0.00073194917
215	0xb93836b5	-0.00017567987
216	0x3a1051a1	0.0005505328
217	0xba486121	-0.0007643868
218	0x393a97f5	0.0001779495
219	0x3a356406	0.00069195067
220	0xb93a0bda	-0.00017742757
221	0x3a08d03c	0.00052190176
222	0x3a58beb8	0.00082681654
223	0xb9feb350	-0.00048580253
224	0xb9f03a1a	-0.00045819656
225	0x3a90e5f5	0.0011054861
226	0x3a0570b9	0.00050903443
227	0x38f8f13f	0.00011870497
228	0xb91c60bb	-0.00014913354
229	0x3a072da8	0.00051566446
230	0xbaa394ed	-0.0012480296
231	0x3a85bf98	0.0010204194
232	0x3a005484	0.00048954063
233	0x39a37d1b	0.00031182994
234	0x38aa19e2	8.111053e-05
235	0x38b31248	8.53879e-05
236	0xba9b5f33	-0.0011853933
237	0x3a79c7dc	0.00095283776
238	0x39a83747	0.00032084642
239	0x3a4522f3	0.00075201615
240	0xb9d44484	-0.0004048684
241	0xba32b6df	-0.0006817411
242	0xba0cd702	-0.0005372615
243	0xb93db6e3	-0.00018092575
244	0x3a6af2dc	0.00089625805
245	0x38b4e303	8.625353e-05
246	0x3a70811d	0.0009174513
247	0xb9a721aa	-0.00031877804
248	0xb94a8b3a	-0.00019316087
249	0x398e88c4	0.0002718625
250	0x39067cee	0.00012825776
251	0x36fca31c	7.5291737e-06
252	0x38269649	3.9717448e-05
253	0x3a4ea38b	0.0007882646
254	0xb9ec734e	-0.00045099336
255	0xba175416	-0.00057727227

exp_avg_sq f4 [128, 30]
0	0x378e3be5	1.695561e-05
1	0x37d0c755	2.4888353e-05
2	0x37b05416	2.101999e-05
3	0x3798e8dc	1.8228246e-05
4	0x37d6b2fb	2.5594132e-05
5	0x3796c3be	1.7972543e-05
6	0x37dab277	2.607073e-05
7	0x37b7fe08	2.1933593e-05
8	0x37dd8983	2.6409287e-05
9	0x37a4f9c3	1.9666628e-05
10	0x37c85ea5	2.388593e-05
11	0x37b4fcfd	2.1575479e-05
12	0x37dcc918	2.6319685e-05
13	0x37e8c3f0	2.7747796e-05
14	0x37ab457b	2.0417143e-05
15	0x37e676ad	2.74734e-05
16	0x37c0f8b8	2.3004002e-05
17	0x3797899f	1.8064688e-05
18	0x37ecaf8c	2.8215138e-05
19	0x379bfc47	1.8594916e-05
20	0x3718d9e0	9.110634e-06
21	0x37dc496a	2.626023e-05
22	0x3752ecca	1.2572107e-05
23	0x378f69fe	1.7096285e-05
24	0x37c90e07	2.39676e-05
25	0x379e8f46	1.8901785e-05
26	0x3740945d	1.1478635e-05
27	0x37b4684f	2.1506245e-05
28	0x3754b71e	1.267882e-05
29	0x37c828db	2.3860883e-05
30	0x378601f9	1.5974963e-05
31	0x38386073	4.3958844e-05
32	0x382d24a9	4.1280557e-05
33	0x37c59f5b	2.3558436e-05
34	0x3836b97b	4.3564924e-05
35	0x38285bdf	4.0139883e-05
36	0x3882d7fe	6.239115e-05
37	0x38053e78	3.176785e-05
38	0x38578c13	5.139045e-05
39	0x37ecce5c	2.8229486e-05
40	0x384135a7	4.6064753e-05
41	0x38128375	3.493154e-05
42	0x3877ef13	5.9112044e-05
43	0x38382bc0	4.3909764e-05
44	0x37e572aa	2.7352322e-05
45	0x3835613e	4.3244327e-05
46	0x383f444f	4.5601566e-05
47	0x38563628	5.1072013e-05
48	0x388a0178	6.580626e-05
49	0x38288473	4.0177674e-05
50	0x37ce8f4f	2.4623847e-05
51	0x3895d6af	7.1448616e-05
52	0x37da354e	2.6012447e-05
53	0x38139119	3.5182664e-05
54	0x3883ab8f	6.278522e-05
55	0x3835417b	4.3214746e-05
56	0x38019760	3.0896976e-05
57	0x3888fccb	6.532072e-05
58	0x37e98c90	2.7841219e-05
59	0x3890ac76	6.8985784e-05
60	0x375b0654	1.3054891e-05
61	0x380addbf	3.310828e-05
62	0x38029b2e	3.1138938e-05
63	0x37a3719f	1.9484023e-05
64	0x380e1d2c	3.3882607e-05
65	0x38091974	3.268705e-05
66	0x382feba3	4.1942705e-05
67	0x3787a241	1.616881e-05
68	0x37e25a60	2.6983384e-05
69	0x3775f023	1.4659049e-05
70	0x37c85c73	2.3884908e-05
71	0x37aea623	2.081978e-05
72	0x3831434f	4.2262775e-05
73	0x37ebdf0a	2.8118044e-05
74	0x378c354b	1.6714117e-05
75	0x38275389	3.98937e-05
76	0x37ee59b5	2.8413584e-05
77	0x381f0075	3.790898e-05
78	0x383e8e9e	4.5432353e-05
79	0x3806e8f6	3.216505e-05
80	0x37834b6f	1.5651543e-05
81	0x38424a70	4.632253e-05
82	0x37bfd0ed	2.2866263e-05
83	0x38068b3c	3.207776e-05
84	0x3831a44b	4.23531e-05
85	0x37f35695	2.9008175e-05
86	0x37ab416a	2.041525e-05
87	0x383c2ff5	4.4867356e-05
88	0x37b52a63	2.159662e-05
89	0x384cc265	4.8818434e-05
90	0x366776da	3.4490863e-06
91	0x3700b920	7.672497e-06
92	0x36858ec9	3.9803313e-06
93	0x36bb7684	5.5868313e-06
94	0x36d47ab2	6.332376e-06
95	0x36d6d667	6.4026567e-06
96	0x36d4fa7d	6.347253e-06
97	0x366293e2	3.3762703e-06
98	0x36dc88e6	6.572448e-06
99	0x363a1dfb	2.773361e-06
100	0x36a5aac4	4.937263e-06
101	0x3686a945	4.0132168e-06
102	0x36db4ab9	6.5354075e-06
103	0x36c3da42	5.8368614e-06
104	0x368e9411	4.249167e-06
105	0x36e4b047	6.815451e-06
106	0x36862574	3.9978713e-06
107	0x36d1c74a	6.2518857e-06
108	0x36f443b0	7.2796465e-06
109	0x36b2d068	5.329075e-06
110	0x365d5809	3.298281e-06
111	0x36e39aa3	6.7831293e-06
112	0x36a4d621	4.9125088e-06
113	0x368c89a6	4.1883495e-06
114	0x36e067bd	6.687797e-06
115	0x36b1482a	5.283412e-06
116	0x367d3b92	3.7734612e-06
117	0x36cf6581	6.1808973e-06
118	0x3691d650	4.346286e-06
119	0x36d53e03	6.355114e-06
120	0x373a7698	1.1114076e-05
121	0x37fd4a6b	3.0194604e-05
122	0x37b87fdd	2.199405e-05
123	0x3780e14d	1.5363703e-05
124	0x37c018a9	2.2899667e-05
125	0x379f62d5	1.90003e-05
126	0x37ea6ca0	2.7945556e-05
127	0x3741bb5c	1.1547319e-05
128	0x37bc6e14	2.2462606e-05
129	0x3731a0cd	1.05874615e-05
130	0x379ddb08	1.8817853e-05
131	0x3783683a	1.5664951e-05
132	0x37e22ab0	2.6961177e-05
133	0x37ad38e3	2.0649697e-05
134	0x37400db8	1.1447286e-05
135	0x37d776ed	2.5685376e-05
136	0x3791c282	1.7375922e-05
137	0x37dcd795	2.6326432e-05
138	0x37f70837	2.944852e-05
139	0x37b81f71	2.194915e-05
140	0x37425e74	1.1585293e-05
141	0x37f6de48	2.9428993e-05
142	0x3766b4a5	1.3751128e-05
143	0x3795d7d3	1.7862685e-05
144	0x37eb7944	2.8070652e-05
145	0x379a5824	1.8399274e-05
146	0x376eca7f	1.4233053e-05
147	0x37e9ff06	2.7894519e-05
148	0x37777652	1.4749896e-05
149	0x37e784d1	2.7599193e-05
150	0x36fe2249	7.573781e-06
151	0x37c5f5af	2.3598635e-05
152	0x37a7723d	1.9961148e-05
153	0x374a66cd	1.2064073e-05
154	0x379e4d12	1.8870956e-05
155	0x3791b63e	1.737021e-05
156	0x37d26b04	2.5083784e-05
157	0x375e6ed9	1.325804e-05
158	0x378fbe3c	1.7135513e-05
159	0x3747f1c7	1.19176175e-05
160	0x377232ed	1.4436181e-05
161	0x3778746a	1.4809057e-05
162	0x379d38d1	1.8742316e-05
163	0x375b6ab6	1.3078263e-05
164	0x37097b4b	8.194543e-06
165	0x37b19a7e	2.1171985e-05
166	0x375994bd	1.2968839e-05
167	0x37c67470	2.365766e-05
168	0x37e915b9	2.778588e-05
169	0x37ab1b68	2.039755e-05
170	0x3743428f	1.1638403e-05
171	0x37e7c6ba	2.7629885e-05
172	0x373d7106	1.1291593e-05
173	0x378a17d6	1.6461981e-05
174	0x37d5fc93	2.5509193e-05
175	0x37a0e42f	1.9179743e-05
176	0x375fb187	1.333317e-05
177	0x37dca701	2.6303811e-05
178	0x375915ab	1.2939253e-05
179	0x37d41576	2.5282363e-05
180	0x375fc8a1	1.3338548e-05
181	0x37e00c09	2.6708485e-05
182	0x37d153e1	2.49538e-05
183	0x37bb262f	2.2309918e-05
184	0x380701ad	3.218807e-05
185	0x37e22539	2.6958633e-05
186	0x381117b5	3.4592773e-05
187	0x379e0a7c	1.883995e-05
188	0x380b1b8b	3.3165834e-05
189	0x37851e47	1.5868934e-05
190	0x37f2b73c	2.8933973e-05
191	0x37b4f102	2.15699e-05
192	0x3808a4e9	3.257851e-05
193	0x37f56558	2.9253468e-05
194	0x377192f0	1.4398931e-05
195	0x37e5975b	2.7369408e-05
196	0x37d84292	2.5780206e-05
197	0x3810f8b3	3.4563895e-05
198	0x382db84e	4.141806e-05
199	0x37ef4e96	2.8527615e-05
200	0x37ac70b8	2.0556487e-05
201	0x381a8b72	3.684633e-05
202	0x37b9b34f	2.2137216e-05
203	0x379e4200	1.8865801e-05
204	0x38164b96	3.583318e-05
205	0x37f8f096	2.9675935e-05
206	0x37b13f84	2.1129621e-05
207	0x38076766	3.2282805e-05
208	0x37997cf3	1.8297205e-05
209	0x38115b0b	3.4655484e-05
210	0x36a54292	4.925133e-06
211	0x379b92bc	1.8545768e-05
212	0x37175aee	9.021473e-06
213	0x37769327	1.4697004e-05
214	0x372fbcf9	1.04748115e-05
215	0x3736ea92	1.09026605e-05
216	0x376c453f	1.4082819e-05
217	0x36e2f3d7	6.7637116e-06
218	0x377e769f	1.5167198e-05
219	0x36c0571f	5.732188e-06
220	0x373de278	1.1318007e-05
221	0x371be438	9.291856e-06
222	0x378971a4	1.638459e-05
223	0x37448a44	1.1714703e-05
224	0x36a85ab3	5.017349e-06
225	0x379ff797	1.906957e-05
226	0x3705656f	7.951035e-06
227	0x370f274f	8.532616e-06
228	0x3766b7d2	1.3751867e-05
229	0x372262f9	9.678996e-06
230	0x36bba602	5.59236e-06
231	0x37881fc3	1.6227254e-05
232	0x36b62fa0	5.429567e-06
233	0x37626771	1.3494734e-05
234	0x376d1594	1.4131325e-05
235	0x371dace8	9.398187e-06
236	0x370e7d5b	8.493046e-06
237	0x3784fd4a	1.5853573e-05
238	0x36f902bb	7.421096e-06
239	0x378b84e3	1.6631971e-05
240	0x373f5503	1.14042805e-05
241	0x385f7e63	5.328505e-05
242	0x382e4a4f	4.1554038e-05
243	0x37788191	1.4812119e-05
244	0x3822970e	3.876449e-05
245	0x38254b8a	3.9409417e-05
246	0x387424bb	5.820834e-05
247	0x377ea64c	1.5178299e-05
248	0x37b33cdf	2.1366808e-05
249	0x37701344	1.43096e-05
250	0x379f596f	1.8995923e-05
251	0x37a5330d	1.9693305e-05
252	0x384a7c56	4.827635e-05
253	0x37e18b23	2.688688e-05
254	0x3784dcfa	1.5838526e-05
255	0x384f3e02	4.9410395e-05
