training/SavedModels/pos_ctrl_vanilla.pth (torch, 234882 bytes, 30 tensors)

running_mean f8 [12]
-0.34717812092590233 0.0016289012568030123 0.1867432845668354 0.007086318658745147 0.0002567531573340833 0.0007434918422552617 5.9604061752309525e-05 -9.446129761749459e-05
0.013346240164711516 -0.24514583810375143 0.016214507297743045 0.1872818525235916
00000000: ebdc d094 2a38 d6bf 84a5 1668 1bb0 5a3f
00000010: b328 fb35 34e7 c73f 3da9 362e 8b06 7d3f
00000020: 9dff f469 9ad3 303f 67ae db92 dc5c 483f
00000030: 0fbc acf7 eb3f 0f3f 42c5 6bbc 30c3 18bf
00000040: f787 4108 4655 8b3f d7fb b356 f060 cfbf
00000050: f11b 422a 899a 903f 3b8f dc0b daf8 c73f

running_var f8 [12]
0.34889099129168394 0.3775787767678528 0.5468372450230224 0.052280538198661713 0.1546198244128327 0.01474692277269628 0.03883626881605627 0.038836290074079516
0.0339202766929501 0.39132532123644154 0.5228075720992248 0.5534162120103949
00000000: 1be0 5de1 3a54 d63f 566c 782c 402a d83f
00000010: d179 73d2 b07f e13f bca1 8fc3 83c4 aa3f
00000020: e74b 9518 95ca c33f 39f4 3378 a233 8e3f
00000030: 6e60 edf0 58e2 a33f a043 88a7 59e2 a33f
00000040: 468e 229e ff5d a13f 57a9 335c 790b d93f
00000050: fd8d 08f2 d6ba e03f ac25 75ea 95b5 e13f

count f8 []
13565952001.0
00000000: 0000 0800 c044 0942

running_mean f8 [1]
9.341698444530406
00000000: 4fb4 3819 f3ae 2240

running_var f8 [1]
6.041896840619046
00000000: e00e 6101 e72a 1840

count f8 []
3391488001.0
00000000: 0000 2000 c044 e941

a2c_network.sigma f4 [3]
-4.021784 -4.1959457 -4.06841
00000000: 74b2 80c0 3045 86c0 6a30 82c0

a2c_network.actor_mlp.0.weight f4 [128, 12]
0.27164757 0.29030314 -0.23721388 -0.019785447 0.41162735 -0.22055633 -0.17065215 -0.04325325
-0.08904836 -0.04055197 0.15157843 -0.04918966 -0.8580437 -0.00800699 0.10021667 -0.15919924
-0.11401173 0.14150836 0.47265106 0.43394062 0.4530653 -0.16297795 -0.09778693 0.3177605
-0.043568056 0.16310312 -0.22473733 0.014235114 -0.22491862 0.09056814 0.21195997 -0.050537728
-0.036614332 -0.041448995 -0.04075288 -0.28103915 -0.009256259 0.45491794 -0.4205841 0.045020025
-0.02353762 0.08378676 0.23175974 0.1681418 0.27357817 0.14350078 0.4852983 -0.19571729
-0.0027083524 -0.008011886 -0.08436796 -0.01803648 -0.015726428 -0.00041564673 -0.012609433 0.008277285
-0.0015474869 0.0041306806 0.0038925144 0.092564434 0.24047028 -0.059320927 -0.29934236 0.08780742
-0.43047133 0.09794906 -0.22660778 0.18612446 -0.3494548 0.0057997047 0.19077942 -0.13656929
0.21657021 0.08854521 0.3221434 0.089263804 0.10402646 -0.0229626 -1.2781578 -0.8867742
2.0037086 -0.08819805 0.043401018 0.055316027 -0.29515594 -0.194571 -0.017171722 0.03994153
0.10309938 0.02277125 -1.8381282 -1.627232 -0.558255 -0.058062628 -0.2826154 0.105813235
-0.3608268 -0.1807121 0.009570909 -0.10101234 0.10177702 0.044958495 0.025715599 -0.22180462
0.07382427 0.011096965 -0.19825426 -0.15200578 -0.07757141 -0.13610029 -0.1784585 -0.040873997
-0.057395484 0.018808601 -0.28582102 -0.042865556 0.5376637 0.0109068835 0.18084727 0.119151086
-0.004059938 0.03204311 0.108212486 0.0054431544 0.02047947 0.0072320485 0.0044482136 0.0055904053
-0.001711024 0.007226047 -0.022333417 -0.111626334 -0.6766401 0.6768374 0.18281062 0.080624126
1.083589 -0.16533916 -0.088505164 -0.25268117 -0.22696395 0.11918142 0.035747934 -0.1560782
-0.05681159 0.22314414 -0.05417447 0.0984706 0.20584708 -0.10854809 -0.034295097 0.007533189
-0.007346853 0.14469875 -0.37119618 0.021201855 -0.26511276 -0.25980666 -0.085346825 0.07000911
-0.061587036 0.059207615 0.30097392 -0.0686435 -0.28855127 -0.06701109 0.07230295 -0.11187183
-0.0063887574 0.0034241471 0.10794825 -0.00019129718 0.011363305 0.0055451044 0.009470642 -0.0012196021
-0.0035534578 0.008514604 0.0033524174 -0.11023227 0.73268557 0.11161585 0.022513816 0.004400415
0.02445391 -0.12323786 0.19040912 0.4666972 -0.22106227 -0.03603469 -0.10215229 0.21332426
-0.14675018 0.0009483684 0.047565997 -0.045974456 -0.003307439 0.0053233597 1.2524866 -0.14391445
-1.7807387 -0.06641839 0.020248607 0.32676318 0.007958148 -0.040162012 -0.05030647 0.00422208
-0.018540444 -0.00047975016 -0.013414563 -0.001335869 0.007818539 -0.018775044 0.027912958 0.04315367
0.028577961 0.30792397 -0.24827543 0.13109681 0.14623523 0.074521124 -0.17521727 0.1044848
-0.09792031 -0.07239508 -0.14462206 0.041677132 -0.007335713 0.059109304 -0.038637806 0.017036637
0.03297556 0.0016943135 0.00837356 -0.006104745 0.003821848 0.003936804 -0.056707088 0.03847706
-0.73785836 -0.33420366 0.11013154 -0.57546335 0.16482495 0.068706706 -0.0066172956 -0.17966463
0.4496938 0.68075 -0.13245586 0.32915244 -0.1126468 0.104378015 0.0104739135 0.01823109
00000000: 6415 8b3e 9da2 943e 32e8 72be 1715 a2bc
00000010: d2c0 d23e 85d9 61be 70bf 2ebe 522a 31bd
00000020: fd5e b6bd d319 26bd 6037 1b3e 197b 49bd
00000030: c0a8 5bbf c02f 03bc 663e cd3d 2005 23be
00000040: fb7e e9bd 91e7 103e 52ff f13e 772d de3e
00000050: 2df8 e73e b1e3 26be 8444 c8bd 81b1 a23e
00000060: 6b74 32bd 8104 273e 8b21 66be 653a 693c
00000070: 1151 66be ca7b b93d 090c 593e a600 4fbd
00000080: e9f8 15bd 6cc6 29bd 7eec 26bd 5de4 8fbe
00000090: 90a7 17bc 01eb e83e cd56 d7be eb66 383d
000000a0: f8d1 c0bc 6598 ab3d 6d52 6d3e 5d2d 2c3e
000000b0: 7012 8c3e def1 123e 0579 f83e 1d6a 48be
000000c0: 9d7e 31bb 4944 03bc 1cc9 acbd 3dc1 93bc
000000d0: b6d4 80bc 29eb d9b9 cc97 4ebc 739d 073c
000000e0: 0bd5 caba a95a 873b 8e19 7f3b 6c92 bd3d
000000f0: d73d 763e 80fa 72bd 6743 99be 60d4 b33d
00000100: bd66 dcbe 8499 c83d df0b 68be 6997 3e3e
00000110: bdeb b2be 730b be3b ae5b 433e d2d8 0bbe
00000120: 95c4 5d3e 3157 b53d fbef a43e f1cf b63d
00000130: d30b d53d 101c bcbc ad9a a3bf a203 63bf
00000140: c33c 0040 2ea1 b4bd 44c5 313d 0f93 623d
00000150: ae1e 97be 9f3d 47be b6ab 8cbc bb99 233d
00000160: c525 d33d c68a ba3c c947 ebbf 2349 d0bf
00000170: cde9 0ebf 14d3 6dbd f7b2 90be 9cb4 d83d
00000180: 4abe b8be 980c 39be 4dcf 1c3c 8fdf cebd
00000190: 7870 d03d 6626 383d 85a9 d23c c020 63be
000001a0: 2e31 973d 0bd0 353c 2a03 4bbe 67a7 1bbe
000001b0: c2dd 9ebd e05d 0bbe d3bd 36be 7e6b 27bd
000001c0: 8717 6bbd 7f14 9a3c 2257 92be cb93 2fbd
000001d0: 54a4 093f c9b2 323c 0730 393e 7c05 f43d
000001e0: 3a09 85bb a33f 033d 829e dd3d 7d5c b23b
000001f0: 90c4 a73c d2fa ec3b 52c2 913b b82f b73b
00000200: 7044 e0ba 7ac8 ec3b 92f4 b6bc 599c e4bd
00000210: 4938 2dbf 3745 2d3f b532 3b3e 431e a53d
00000220: 0bb3 8a3f ab4e 29be 3242 b5bd 6d5f 81be
00000230: 3d69 68be 6315 f43d 6d6c 123d f7d2 1fbe
00000240: 45b3 68bd e67f 643e 0de6 5dbd f4aa c93d
00000250: 94c9 523e 764e debd 0479 0cbd f8d8 f63b
00000260: dfbd f0bb e92b 143e 6d0d bebe 83af ad3c
00000270: dcbc 87be 6105 85be 51ca aebd f060 8f3d
00000280: b042 7cbd af83 723d 4119 9a3e f794 8cbd
00000290: febc 93be 1c3d 89bd 9213 943d 0f1d e5bd
000002a0: c858 d1bb a867 603b f913 dd3d f296 48b9
000002b0: 282d 3a3c b5b3 b53b c02a 1b3c 0edb 9fba
000002c0: 21e1 68bb d680 0b3c 3bb4 5b3b 75c1 e1bd
000002d0: 4891 3b3f da96 e43d e56e b83c 5b31 903b
000002e0: 9153 c83c 2264 fcbd 9cfa 423e eff2 ee3e
000002f0: 265e 62be 1c99 13bd 3835 d1bd ad71 5a3e
00000300: ae45 16be ed9b 783a 90d4 423d b64f 3cbd
00000310: 9ec1 58bb 946f ae3b 7b51 a03f 4f5e 13be
00000320: 3fef e3bf 5d06 88bd 68e0 a53c 814d a73e
00000330: e462 023c ec80 24bd 280e 4ebd 6059 8a3b
00000340: 21e2 97bc fa86 fbb9 c1c8 5bbc 5318 afba
00000350: 5419 003c 1fce 99bc b7a9 e43c e7c1 303d
00000360: 541c ea3c 36a8 9d3e ea3b 7ebe 3e3e 063e
00000370: b0be 153e 889e 983d 286c 33be 20fc d53d
00000380: 728a c8bd df43 94bd ce17 14be a4b5 2a3d
00000390: 6c60 f0bb 991c 723d ad42 1ebd 6b90 8b3c
000003a0: 6111 073d ba13 de3a 4231 093c 500a c8bb
000003b0: f877 7a3b 4e00 813b b145 68bd 1f9a 1d3d
000003c0: 49e4 3cbf be1c abbe a58c e13d 9151 13bf
000003d0: dfc7 283e 1ab6 8c3d e6d5 d8bb 01fa 37be
000003e0: 443e e63e a245 2e3f 82a2 07be ab86 a83e
000003f0: 5eb3 e6bd 24c4 d53d c79a 2b3c 5e59 953c

a2c_network.actor_mlp.0.bias f4 [128]
-0.4315166 -0.3994506 -0.4291375 -0.15380555 -0.0024483812 -0.66642916 -0.84697795 -0.45132262
-0.5425944 -0.33188465 -0.00010299874 -0.37039432 -0.055176873 0.055371024 0.0005028089 -0.12922627
-0.2959732 0.0039899456 -0.0026837946 0.00446071 -0.17960635 -0.032017265 0.18590187 -0.6825083
-1.0465518 -0.119918525 -0.09740384 -0.002260277 -0.06179544 0.029958928 0.005840853 -0.28156224
-0.0012820533 0.18322243 -0.029421037 0.26076266 0.6934832 0.15748568 -0.7510976 -0.7608886
-0.21441224 0.3194203 -1.7222173 -0.004380811 0.008903887 0.20268679 -0.386573 0.035297144
-0.03178155 0.26481566 -0.004013313 -0.5344361 -0.93057317 -0.3998961 0.0053269933 -0.3857947
0.032522824 -0.6525334 -0.4214732 0.26950708 0.006075938 -0.35497212 0.069086 -0.0016799751
0.0014032533 -0.4493975 0.0065539256 0.025907526 -1.0027229 -0.18143415 0.10403912 -0.006231654
0.0028869074 -0.43765983 -1.5568736 -0.12477397 -1.3162962 0.09667991 0.12607357 0.0031242669
-1.0214424 -0.0042143413 -0.34000623 -0.22796498 0.029453725 -0.40860277 -0.0005585234 -0.38682708
-0.11859271 -0.1422507 -0.2568691 0.31575462 -0.19308132 -0.09065201 -0.603195 -0.0043290034
0.48658207 -0.006816402 0.0014488719 -0.39082527 0.3355485 -0.7974151 -0.40924132 -0.00051403965
-0.005504473 0.04192459 -0.29917163 -0.001310221 -0.19146585 0.31437758 -0.43257213 -0.45087364
0.0710441 -0.6144793 0.025578193 -0.42061445 -0.4682242 0.0024975098 0.0028792166 -0.5997392
0.00964015 -0.39524546 -0.17348291 -0.003054109 -0.73599756 -0.26058924 -0.8735068 -0.29912102
00000000: beef dcbe ca84 ccbe e9b7 dbbe 347f 1dbe
00000010: 0575 20bb 1a9b 2abf 8cd3 58bf c213 e7be
00000020: 77e7 0abf c9ec a9be 0701 d8b8 53a4 bdbe
00000030: 2501 62bd bacc 623d efce 033a e453 04be
00000040: cd89 97be 17be 823b 9ae2 2fbb 262b 923b
00000050: baea 37be 8924 03bd 0f5d 3e3e ddb8 2ebf
00000060: 69f5 85bf d897 f5bd aa7b c7bd 2821 14bb
00000070: 371d 7dbd 6d6c f53c a064 bf3b ed28 90be
00000080: 920a a8ba a99e 3b3e 6304 f1bc af82 853e
00000090: 1d88 313f ed43 213e ef47 40bf 98c9 42bf
000000a0: e28e 5bbe 0f8b a33e 9e71 dcbf e88c 8fbb
000000b0: 9ce1 113c 208d 4f3e e5ec c5be bd93 103d
000000c0: 5f2d 02bd eb95 873e 1c82 83bb ced0 08bf
000000d0: 0b3a 6ebf 2ebf ccbe 0f8e ae3b e286 c5be
000000e0: a736 053d 6e0c 27bf 56cb d7be d5fc 893e
000000f0: aa18 c73b e8be b5be f67c 8d3d 9c32 dcba
00000100: 5eed b73a 6e17 e6be 50c2 d63b 053c d43c
00000110: 3959 80bf e0c9 39be 7612 d53d e732 ccbb
00000120: 4532 3d3b f314 e0be a247 c7bf 7f89 ffbd
00000130: 657c a8bf 1e00 c63d 6e19 013e 80c0 4c3b
00000140: a0be 82bf 7518 8abb 4c15 aebe a76f 69be
00000150: f048 f13c 6234 d1be df69 12ba 330e c6be
00000160: bce0 f2bd 2baa 11be 5984 83be 97aa a13e
00000170: 1cb7 45be c3a7 b9bd fd6a 1abf 50da 8dbb
00000180: 4921 f93e 205c dfbb 13e8 bd3a 401a c8be
00000190: 03cd ab3e 6523 4cbf 1488 d1be 9ec0 06ba
000001a0: de5e b4bb 1eb9 2b3d 062d 99be b9bb abba
000001b0: a00f 44be 19f6 a03e 187a ddbe e9d8 e6be
000001c0: 927f 913d 844e 1dbf 5c89 d13c c75a d7be
000001d0: 15bb efbe 43ad 233b 3db1 3c3b 8288 19bf
000001e0: b8f1 1d3c 9d5d cabe 81a5 31be 7227 48bb
000001f0: 566a 3cbf f46b 85be 249e 5fbf 6426 99be

a2c_network.actor_mlp.2.weight f4 [128, 128]
0.021341395 -0.031298846 0.039528094 0.0043033212 0.059589323 0.037052993 0.0133872945 0.036281332
0.06278935 0.075320415 0.11420315 -0.0052933814 -0.0634722 0.020910345 0.19426574 -0.07711806
-0.018762356 0.17894275 0.064722486 0.012524374 -0.016052134 0.101321176 0.006664914 0.036763094
-0.018286392 0.022805419 -0.003645582 -0.1659782 0.16503982 0.15395029 -0.006893513 -0.061754987
-0.08748466 0.0063340534 0.12328963 0.07994177 0.0031561716 0.075110435 -0.042421218 -0.022559073
0.019940654 -0.08427287 0.008241053 -0.15266779 0.003637933 0.0016194597 -0.0034822111 0.025619121
-0.026448617 0.091702625 -0.01624667 -0.029316192 -0.054767523 -0.016536778 -0.03733828 0.049522188
0.068309724 0.023483135 -0.006186651 0.090567544 -0.024212018 -0.045070257 -0.026016505 0.011096442
0.115696944 0.09303091 0.056525357 -0.04454834 -0.030362505 0.0071692686 0.028913984 0.045282654
0.053588547 0.05953762 0.0010946591 0.026461 0.010441293 0.01042162 -0.0302339 0.10265219
0.032205652 0.07403044 -0.050642 0.0020673305 -0.12629966 0.009665511 0.030094052 -0.000757669
-0.060618654 0.027115466 -0.039512217 0.06312961 0.076149486 0.031964026 -0.025305608 -0.014692093
-0.027052894 -0.026060915 0.03905444 0.028382607 0.041099954 0.0043598684 0.016428264 0.06078294
-0.09640663 0.04165783 -0.010594487 -0.08722738 0.033735048 0.022798678 -0.039037235 0.069824
-0.00692839 -0.06143059 -0.01034403 -0.12520808 -0.03968543 -0.109843194 0.0025358824 0.009575865
-0.012319806 -0.10469383 0.007757636 -0.10966815 -0.030048337 0.053570565 -0.0146927815 -0.048375785
0.02138383 -0.005152245 -0.15751274 -0.04222555 -0.017012719 -0.09295703 -0.0066666687 0.0109915985
-0.0153589295 0.030437576 -0.043317158 -0.015072308 -0.06481982 -0.057088412 -0.032970537 0.028553927
-0.023814688 0.03595257 -0.000714701 0.12506394 -0.0072901007 0.034670684 0.0128766745 -0.0014538255
0.017681954 0.0029439458 0.030685402 -0.071467996 -0.020172874 -0.06492588 -0.0013091493 -0.043720383
-0.13008234 -0.051484298 0.01882162 -0.057673767 -0.0026803296 0.08363152 0.01964206 -0.049351983
-0.03829889 0.07015138 0.00056984584 -0.056594364 0.00065914635 -0.04227661 0.017640026 -0.03570516
0.063518226 0.07408874 -0.031753264 0.05894757 0.042831883 -0.03283256 -0.15923776 0.019567693
0.035780095 -0.00488612 -0.005230738 -0.03517741 0.03145572 0.051544257 0.058994673 -0.04938249
-0.026286054 -0.019948656 0.063625105 0.0053196107 0.014454763 -0.0325095 0.009561855 0.023068016
-0.07746127 6.629174e-06 0.010822748 0.008015144 0.022484653 -0.044572525 0.0837767 0.09797594
0.023635808 0.0012097084 0.028468857 0.017241843 0.017450089 0.0007536488 -0.022754334 -0.018810926
-0.020419123 -0.027363092 0.022927271 -0.09965954 0.09487823 0.07814409 0.07711556 -0.010735775
-0.026446389 -0.03349595 -0.16253762 0.0034234624 0.019278057 -0.015746687 -0.021302348 -0.0571857
-0.058670968 -0.01028261 0.0013170269 0.012027541 0.052086446 -0.008663686 -0.04237345 -0.021638833
-0.031963192 0.049062066 0.029443428 0.05706339 -0.013979005 0.04629032 -0.0622979 -0.011597694
0.14278083 -0.06716353 -0.0056103235 0.12509897 -0.029763697 0.09339773 -0.003188626 0.052756313
00000000: 26d4 ae3c 3833 00bd 36e8 213d e002 8d3b
00000010: ef13 743d e1c4 173d 6256 5b3c bc9b 143d
00000020: b497 803d 9741 9a3d 57e3 e93d 1a74 adbb
00000030: b6fd 81bd 2c4c ab3c 99ed 463e 13f0 9dbd
00000040: 83b3 99bc c53c 373e 398d 843d 0833 4d3c
00000050: c47f 83bc 7a81 cf3d 5a65 da3b e694 163d
00000060: 58cd 95bc 6ed2 ba3c b7ea 6ebb 30f6 29be
00000070: 3300 293e 25a5 1d3e fae2 e1bb ccf2 7cbd
00000080: 282b b3bd e48d cf3b 467f fc3d 83b8 a33d
00000090: c6d7 4e3b 80d3 993d dfc1 2dbd cecd b8bc
000000a0: 955a a33c 4197 acbd 7b05 073c f254 1cbe
000000b0: 636a 6e3b 0d44 d43a cf35 64bb 31df d13c
000000c0: c5aa d8bc 96ce bb3d bd17 85bc 8328 f0bc
000000d0: e953 60bd 2378 87bc 06f0 18bd c7d7 4a3d
000000e0: f8e5 8b3d b45f c03c 64b9 cabb 7a7b b93d
000000f0: 4858 c6bc 979b 38bd 9120 d5bc dacd 353c
00000100: 85f2 ec3d fd86 be3d 2287 673d 5278 36bd
00000110: caba f8bc 2fec ea3b 05dd ec3c 4e7a 393d
00000120: aa7f 5b3d b8dd 733d aa7a 8f3a bdc4 d83c
00000130: f511 2b3c 71bf 2a3c 15ad f7bc 503b d23d
00000140: 13ea 033d 459d 973d fc6d 4fbd 0d7c 073b
00000150: b354 01be 175c 1e3c cd87 f63c 4e9e 46ba
00000160: 444b 78bd 4121 de3c 90d7 21bd 194a 813d
00000170: 43f4 9b3d b6ec 023d b54d cfbc 1bb7 70bc
00000180: 089e ddbc b37d d5bc 8cf7 1f3d a482 e83c
00000190: 6d58 283d 3add 8e3b 9194 863c 88f7 783d
000001a0: d770 c5bd 67a1 2a3d 8094 2dbc 45a4 b2bd
000001b0: c32d 0a3d 4bc4 ba3c 82e5 1fbd e3ff 8e3d
000001c0: 8c07 e3bb a49e 7bbd 027a 29bc 8c36 00be
000001d0: 308d 22bd 78f5 e0bd 0c31 263b 17e4 1c3c
000001e0: 03d9 49bc b869 d6bd c433 fe3b b299 e0bd
000001f0: ee27 f6bc cf6c 5b3d feb9 70bc b025 46bd
00000200: 242d af3c 2ad4 a8bb 054b 21be b3f4 2cbd
00000210: 425e 8bbc 4160 bebd 1274 dabb 1b16 343c
00000220: 05a4 7bbc 3958 f93c 556d 31bd d7f1 76bc
00000230: 41c0 84bd 8ad5 69bd 1d0c 07bd ede9 e93c
00000240: 0517 c3bc 0143 133d c65a 3bba c310 003e
00000250: cce1 eebb d902 0e3d b0f8 523c 4a8e beba
00000260: bfd9 903c 37ef 403b f45f fb3c d05d 92bd
00000270: 9541 a5bc dcf7 84bd c397 abba 2514 33bd
00000280: 4e34 05be 33e1 52bd cc2f 9a3c 543b 6cbd
00000290: 78a8 2fbb 0147 ab3d 63e8 a03c 4e25 4abd
000002a0: 4cdf 1cbd 87ab 8f3d b561 153a 7ecf 67bd
000002b0: 90ca 2c3a 3d2a 2dbd d181 903c 933f 12bd
000002c0: d815 823d d6bb 973d b60f 02bd 0273 713d
000002d0: 7c70 2f3d 6f7b 06bd 390f 23be 6d4c a03c
000002e0: 268e 123d bf1b a0bb 9c66 abbb 3016 10bd
000002f0: b7d7 003d 1220 533d 66a4 713d 4b45 4abd
00000300: da55 d7bc 5d6b a3bc e14d 823d 2150 ae3b
00000310: acd3 6c3c ae28 05bd 54a9 1c3c 23f9 bc3c
00000320: 04a4 9ebd 2c70 de36 e551 313c f351 033c
00000330: bc31 b83c ae91 36bd 1e93 ab3d 9ca7 c83d
00000340: e29f c13c 148f 9e3a 8537 e93c c43e 8d3c
00000350: 7df3 8e3c 8490 453a 4c67 babc 5f19 9abc
00000360: 0146 a7bc 9028 e0bc f9d1 bb3c 4d1a ccbd
00000370: 844f c23d 020a a03d c3ee 9d3d 1be5 2fbc
00000380: 19a6 d8bc 0d33 09bd 4370 26be 2b5c 603b
00000390: 04ed 9d3c 32ff 80bc 4382 aebc 8d3b 6abd
000003a0: f850 70bd 6478 28bc 17a0 ac3a 2a0f 453c
000003b0: 9958 553d 22f2 0dbc c88f 2dbd ec43 b1bc
000003c0: d6eb 02bd 4ef5 483d 5833 f13c 4dbb 693d
000003d0: 3208 65bc eb9a 3d3d 152c 7fbd 4104 3ebc
000003e0: 2335 123e 088d 89bd ced6 b7bb f219 003e
000003f0: ffd2 f3bc 4f47 bf3d 44f8 50bb 0117 583d

a2c_network.actor_mlp.2.bias f4 [128]
-0.10131534 0.04881685 -0.105875194 0.082496345 0.16900538 0.045191303 -0.07742939 -0.48050144
0.025709588 -0.38990253 0.13130753 0.04107659 0.0026225415 0.06092934 -0.019468477 0.0015765072
-0.76317656 0.1491181 -0.052994933 0.03402512 0.06366218 0.15387708 0.08519638 0.008908259
-0.12109498 0.08733952 0.038532153 0.015719624 0.10713397 -0.07632032 0.06675494 0.06847391
-0.5450715 0.112999395 -0.65222627 -0.029554995 -0.1035549 -0.36786926 -0.3447868 0.0473548
-0.024954818 0.009827357 0.08539684 -0.38024685 -0.8255085 -0.16787338 0.042804856 0.15935543
-0.28923577 0.13754967 0.012585831 -0.12538117 0.059856694 0.0683661 0.027601058 0.047640014
-0.022356031 -0.034417268 -0.38546094 -0.40480837 0.061009496 -0.015725525 -0.028633466 -0.06272634
-0.007930535 0.0980908 0.199805 -0.07866538 -0.021062613 0.030197764 -0.04727663 0.10059754
0.06854899 -0.0960457 -0.8477671 0.050613854 -0.12561247 0.11958215 0.1359687 0.12198925
0.102167875 -0.3060348 -0.30704436 0.07538898 0.0435742 0.034959674 -0.005939227 -0.30785775
-0.9122149 -0.4407064 -0.5137539 -0.8884897 0.05531867 0.02153956 0.059004582 -0.019260071
-0.6527985 -0.08885808 0.054223068 0.09644622 0.20946825 -0.08739189 -0.37572443 -0.0025398103
0.10393945 -0.49529192 -0.031064902 -0.1239531 0.049645923 0.05674491 -0.05727443 0.062468342
-0.39069623 -0.020314386 0.013906222 0.009131537 0.042553857 0.016881417 -0.22360158 -0.4212599
-0.043007128 -0.17947318 0.006154037 0.09415097 -0.30957383 0.09162938 -0.24390306 -0.6771116
00000000: 6b7e cfbd 2df4 473d 18d5 d8bd d8f3 a83d
00000010: bf0f 2d3e 841a 393d 4d93 9ebd 4904 f6be
00000020: ea9c d23c 4ea1 c7be 7b75 063e ed3f 283d
00000030: f2de 2b3b 0b91 793d 5b7c 9fbc cea2 ce3a
00000040: 8a5f 43bf 6ab2 183e 3711 59bd ed5d 0b3d
00000050: 5161 823d f491 1d3e 717b ae3d f2f3 113c
00000060: a500 f8bd 10df b23d e4d3 1d3d 71c6 803c
00000070: 0e69 db3d d44d 9cbd d0b6 883d 0d3c 8c3d
00000080: ce89 0bbf 3a6c e73d 4df8 26bf 511d f2bc
00000090: 9714 d4bd 5c59 bcbe e587 b0be 1bf7 413d
000000a0: 0c6e ccbc ec02 213c 8ae4 ae3d b7af c2be
000000b0: 8654 53bf 00e7 2bbe 2554 2f3d 122e 233e
000000c0: b616 94be d2d9 0c3e cd34 4e3c ec63 00be
000000d0: 4b2c 753d 8703 8c3d 9d1b e23c 2d22 433d
000000e0: ff23 b7bc 1ff9 0cbd 235b c5be 0b43 cfbe
000000f0: 18e5 793d d1d2 80bc bb90 eabc ab76 80bd
00000100: 13ef 01bc d4e3 c83d af99 4c3e 511b a1bd
00000110: 808b acbc 4d61 f73c 24a5 41bd 1506 ce3d
00000120: 6a63 8c3d 9cb3 c4bd 4407 59bf 7950 4f3d
00000130: 8ea0 00be 7ce7 f43d 613b 0b3e 80d5 f93d
00000140: 643d d13d 98b0 9cbe eb34 9dbe 8a65 9a3d
00000150: dc7a 323d e031 0f3d d99d c2bb 889f 9dbe
00000160: ea86 69bf 45a4 e1be 6085 03bf 1074 63bf
00000170: d495 623d bb73 b03c caae 713d 4cc7 9dbc
00000180: cd1d 27bf 3afb b5bd 0219 5e3d 9985 c53d
00000190: d87e 563e 85fa b2bd f45e c0be f272 26bb
000001a0: 35de d43d e796 fdbe d27b febc 1fdb fdbd
000001b0: 8659 4b3d 5a6d 683d 9898 6abd cede 7f3d
000001c0: 5609 c8be 5b6a a6bc ecd6 633c 719c 153c
000001d0: f44c 2e3d e64a 8a3c d0f7 64be 61af d7be
000001e0: 3e28 30bd d1c7 37be cea7 c93b 39d2 c03d
000001f0: 7680 9ebe 2fa8 bb3d b9c1 79be 3057 2dbf

a2c_network.value.weight f4 [1, 128]
-0.00046159147 0.00042426042 -0.034727402 0.0013202854 -0.0016970929 0.6265415 8.251562e-05 0.0032584202
0.0013914525 0.028805807 -0.0045985808 -0.0024388612 -0.0035646271 0.0016545065 0.00055690634 0.0004663071
0.00013194789 0.0011726925 0.0009925659 9.347325e-05 -6.716889e-05 0.0015880178 -0.00046767946 0.006220025
-0.34788275 0.00031822667 -0.00082176825 -0.00070943456 -0.0068963342 -0.0058438154 0.00029872716 -0.001487191
0.27653787 1.0835854 0.040751852 0.00023959891 -0.001248065 0.000957769 0.013492099 0.0010829839
0.0007868717 0.0010534256 -0.0012190377 -0.001063562 0.005034345 0.021790354 0.00035684698 -0.0011730144
0.18759994 -0.0009102539 -0.00021893893 -0.0010648246 -0.0013920531 0.007119928 -0.0024530196 -0.0013011032
-0.0023554321 -0.00046595724 -0.028771965 -0.0139564155 0.0022473584 -0.0005680627 0.0013039995 0.0017225072
-0.0015476154 0.00048050162 -0.0008019934 -0.00045018698 0.0071023493 0.0011793331 -0.00097562757 6.965264e-05
-0.003522655 0.10830465 0.05589149 0.003451271 -0.0007526255 0.0006487138 0.005995291 0.0016791305
0.00017992263 0.0027932057 -0.047686983 0.0004223996 0.00035489633 -0.0013139728 0.00032758812 -0.72416556
-0.03932835 -0.022718469 0.015556816 -0.019842505 -0.0050289347 0.0004879816 0.001687677 -0.00020555375
-0.04113774 -0.0014149293 0.0005807714 0.00023466215 0.0022282437 -1.1377856 0.016314827 -0.0014306495
-2.6238169e-05 -0.6909539 -0.0021513402 -0.0019978061 -0.0002060577 0.0003991076 -0.0011023539 0.000649523
-0.1751393 0.00030432927 -0.0008897036 -0.0018499622 0.0014207984 0.0004228344 0.21553588 0.2790464
-0.00037793673 0.0013211959 -0.00026089005 0.42339692 -0.009784003 -0.0020965287 0.7397684 -0.33103
00000000: c201 f2b9 456f de39 523e 0ebd 6d0d ad3a
00000010: fd70 deba 0665 203f 3c0c ad38 388b 553b
00000020: 6661 b63a 28fa eb3c b1af 96bb 4dd5 1fbb
00000030: 859c 69bb 07dc d83a 5afd 113a ae7a f439
00000040: 7e5b 0a39 08b5 993a fc18 823a 1207 c438
00000050: 06dd 8cb8 0925 d03a e032 f5b9 5ad1 cb3b
00000060: b01d b2be a9d7 a639 ef6b 57ba 59f9 39ba
00000070: a5fa e1bb 7a7d bfbb 7b9e 9c39 d9ed c2ba
00000080: 5f96 8d3e edb2 8a3f 6aeb 263d d83c 7b39
00000090: 1d96 a3ba ca12 7b3a f70d 5d3c e9f2 8d3a
000000a0: 1146 4e3a 1913 8a3a 1ec8 9fba 3867 8bba
000000b0: 26f7 a43b af81 b23c 3117 bb39 d5bf 99ba
000000c0: 331a 403e 1b9e 6eba f992 65b9 9691 8bba
000000d0: 8d75 b6ba 494e e93b d7c2 20bb c789 aaba
000000e0: 985d 1abb b94b f4b9 2fb3 ebbc 73a9 64bc
000000f0: 6b48 133b 0bea 14ba f6ea aa3a c0c5 e13a
00000100: 5bd9 caba d6eb fb39 de3c 52ba 1307 ecb9
00000110: d3ba e83b da93 9a3a 42c1 7fba 7a12 9238
00000120: 58dc 66bb d4ce dd3d 7aee 643d b82e 623b
00000130: d84b 45ba 720e 2a3a 2574 c43b 4516 dc3a
00000140: 9da9 3c39 370e 373b 6d53 43bd 8475 dd39
00000150: 6111 ba39 9c39 acba 22c0 ab39 ea62 39bf
00000160: c416 21bd 151c babc 04e2 7e3c c08c a2bc
00000170: c3c9 a4bb c8d7 ff39 0b35 dd3a ea89 57b9
00000180: 0c80 28bd 2675 b9ba e93e 183a a40f 7639
00000190: ba07 123b f5a2 91bf aca6 853c a284 bbba
000001a0: 0a1a dcb7 5be2 30bf 80fd 0cbb a0ed 02bb
000001b0: 3111 58b9 513f d139 dc7c 90ba c044 2a3a
000001c0: b757 33be 628e 9f39 ff3a 69ba 6e7a f2ba
000001d0: 153a ba3a dfaf dd39 70b5 5c3e 2bdf 8e3e
000001e0: cf25 c6b9 fa2b ad3a 12c8 88b9 7bc7 d83e
000001f0: 154d 20bc ea65 09bb 7661 3d3f c47c a9be

a2c_network.mu.weight f4 [3, 128]
-0.00013727891 0.00027974127 0.027360985 -8.4744126e-05 -7.187314e-05 0.017967936 0.00031439625 0.15490834
0.00015758537 -0.0010039173 -6.767072e-05 -0.00083626 0.0005758505 -0.000114712886 0.00013576896 -0.00041082673
0.053193875 -0.00015352326 0.00019783207 -4.9175874e-06 0.00058684713 -0.002066398 0.00021880202 0.00036924725
-0.00065615634 7.419169e-05 -6.591868e-05 2.5014917e-05 -4.11801e-05 0.0012087154 -3.0089503e-05 -0.00019896044
-0.008511105 -0.03421665 0.07521515 -0.0002451455 0.00014622505 -0.0853032 0.051937036 -0.00084878533
-0.0003660539 0.0005257124 0.00029996072 -0.037606746 -0.18609379 -0.031316523 -0.00016006053 -6.959647e-05
-0.026544917 -0.00016743221 -0.00015329609 0.00038377946 0.00033379713 0.0019685535 0.0006097139 -0.00042449942
0.0015255583 -8.389691e-05 0.103397585 0.11239393 -0.00013898025 -0.00019531281 -5.247763e-05 5.6952854e-06
0.0002673317 0.00025090348 -0.00055069133 -0.0003552441 -0.0024095096 -0.00030760298 0.00023068568 2.5722857e-06
-0.00056532 0.03511192 0.00011019878 0.001449788 -4.9552866e-05 -0.00013234132 0.00034430996 0.0002462671
-0.0002986463 0.0034399312 0.06057143 5.592781e-05 0.00037126054 1.821097e-05 -0.000413392 0.020879349
0.004857083 -0.08682513 -0.123052195 0.12617126 0.002069622 -0.00041039093 -0.00031543456 7.8579615e-05
-0.06391549 0.00037629632 -0.00013981505 0.0007360709 -0.00051282835 0.025478872 0.088035226 0.00026779773
0.00014942877 -0.021078901 0.0005756262 0.00011327753 -0.00048441289 0.00014061116 0.0003154953 -4.2581825e-05
-0.09181796 0.00017283771 -6.7633623e-06 0.00020693312 0.00051912566 -3.3336553e-05 -0.0360705 -0.041054156
-0.00019125566 -9.368208e-05 0.00019326602 -0.032846052 0.007279781 -0.00133081 -0.0049944296 0.018946115
0.0005957188 5.356918e-05 0.018878859 8.531371e-05 -0.0007036428 0.008554709 9.681793e-05 0.0061192783
-0.00043087237 0.113654315 0.00064276985 -0.00053265423 -0.0004335373 -0.00025258947 3.8964805e-05 -0.00018113878
-0.01664698 -0.0007380397 -0.00018432569 -0.00035022883 -0.00070167874 3.0257524e-05 -0.00049219606 9.6918266e-05
0.009310282 -0.00010256654 0.00017025383 0.00069695804 0.0007893448 -0.0025543896 -0.00010488884 -0.0005924845
-0.098592624 -0.023817247 0.021072235 0.00043279264 -0.00041287503 0.015065576 0.020261982 -0.00016332843
-6.953152e-05 -0.00047678986 -0.00034903007 0.021803748 0.00027035142 0.0011724352 -0.0002501779 -0.00010529836
0.009397407 -5.9240967e-05 -6.205324e-05 0.0011399315 -0.00030815526 0.0014465182 -8.799133e-05 0.0005443647
-0.0009363874 -4.3759384e-05 0.048492778 0.22346047 -0.00045629943 -0.00018911617 0.00052822963 -4.7516096e-05
-0.00038904214 -0.0008790325 0.00019571012 -3.929295e-05 -4.003699e-05 -1.8398721e-05 -0.0004164806 -5.361007e-05
-0.000977523 -0.04253767 0.009748184 -0.00048514086 0.00021850475 0.00016734017 -0.00018165952 -0.00022755998
-0.00013406991 -0.10987983 -0.049158745 -0.00017590435 -0.00028573157 -2.9805458e-05 9.8739416e-05 0.033748362
-0.17852834 0.078449845 0.10987254 -0.0060147303 -0.0025038966 4.4332544e-05 -8.916041e-05 -9.0319416e-05
0.06344581 0.00020141886 0.00025809873 -0.0010528859 -0.0005665308 -0.018770749 -0.045008156 -0.00020567316
-0.0004802699 0.026805747 0.00010109321 -0.0005933445 -0.0001007733 -0.0001889105 -0.00088071486 -0.00021318698
-0.10019294 -0.001195162 -0.0005532705 0.00040163103 -0.0012413329 -0.00021270891 0.106497504 0.17321466
0.0001732188 5.982706e-05 -0.0003283195 0.011433915 0.0555368 -0.001101742 0.044658434 0.0057552326
00000000: 87f2 0fb9 3daa 9239 2524 e03c a8b8 b1b8
00000010: 99ba 96b8 7e31 933c 8dd5 a439 4ba0 1e3e
00000020: 803d 2539 e095 83ba 71ea 8db8 7538 5bba
00000030: acf4 163a 0392 f0b8 345d 0e39 3b64 d7b9
00000040: d2e1 593d 16fb 20b9 2471 4f39 c101 a5b6
00000050: a5d6 193a 686c 07bb 386e 6539 8797 c139
00000060: e801 2cba 5c97 9b38 d23d 8ab8 20d7 d137
00000070: ccb8 2cb8 c26d 9e3a b768 fcb7 09a0 50b9
00000080: 2972 0bbc c226 0cbd 670a 9a3d df86 80b9
00000090: fd53 1939 72b3 aebd eebb 543d 0581 5eba
000000a0: ecea bfb9 f6cf 093a 0c44 9d39 8809 1abd
000000b0: 5f8f 3ebe c145 00bd ecd5 27b9 52f4 91b8
000000c0: ba74 d9bc be90 2fb9 1bbe 20b9 0236 c939
000000d0: 7e01 af39 d902 013b 35d5 1f3a 598f deb9
000000e0: 3ef5 c73a d0f1 afb8 1dc2 d33d ca2e e63d
000000f0: 3abb 11b9 e2cc 4cb9 6d1b 5cb8 211a bf36
00000100: a728 8c39 b28b 8339 455c 10ba 0e40 bab9
00000110: dde8 1dbb c645 a1b9 37e4 7139 889f 2c36
00000120: fc31 14ba 84d1 0f3d 851a e738 d006 be3a
00000130: fcd6 4fb8 1ac5 0ab9 8084 b439 691d 8139
00000140: a193 9cb9 7870 613b bf19 783d 0794 6a38
00000150: bfa5 c239 c3c3 9837 89bc d8b9 2b0b ab3c
00000160: 2a28 9f3b 60d1 b1bd ca02 fcbd 0a33 013e
00000170: 7fa2 073b bd29 d7b9 e960 a5b9 1ccb a438
00000180: 20e6 82bd a349 c539 519b 12b9 e2f4 403a
00000190: 546f 06ba 11b9 d03c d04b b43d 3467 8c39
000001a0: fbaf 1c39 a9ad acbc 9fe5 163a 698f ed38
000001b0: ccf8 fdb9 0571 1339 1069 a539 e399 32b8
000001c0: 0e0b bcbd c53b 3539 d7f0 e2b6 30fc 5839
000001d0: ef15 083a dad2 0bb8 a9be 13bd 6728 28bd
000001e0: cd8b 48b9 2f77 c4b8 74a7 4a39 9589 06bd
000001f0: 3b8b ee3b 936e aeba 50a8 a3bb e234 9b3c
00000200: 032a 1c3a 78af 6038 d6a7 9a3c 73ea b238
00000210: ab74 38ba 0d29 0c3c bb0a cb38 3a84 c83b
00000220: b6e6 e1b9 98c3 e83d 8e7f 283a d2a1 0bba
00000230: 644c e3b9 fc6d 84b9 246e 2338 12f0 3db9
00000240: 3f5f 88bc 0179 41ba 8d47 41b9 eb9e b7b9
00000250: ddf0 37ba 8ad1 fd37 b806 01ba 9940 cb38
00000260: 278a 183c fe18 d7b8 2a86 3239 10b4 363a
00000270: 08ec 4e3a 8c67 27bb c4f7 dbb8 f650 1bba
00000280: eeea c9bd 631c c3bc ae9f ac3c 72e8 e239
00000290: 2677 d8b9 9bd5 763c 75fc a53c 2443 2bb9
000002a0: 73d1 91b8 a7f9 f9b9 06fe b6b9 c69d b23c
000002b0: f4bd 8d39 66ac 993a 4f2a 83b9 a0d3 dcb8
000002c0: 95f7 193c 8179 78b8 9422 82b8 c169 953a
000002d0: e68f a1b9 1999 bd3a fc87 b8b8 b2b3 0e3a
000002e0: e577 75ba 488a 37b8 5da0 463d d2d2 643e
000002f0: 793b efb9 7c4d 46b9 e478 0a3a 054c 47b8
00000300: 5af8 cbb9 df6e 66ba 8937 4d39 7cce 24b8
00000310: 64ed 27b8 f456 9ab7 145b dab9 60db 60b8
00000320: 3b20 80ba fb3b 2ebd d9b6 1f3c 815a feb9
00000330: 6c1e 6539 0978 2f39 db7b 3eb9 2b9d 6eb9
00000340: 1e95 0cb9 ad08 e1bd ae5a 49bd f772 38b9
00000350: 3ece 95b9 bc06 fab7 5212 cf38 b93b 0a3d
00000360: 22d0 36be 50aa a03d db04 e13d 3717 c5bb
00000370: 6a18 24bb b5f1 3938 a1fb bab8 de69 bdb8
00000380: e0ef 813d f733 5339 6d51 8739 fd00 8aba
00000390: 3d83 14ba 1dc5 99bc 795a 38bd f8a9 57b9
000003a0: bccc fbb9 ba97 db3c 0102 d438 ad8a 1bba
000003b0: 4156 d3b8 4716 46b9 c6df 66ba f28a 5fb9
000003c0: f531 cdbd fba6 9cba 5b09 11ba 0192 d239
000003d0: 38b4 a2ba 9d0a 5fb9 5d1b da3d 2f5f 313e
000003e0: 11a2 3539 d1ee 7a38 4c22 acb9 5155 3b3c
000003f0: 8e7a 633d 5468 90ba c3eb 363d 6496 bc3b

a2c_network.mu.bias f4 [3]
-0.13495532 0.1484894 0.00421103
00000000: ba31 0abe 9b0d 183e aefc 893b

exp_avg f4 [3]
-5.3291216e-05 7.3211355e-05 -0.00021648078
00000000: 0285 5fb8 0c89 9938 1eff 62b9

exp_avg_sq f4 [3]
4.6180836e-07 4.177743e-07 5.1779404e-07
00000000: 75ee f734 764a e034 89fe 0a35

exp_avg f4 [128, 12]
-0.0007229731 -3.1341373e-05 0.00011619186 0.00022840644 -0.00016988536 0.00037127326 -0.000100963574 0.00080572703
0.00039948442 -0.0003521229 -4.600998e-05 0.00013382001 0.00033942715 0.00025426818 0.00043963335 -6.559003e-06
-0.00019165536 0.00023046086 -0.00026212423 -0.00016667187 -0.0009135678 0.00039776159 0.0002185561 0.000448058
-2.932977e-05 5.4889256e-06 0.00051671366 3.5175035e-05 -1.0781001e-05 0.00018134713 -0.0003660493 0.00016156581
-0.00045983764 5.7484805e-05 1.196397e-05 0.0005221357 6.418025e-06 -0.00017078429 0.00044463322 0.00032878443
-0.0005072694 0.000957541 -0.00016988235 -6.7686036e-05 -0.00042150856 0.00038727382 -0.00029195362 0.00048810686
9.1396873e-07 -1.714076e-05 -5.533455e-05 3.293285e-06 -2.4801413e-06 -6.729065e-06 2.6163978e-05 -2.0131918e-05
-6.2878858e-06 7.0996234e-06 -1.6915092e-05 -5.5377477e-05 -0.00013231905 -0.00039031892 0.0001614101 0.00037917442
-0.0004626331 0.0010115674 -0.000106152846 6.547273e-05 -0.0001516495 0.00041794928 -0.0004259738 0.00020969212
0.00025181685 -0.0002491079 8.11381e-05 0.00023884934 -0.00039416546 0.0005458935 -0.00013172171 -0.00039361286
0.00015623479 0.0003397407 -0.0003218442 0.00010674935 2.0988563e-07 2.8638602e-05 -0.00083796086 -3.2602355e-05
3.8349102e-05 -0.00017778896 -0.00040613773 -0.00029855422 -0.0004398586 -8.561633e-05 5.522949e-06 -0.000842483
0.00018067154 -0.00010326863 -0.00020138838 -9.02193e-05 0.00017504822 -0.00010835817 1.09635e-05 -0.00014534009
-0.00037858018 0.00013608612 -2.4036954e-05 -0.00020588511 0.0002474445 -0.00012708642 0.00014995951 1.6492831e-05
-0.00016972207 8.386789e-05 -7.494116e-05 -2.5302783e-05 -7.173991e-05 0.00020153925 -0.00015165097 0.00015268642
-1.685016e-05 -2.4718769e-05 9.733529e-05 -5.8764033e-07 6.2745303e-06 3.0832885e-05 5.19119e-06 2.4848943e-05
4.7055393e-05 3.6689542e-06 -1.5784899e-05 9.832336e-05 0.00061103655 -0.00032989832 0.00076995447 0.0001865157
-0.00013008135 0.0004941442 0.0001152409 -0.00082585355 -0.00029014656 0.00065903034 -0.0002892132 0.0007906925
-3.9221293e-05 -1.2523104e-05 0.00012560458 -7.830413e-05 0.000105127845 -7.25155e-05 -6.309561e-05 0.00011598261
-3.9156806e-05 -2.6988348e-05 3.068041e-05 0.000121132754 -0.0005039055 0.0004223956 6.439512e-05 -0.00013461878
0.00025735458 -0.0006045664 0.00025688444 -0.00013349777 1.6163109e-06 -0.00079538964 0.00039377797 3.5560486e-05
6.9989132e-06 6.2303043e-06 8.390029e-05 -5.517498e-06 5.646535e-06 1.0294464e-05 -3.997557e-05 1.7575512e-05
-2.7264425e-06 5.8533888e-06 1.018089e-05 8.398774e-05 -0.0006831169 0.00021250911 7.649447e-05 9.951088e-06
0.000110226254 -4.7625468e-05 0.00015400714 0.00074919336 6.8992056e-05 -0.00046469198 0.00019153419 7.4179865e-05
-8.370158e-05 -0.00020337735 -0.00033958143 5.834515e-05 -7.323739e-05 -0.0001521879 9.11159e-05 0.00036923352
-4.1556774e-05 -9.650117e-05 -0.0001973908 -0.0003448869 3.78418e-05 -4.689333e-06 -7.729064e-05 5.927539e-06
-2.0006026e-05 -7.439647e-06 4.4856133e-05 -6.5576685e-05 -6.9927024e-05 3.0169667e-05 -1.2930348e-05 -7.729723e-05
-0.00011096938 -8.891322e-07 -0.0003110015 0.0001735538 -0.0002899889 0.00020876474 0.00013600616 -0.00016465329
-0.0001627284 7.982353e-05 -0.00013173773 -0.00029913583 -6.029146e-06 -2.4489007e-06 7.409923e-05 9.953093e-07
-4.3107116e-06 2.4481726e-05 -5.8967055e-07 -2.1026045e-07 1.5568641e-05 -6.48085e-08 3.8141482e-07 7.490375e-05
-0.00031625398 0.00034610738 0.00013027382 -0.00021815354 0.00019804343 -0.00066127983 -0.0002136435 0.00035043425
7.603077e-05 -0.0004755058 0.00037143662 9.720167e-05 -6.472864e-05 -3.5775897e-06 0.00027475657 -1.606903e-05
00000000: e785 3dba 8b74 03b8 08ac f338 6380 6f39
00000010: 4123 32b9 74a7 c239 68bc d3b8 6d37 533a
00000020: e471 d139 239d b8b9 d7fa 40b8 0952 0c39
00000030: 24f5 b139 4c4f 8539 977e e639 6815 dcb6
00000040: 18f7 48b9 dea7 7139 b86d 89b9 a4c4 2eb9
00000050: 7f7c 6fba a88a d039 352c 6539 54e9 ea39
00000060: 3409 f6b7 832d b836 1174 073a e888 1338
00000070: 0ce0 34b7 0028 3e39 4eea bfb9 fe69 2939
00000080: 5d16 f1b9 d71b 7138 dcb8 4837 efdf 083a
00000090: 6a5a d736 8f14 33b9 a91d e939 b360 ac39
000000a0: 46fa 04ba 7d03 7b3a 7222 32b9 aaf2 8db8
000000b0: ecfd dcb9 030b cb39 5a11 99b9 98e8 ff39
000000c0: 7457 7535 80c9 8fb7 0517 68b8 3502 5d36
000000d0: 8170 26b6 3aca e1b6 b77a db37 f7e0 a8b7
000000e0: 87fc d2b6 4d39 ee36 e2e4 8db7 1d45 68b8
000000f0: 20bf 0ab9 b8a3 ccb9 3240 2939 eecb c639
00000100: 908d f2b9 9296 843a 609e deb8 674e 8938
00000110: 1a04 1fb9 3420 db39 3c55 dfb9 cde0 5b39
00000120: 4906 8439 b29a 82b9 b028 aa38 a273 7a39
00000130: fea7 ceb9 4b1a 0f3a c71e 0ab9 d35d ceb9
00000140: f5d2 2339 3a1f b239 33bd a8b9 9fde df38
00000150: ec5c 6134 ee3c f037 9aaa 5bba 83be 08b8
00000160: 09d9 2038 dc6c 3ab9 e2ee d4b9 4587 9cb9
00000170: d29c e6b9 eb8c b3b8 c551 b936 14da 5cba
00000180: a672 3d39 ec91 d8b8 c82b 53b9 1e34 bdb8
00000190: 268d 3739 593e e3b8 e0ef 3737 6f66 18b9
000001a0: 2c7c c6b9 57b2 0e39 f7a2 c9b7 dde2 57b9
000001b0: 70bb 8139 8042 05b9 733e 1d39 165a 8a37
000001c0: 6cf7 31b9 3be2 af38 bb29 9db8 5041 d4b7
000001d0: 1273 96b8 4854 5339 7f04 1fb9 731a 2039
000001e0: 7159 8db7 275b cfb7 7c20 cc38 56be 1db5
000001f0: ce89 d236 8f52 0138 fc2f ae36 b372 d037
00000200: 585d 4538 2738 7636 d069 84b7 f432 ce38
00000210: f82d 203a 34f6 acb9 c5d6 493a 6d93 4339
00000220: 7266 08b9 7589 013a 7dad f138 187e 58ba
00000230: d01e 98b9 c7c2 2c3a 8aa1 97b9 7a46 4f3a
00000240: 8b81 24b8 521a 52b7 b9b4 0339 3637 a4b8
00000250: 1578 dc38 7613 98b8 3352 84b8 b13b f338
00000260: 4d3c 24b8 0965 e2b7 d7ae 0038 a708 fe38
00000270: 8718 04ba fa74 dd39 de0b 8738 7428 0db9
00000280: 8ced 8639 c47b 1eba 72ae 8639 89fb 0bb9
00000290: 05f0 d835 b281 50ba fc73 ce39 c826 1538
000002a0: 35d8 ea36 e80d d136 a0f3 af38 f222 b9b6
000002b0: 5e77 bd36 63b6 2c37 71ab 27b8 206f 9337
000002c0: edf7 36b6 3a68 c436 97ce 2a37 9322 b038
000002d0: 3313 33ba fbd4 5e39 a86b a038 99f3 2637
000002e0: 4529 e738 75c1 47b8 fa7c 2139 8465 443a
000002f0: d4af 9038 e7a1 f3b9 91d6 4839 0391 9b38
00000300: f288 afb8 b141 55b9 d909 b2b9 a1b7 7438
00000310: 0697 99b8 a194 1fb9 7a15 bf38 af95 c139
00000320: 3f4d 2eb8 ac60 cab8 b0fa 4eb9 f0d1 b4b9
00000330: 53b8 1e38 1059 9db6 1917 a2b8 2ce5 c636
00000340: 9dd2 a7b7 15a2 f9b6 e823 3c38 3786 89b8
00000350: c9a5 92b8 de14 fd37 6cef 58b7 a21a a2b8
00000360: 3bb8 e8b8 b3ac 6eb5 ea0d a3b9 fefb 3539
00000370: a709 98b9 dce7 5a39 e09c 0e39 c8a6 2cb9
00000380: 12a2 2ab9 ee66 a738 1423 0ab9 55d5 9cb9
00000390: f84d cab6 cb57 24b6 b965 9b38 9196 8535
000003a0: bba4 90b6 1b5e cd37 da49 1eb5 f4c3 61b4
000003b0: 6799 8237 da2c 8bb3 41c5 cc34 a515 9d38
000003c0: e4ce a5b9 bf75 b539 1d9a 0839 25c0 64b9
000003d0: e1a9 4f39 bd59 2dba 7e05 60b9 7dba b739
000003e0: b572 9f38 4f4d f9b9 61bd c239 c0d8 cb38
000003f0: edbe 87b8 8616 70b6 340d 9039 fbcb 86b7

exp_avg_sq f4 [128, 12]
1.9535746e-05 1.5316331e-05 2.9158295e-05 4.0362215e-06 2.2877784e-06 1.7718497e-05 1.6283055e-05 1.476229e-05
7.2555263e-06 1.0376212e-05 1.0978332e-05 2.9831723e-05 3.51417e-06 3.3065128e-06 6.273508e-06 2.23899e-06
1.7775235e-06 6.7775004e-06 4.7617805e-06 5.3100644e-06 4.0741143e-06 4.6670502e-06 3.1017871e-06 6.3143575e-06
3.464476e-06 1.7558381e-06 2.6768896e-06 1.6387297e-06 6.625317e-07 5.376533e-06 2.150789e-06 2.2849863e-06
2.3871469e-06 2.4386707e-06 1.5506762e-06 2.5929123e-06 1.149896e-05 7.901313e-06 1.5802772e-05 2.9487194e-06
2.1931771e-06 1.337867e-05 9.856764e-06 9.008557e-06 7.0887454e-06 8.630534e-06 5.9200465e-06 1.568395e-05
2.2887244e-08 1.44270995e-08 2.3844754e-08 6.2514727e-09 2.93858e-09 2.0679067e-08 2.0181114e-08 1.7855504e-08
1.7195394e-08 1.4820891e-08 1.1141297e-08 2.3915499e-08 2.4474997e-05 1.8332705e-05 3.037802e-05 6.2193462e-06
3.692203e-06 2.0090025e-05 2.1091853e-05 2.2323211e-05 1.2806595e-05 1.5742928e-05 1.3602139e-05 2.9499459e-05
1.0886828e-05 6.0830794e-06 6.747812e-06 4.392237e-06 1.60927e-06 2.0511328e-05 5.0229114e-06 7.1846084e-06
6.7425517e-06 8.733812e-06 4.828035e-06 6.6214257e-06 1.2619494e-05 6.5525414e-06 6.0655216e-06 3.741614e-06
1.3095744e-06 1.1282081e-05 6.938415e-06 6.7865008e-06 4.4366097e-06 8.248319e-06 5.0308304e-06 6.016704e-06
3.1171567e-06 1.9719985e-06 2.972817e-06 1.4877481e-06 7.8795676e-07 4.077937e-06 1.7301141e-06 2.1953795e-06
1.2372947e-06 3.0333485e-06 1.8540641e-06 2.9440382e-06 2.9403311e-06 1.8518689e-06 2.1834169e-06 1.3420188e-06
5.6344913e-07 6.5191307e-06 1.5459498e-06 1.8408861e-06 2.204811e-06 2.5246577e-06 1.4546679e-06 2.2050979e-06
2.1714625e-08 1.2119948e-08 2.413902e-08 6.5537122e-09 3.035008e-09 2.0313918e-08 1.4756475e-08 1.6845448e-08
1.2209586e-08 1.3372497e-08 9.237699e-09 2.409503e-08 1.3626219e-05 1.0687697e-05 1.7810607e-05 4.6033742e-06
3.0040862e-06 1.9789448e-05 1.2720214e-05 1.4662313e-05 7.6132455e-06 9.893567e-06 7.761793e-06 1.8698938e-05
1.4569968e-06 7.925952e-07 2.2169413e-06 6.7787823e-07 3.0437178e-07 2.7068631e-06 1.0728392e-06 9.880938e-07
1.108857e-06 1.320577e-06 6.13124e-07 2.2835734e-06 1.6717811e-05 8.488925e-06 1.4856977e-05 5.528215e-06
2.7042597e-06 1.743786e-05 1.3167666e-05 1.4881056e-05 1.3677477e-05 1.2263265e-05 6.971675e-06 1.42743565e-05
2.5854561e-08 1.5754518e-08 3.2505593e-08 6.940171e-09 4.123416e-09 2.2194289e-08 2.1494762e-08 2.1425683e-08
1.822919e-08 1.7635534e-08 1.2413395e-08 3.2834212e-08 1.5763326e-05 5.0958706e-06 6.153273e-06 1.7083235e-06
1.0212999e-06 5.729065e-06 8.346844e-06 1.1106494e-05 5.5225014e-06 7.832366e-06 3.833138e-06 6.1976007e-06
7.006919e-06 3.2790213e-06 4.748811e-06 3.3110211e-06 5.8520806e-07 4.867266e-06 5.6632684e-06 4.0211503e-06
2.184797e-06 5.022051e-06 2.749212e-06 4.793741e-06 3.773149e-08 1.7634031e-08 3.2814388e-08 9.467662e-09
5.061511e-09 3.2503834e-08 2.741342e-08 2.7197366e-08 2.7555464e-08 2.3675367e-08 1.3716336e-08 3.3130487e-08
3.6464364e-06 1.8730061e-06 4.08007e-06 1.0235376e-06 1.4731179e-06 3.7318061e-06 2.2482654e-06 2.4336757e-06
2.5782524e-06 2.7033134e-06 1.6909222e-06 4.077742e-06 1.5709853e-08 1.3726987e-08 1.791733e-08 5.4742966e-09
2.2693614e-09 1.4292629e-08 1.6726043e-08 1.37223255e-08 9.970034e-09 1.13193765e-08 1.04910605e-08 1.7843874e-08
1.4211353e-05 1.3941137e-05 1.2422827e-05 9.639678e-06 2.0220364e-06 2.3307268e-05 9.720742e-06 1.0345576e-05
7.881591e-06 1.3824379e-05 1.0613898e-05 1.234245e-05 2.8079282e-06 1.2295136e-06 3.5087144e-06 4.797961e-07
00000000: b2e0 a337 927b 8037 f698 f437 e16e 8736
00000010: bc87 1936 2fa2 9437 9897 8837 8eab 7737
00000020: 7f74 f336 7e15 2e37 942f 3837 233f fa37
00000030: fbd4 6b36 75e5 5d36 0681 d236 8e41 1636
00000040: 3e93 ee35 496a e336 62c7 9f36 1b2d b236
00000050: 60b4 8836 a899 9c36 4c28 5036 ebdf d336
00000060: 3f7f 6836 23aa eb35 9da4 3336 53f2 db35
00000070: d5d8 3135 1168 b436 4656 1036 c457 1936
00000080: df32 2036 0ba8 2336 d420 d035 e501 2e36
00000090: a8eb 4037 e28f 0437 3290 8437 9de2 4536
000000a0: 7f2e 1336 f374 6037 7b5e 2537 7523 1737
000000b0: dcdb ed36 dccb 1037 d0a4 c636 0791 8337
000000c0: 9599 c432 0edb 7732 2bd3 cc32 89cc d631
000000d0: 0cf0 4931 c0a1 b132 bd5a ad32 ab60 9932
000000e0: 12b5 9332 f89e 7e32 f167 3f32 bd6e cd32
000000f0: a84f cd37 2fc9 9937 4dd4 fe37 c7af d036
00000100: 91c7 7736 0087 a837 69ee b037 bb42 bb37
00000110: e8db 5637 ae0f 8437 be34 6437 9b75 f737
00000120: 92a6 3637 411d cc36 446b e236 0761 9336
00000130: 19fe d735 be0f ac37 7b8a a836 5113 f136
00000140: 143e e236 7087 1237 8100 a236 9d2d de36
00000150: 50b8 5337 e7dd db36 6f86 cb36 7018 7b36
00000160: a2c4 af35 2b48 3d37 88d0 e836 99b7 e336
00000170: 30de 9436 4362 0a37 81ce a836 18e3 c936
00000180: 5830 5136 ad56 0436 9b80 4736 a3ae c735
00000190: fa83 5335 36d5 8836 4536 e835 5554 1336
000001a0: 1f11 a635 8890 4b36 28d9 f835 3192 4536
000001b0: 8152 4536 bb8d f835 d186 1236 6a1f b435
000001c0: ee3f 1735 e8be da36 6e7e cf35 5d14 f735
000001d0: 5df6 1336 4a6d 2936 023e c335 4bfb 1336
000001e0: f786 ba32 1838 5032 445a cf32 102f e131
000001f0: 6d90 5031 c77e ae32 aa83 7d32 88b3 9032
00000200: 54c2 5132 ddbc 6532 d4b3 1e32 88f9 ce32
00000210: 2a9c 6437 4f4f 3337 fd67 9537 af76 9a36
00000220: cf99 4936 8401 a637 e768 5537 28fe 7537
00000230: 4875 ff36 8cfc 2537 a638 0237 aadb 9c37
00000240: 078e c335 bac2 5435 c3c6 1436 70f7 3535
00000250: 8a68 a334 8ea7 3536 79fe 8f35 a59e 8435
00000260: 09d4 9435 ae3e b135 8f95 2435 7e3f 1936
00000270: 3a3d 8c37 a86b 0e37 3b42 7937 017f b936
00000280: d47a 3536 8547 9237 b2ea 5c37 a6a9 7937
00000290: 5178 6537 52be 4d37 3bee e936 e57b 6f37
000002a0: c816 de32 8d54 8732 479c 0b33 6476 ee31
000002b0: f3ad 8d31 c2a5 be32 7ba3 b832 930b b832
000002c0: 6a96 9c32 f37c 9732 b042 5532 9905 0d33
000002d0: 7c3b 8437 32fd aa36 3678 ce36 8c49 e535
000002e0: 9913 8935 4b3c c036 6c09 0c37 0756 3a37
000002f0: ed4d b936 c167 0337 689e 8036 fcf4 cf36
00000300: fa1c eb36 280d 5c36 fa57 9f36 e932 5e36
00000310: 3117 1d35 7f51 a336 1b07 be36 6bed 8636
00000320: 879e 1236 1783 a836 1a7f 3836 ecd9 a036
00000330: 360e 2233 a579 9732 cdef 0c33 38a7 2232
00000340: 86e9 ad31 589a 0b33 c07a eb32 a49f e932
00000350: 1bb3 ec32 af5e cb32 15a5 6b32 5b4b 0e33
00000360: 4db5 7436 0064 fb35 89e7 8836 7c60 8935
00000370: f2b7 c535 f16f 7a36 e8e0 1636 3b52 2336
00000380: 0a06 2d36 926a 3536 a5f3 e235 89d3 8836
00000390: 55f2 8632 edd3 6b32 a0e8 9932 6c18 bc31
000003a0: 07f3 1b31 a68b 7532 f5ac 8f32 6dbf 6b32
000003b0: ac48 2b32 2577 4232 2c3c 3432 1847 9932
000003c0: 4c6d 6e37 bae4 6937 a36b 5037 1aba 2137
000003d0: 52b2 0736 fa83 c337 4516 2337 e991 2d37
000003e0: 2d3b 0437 41ef 6737 5812 3237 6b12 4f37
000003f0: d76f 3c36 c405 a535 4177 6b36 56cb 0035

exp_avg f4 [128]
0.00014403508 -0.0005514142 7.3081187e-06 0.0001016889 6.133803e-05 0.0002901728 0.0004965141 0.00084074924
0.0002620019 2.9645498e-05 -0.00012013933 -0.00032565696 -0.00014779148 -9.3702965e-06 -8.625651e-05 -0.0004315924
0.0004067765 9.691795e-05 0.00041172118 -6.8182184e-05 -0.00037434473 -0.00015588643 0.00017500161 0.00020082308
-0.00047823493 -0.00023175431 -0.0005269136 -4.3250537e-05 -0.00030570469 0.00017713198 4.8769314e-05 0.0003595945
-1.1026266e-05 0.00014021358 0.0005375418 0.00037191604 9.553534e-05 0.00017574946 0.00025016896 -9.9433215e-05
0.0013339622 0.0005838135 0.0005192612 1.2961971e-05 2.9783327e-05 0.00031021985 -7.1114955e-05 -0.000100013756
-4.988282e-05 0.00043786355 -0.00019335067 0.0007798272 0.0005229885 0.00058702327 -5.62938e-06 0.00048518044
0.00024075569 -0.0004500959 -0.0005235082 0.00029264644 -0.00020792283 -0.000112902206 -0.00025641007 4.476278e-05
5.5637116e-05 3.2128453e-05 8.832775e-06 -0.00051566033 7.332207e-05 -0.00012530791 0.00037908924 -0.00019337982
-5.182929e-05 0.00043643432 -0.00016133381 -0.00027440235 -0.00021651595 0.0002493927 0.00069956406 0.00013914965
0.00043165713 -6.188001e-06 0.00021417419 0.00037945298 -0.00029091374 0.00047262886 0.00011208011 -9.590868e-05
0.0005773916 -0.00026526937 0.00034304778 7.584507e-05 0.00045279582 0.0003808124 1.2252486e-05 0.0001226597
-0.00021775218 0.00010934211 -0.00013775377 0.00034240723 0.00060608244 -0.0001328407 -7.0496004e-05 -2.7990282e-05
-0.00016184211 -0.0003747599 0.00014812048 -0.00010323964 0.0003161474 0.0006470008 0.0004094545 0.00016707205
0.0004609373 0.00037411292 -5.001263e-05 0.0005304715 0.0009618252 -8.682374e-05 -6.353153e-05 -0.00019764091
-0.00039210235 0.0004057342 -0.00018717341 -1.3378085e-05 0.0008657521 0.00020303896 -0.00044567708 7.5961965e-05
00000000: 1f08 1739 c88c 10ba 4338 f536 d041 d538
00000010: 9ba2 8038 5522 9839 7f28 023a ba65 5c3a
00000020: 4d5d 8939 39af f837 50f3 fbb8 f0bc aab9
00000030: 79f8 1ab9 1e35 1db7 9ce4 b4b8 5a47 e2b9
00000040: 9e44 d539 6e40 cb38 48dc d739 08fd 8eb8
00000050: b343 c4b9 7275 23b9 a380 3739 0994 5239
00000060: 9bbb fab9 1303 73b9 9320 0aba e967 35b8
00000070: fd46 a0b9 81bc 3939 a78d 4c38 f587 bc39
00000080: 74fd 38b7 4c06 1339 d2e9 0c3a bafd c239
00000090: 255a c838 6349 3839 1c29 8339 cd86 d0b8
000000a0: 58d8 ae3a 100b 193a 071f 083a 3e77 5937
000000b0: 35d7 f937 01a5 a239 8d23 95b8 7abe d1b8
000000c0: 4539 51b8 0d91 e539 2dbe 4ab9 516d 4c3a
000000d0: 2a19 093a 77e2 193a 02e4 bcb6 d15f fe39
000000e0: 5d73 7c39 d9fa ebb9 0a3c 09ba 576e 9939
000000f0: dc05 5ab9 e9c5 ecb8 c76e 86b9 abbf 3b38
00000100: e65b 6938 aac1 0638 7b30 1437 612d 07ba
00000110: 7dc4 9938 1665 03b9 7fc0 c639 00c6 4ab9
00000120: 4763 59b8 39d1 e439 b72b 29b9 a9dd 8fb9
00000130: 8f08 63b9 ecc0 8239 f362 373a b3e8 1139
00000140: 0a50 e239 86a2 cfb6 f293 6039 51f1 c639
00000150: c885 98b9 2ccb f739 8d0c eb38 9522 c9b8
00000160: 185c 173a da13 8bb9 18db b339 030f 9f38
00000170: 3a65 ed39 c6a7 c739 0790 4d37 369e 0039
00000180: 6854 64b9 994e e538 ff71 10b9 1f85 b339
00000190: 81e1 1e3a 274b 0bb9 41d7 93b8 accc eab7
000001a0: 29b4 29b9 6c7b c4b9 ca50 1b39 5c82 d8b8
000001b0: 96c0 a539 7d9b 293a 0dac d639 1030 2f39
000001c0: f5a9 f139 9624 c439 a7c4 51b8 570f 0b3a
000001d0: ff22 7c3a 2415 b6b8 3b3c 85b8 d43d 4fb9
000001e0: 1693 cdb9 b9b8 d439 fb43 44b9 7072 60b7
000001f0: a4f3 623a dbe6 5439 c4a9 e9b9 c54d 9f38
