training/SavedModels/torque_ctrl_vanilla.pth (torch, 239490 bytes, 30 tensors)

running_mean f8 [15]
-0.07676705422317971 0.13708458130178744 -0.2572529616701198 -0.0005724979158526272 0.000727516078784636 6.122848716192619e-05 1.3362057616840036e-05 -4.7571335168184794e-05
0.013307984365852794 -0.011940422834356331 0.003822913961066408 -0.07820060692706574 -0.07883449940184471 0.0726933472118188 -0.05656378218232289
00000000: 2d7f 4c73 01a7 b3bf 530f bdd0 fc8b c13f
00000010: 1007 4b20 d576 d0bf 38c2 ade9 75c2 42bf
00000020: 4044 02e2 d8d6 473f 3dba 5766 f90c 103f
00000030: 3035 1037 b305 ec3e 1d7a 54a1 eaf0 08bf
00000040: 8421 046d 3741 8b3f ab7e 976c 3874 88bf
00000050: 49c0 054e 3b51 6f3f fe72 4779 f404 b4bf
00000060: 773a ba6c 7f2e b4bf 545a e9fc 079c b23f
00000070: e9e7 3895 edf5 acbf

running_var f8 [15]
0.47411164696967006 0.4493529301672586 0.44800188603001384 0.015215263427541795 0.027674863662826444 0.1545173177422163 0.03884023885616202 0.038820814900224244
0.03391187254734268 0.02575185340952099 0.03198663224846344 0.023156002795985207 0.1900067752789809 0.13834431704229108 0.05955767642196409
00000000: a9cb 9860 d857 de3f 8987 dbca 32c2 dc3f
00000010: 07e5 421a 10ac dc3f 950e 9216 2e29 8f3f
00000020: 9d92 69a9 cc56 9c3f af29 2f35 39c7 c33f
00000030: 0be5 4f27 dee2 a33f 9d12 cd64 52e0 a33f
00000040: 08ec 129f e55c a13f 9834 d2a0 b15e 9a3f
00000050: 2129 d546 8d60 a03f 49ff db0a 35b6 973f
00000060: 00bb eb5a 2452 c83f 3f5d a43e 44b5 c13f
00000070: 428a ea00 587e ae3f

count f8 []
47825027073.0
00000000: 0000 0200 3045 2642

running_mean f8 [1]
9.529189459695417
00000000: 388f bdeb f10e 2340

running_var f8 [1]
18.37643207939958
00000000: bd2f 4eda 5d60 3240

count f8 []
11956256769.0
00000000: 0000 0800 3045 0642

a2c_network.sigma f4 [3]
-3.436876 -3.961419 -4.473744
00000000: c7f5 5bc0 e487 7dc0 e928 8fc0

a2c_network.actor_mlp.0.weight f4 [128, 15]
-0.0029492034 0.0072519486 -0.009512833 0.0329218 0.003861384 -0.015920168 -0.013097074 -0.008328847
0.004196402 0.00859103 0.028445177 -0.006624102 -0.058185596 0.076508574 0.2115348 0.6511449
-0.91253716 -0.56859934 0.34912983 -0.068386085 -0.091938965 -0.7602563 0.99517137 0.9354316
0.052523013 -0.6404331 -0.19195423 -0.116139464 -0.29358348 0.11265656 0.2569501 -0.07480657
0.6566479 -0.084514424 -0.163305 -0.10932594 0.5844113 -0.028300753 0.26623487 -0.03514095
0.033833083 0.056752946 0.029526766 -0.33114654 0.039289627 0.10918548 0.051298838 0.21657862
0.0004828409 -0.04798438 -0.03839291 2.8300982 -0.07706208 0.15185246 -0.022729108 0.031800464
0.047085553 -0.01773647 -0.06648641 0.029248474 0.026403056 -0.021896372 0.01326617 -0.012462931
0.014101595 0.00015580693 0.023643848 0.014383527 0.014357305 -0.008377379 -0.036981914 0.015314585
0.025556644 0.0010873919 -0.057740234 0.39776415 -0.04554185 0.20814644 -0.061874207 -0.07481654
0.10086734 -0.7022449 -0.18616848 -0.0760247 0.3582516 0.22878508 0.04424655 -0.15777443
0.44614014 0.4225034 -0.547735 -0.93965983 -0.30012187 -0.116949044 -0.1414574 -0.2134424
0.13520329 0.3698988 0.9384734 -0.32394755 -0.17020172 -0.679296 0.547725 0.24995115
0.005287057 0.14268713 0.0640343 -0.11709759 0.028192524 -0.016518632 -0.020426111 -0.02315924
-2.1329234 -0.2458715 -0.07883236 0.14989164 -0.07270763 0.26829663 -0.06770001 0.13173129
-0.5350839 -0.11916142 -0.11500839 -0.032352343 0.09842735 0.12689236 -0.20788078 -0.15271251
-0.115751415 -0.0230376 -0.20421848 0.0018913485 0.16119424 0.009519753 -0.2785622 0.028907644
0.0053488184 0.009136247 -0.02447725 0.012660106 -0.0053118286 0.008808531 -0.00026416243 0.018643592
0.000684012 -0.009235589 -0.0022333914 0.09088092 -0.083801 0.0018111103 -0.06951612 -0.25726295
-0.48809806 0.23038985 0.097609244 0.27550727 0.22851664 -0.5447502 -0.3105371 0.25175616
-0.4290029 0.38337424 -1.0431274 0.4492625 -0.4899211 0.6966069 0.1119486 0.5925169
0.017012633 0.092434056 0.14677848 1.0948673 0.25862408 -0.13888963 -0.16359021 0.17366138
0.09437829 0.11223195 0.3753742 0.47655544 -0.042825863 0.017508915 0.020832926 0.0059038224
0.004770719 0.011339185 0.0052285497 0.0060063326 0.024520524 0.012587445 8.858991e-05 -0.0017978717
-0.026643403 0.067554705 -0.29756683 -0.022526527 -0.01784807 -0.020728095 0.014318871 -0.0016395656
-0.04608452 0.013764114 0.010829497 -0.01458294 -0.03762031 -0.019909589 -0.025068307 -0.052231364
0.048975717 0.4712591 -0.11215513 0.124523096 0.03676425 -0.00802528 0.041998114 0.038349677
1.364802 1.8198172 1.5607965 -0.012125711 0.032534007 -0.011561386 -0.19136606 0.22931422
0.04273382 0.15874298 -0.2866912 0.045500968 -0.0059875334 -0.01265437 -0.02024973 -0.09100214
0.2998874 -2.9015167 -0.063586414 -0.1099265 0.09511937 0.09231404 -0.06645378 -0.013646735
-0.036035143 0.014951822 -0.01606498 -0.040706478 0.028094897 0.008494774 -0.014090259 -0.004601841
-0.0039918404 0.0065023242 0.031378005 -0.00040678066 -0.060137574 0.011236741 -0.06398752 -0.69680744
00000000: 6c47 41bb c1a1 ed3b b7db 1bbc 02d9 063d
00000010: 460f 7d3b 036b 82bc 1c95 56bc b775 08bc
00000020: f981 893b 64c1 0c3c dc05 e93c ff0e d9bb
00000030: 0554 6ebd 87b0 9c3d 949c 583e 6fb1 263f
00000040: 099c 69bf ba8f 11bf 25c1 b23e 010e 8cbd
00000050: 7f4a bcbd 28a0 42bf 8dc3 7e3f 7278 6f3f
00000060: 5f22 573d 6cf3 23bf a68f 44be 87da edbd
00000070: 9350 96be 7cb8 e63d f78e 833e 3034 99bd
00000080: 141a 283f e615 adbd 6d39 27be 47e6 dfbd
00000090: fb9b 153f fbd6 e7bc f04f 883e f5ef 0fbd
000000a0: 8f94 0a3d c775 683d 1ee2 f13c 0a8c a9be
000000b0: 29ee 203d a39c df3d bb1e 523d c9c6 5d3e
000000c0: cf25 fd39 458b 44bd e241 1dbd 5420 3540
000000d0: b9d2 9dbd 367f 1b3e 6532 babc 3441 023d
000000e0: c8dc 403d 134c 91bc 072a 88bd 7f9a ef3c
000000f0: 394b d83c 0560 b3bc 5a5a 593c 5231 4cbc
00000100: 600a 673c 1b60 2339 beb0 c13c e3a8 6b3c
00000110: e73a 6b3c 4641 09bc 597a 17bd 06ea 7a3c
00000120: 2b5c d13c d186 8e3a 0681 6cbd bea7 cb3e
00000130: 178a 3abd 5724 553e cf6f 7dbd 6a39 99bd
00000140: 8993 ce3d 52c6 33bf f3a2 3ebe d7b2 9bbd
00000150: c16c b73e a346 6a3e df3b 353d 9f8f 21be
00000160: 7b6c e43e 5e52 d83e 5c38 0cbf 8c8d 70bf
00000170: 93a9 99be fb82 efbd 35da 10be a590 5abe
00000180: bb72 0a3e 6063 bd3e cb3f 703f 74dc a5be
00000190: 5c49 2ebe 58e6 2dbf b537 0c3f 32f3 7f3e
000001a0: 0c3f ad3b 931c 123e 6a24 833d dcd0 efbd
000001b0: 02f4 e63c 1552 87bc a954 a7bc 72b8 bdbc
000001c0: d181 08c0 bdc5 7bbe dc72 a1bd 327d 193e
000001d0: bde7 94bd 2d5e 893e 4ea6 8abd 91e4 063e
000001e0: 42fb 08bf e70a f4bd 8589 ebbd e483 04bd
000001f0: 4794 c93d 12f0 013e b3de 54be ab60 1cbe
00000200: 140f edbd 59b9 bcbc a61e 51be 20e7 f73a
00000210: 1a10 253e bdf8 1b3c b49f 8ebe b9cf ec3c
00000220: 2445 af3b 33b0 153c 8484 c8bc 556c 4f3c
00000230: d90e aebb a851 103c 487f 8ab9 72ba 983c
00000240: 454f 333a de50 17bc 175e 12bb c71f ba3d
00000250: dc9f abbd c762 ed3a 785e 8ebd f8b7 83be
00000260: fde7 f9be 51eb 6b3e 5be7 c73d 4a0f 8d3e
00000270: 4400 6a3e c074 0bbf b8fe 9ebe 2fe6 803e
00000280: 45a6 dbbe a149 c43e 3385 85bf bc05 e63e
00000290: f0d6 fabe d454 323f 4f45 e53d 30af 173f
000002a0: 145e 8b3c 114e bd3d 194d 163e 9d24 8c3f
000002b0: 606a 843e 1539 0ebe 3184 27be 4ad4 313e
000002c0: 6849 c13d ddd9 e53d 0c31 c03e 13ff f33e
000002d0: 2c6a 2fbd db6e 8f3c d0a9 aa3c da74 c13b
000002e0: b153 9c3b fdc7 393c 4154 ab3b c5d0 c43b
000002f0: 44df c83c 923b 4e3c 59c9 b938 90a6 ebba
00000300: 4443 dabc 1f5a 8a3d ae5a 98be 8d89 b8bc
00000310: 1e36 92bc f7cd a9bc b399 6a3c b1e6 d6ba
00000320: 1fc3 3cbd e182 613c 346e 313c 49ed 6ebc
00000330: c117 1abd 6f19 a3bc 0d5c cdbc 8ef0 55bd
00000340: c39a 483d df48 f13e 97b1 e5bd f705 ff3d
00000350: 1c96 163d 777c 03bc 3706 2c3d 8d14 1d3d
00000360: d5b1 ae3f c5ef e83f 2ec8 c73f ebaa 46bc
00000370: 6142 053d f86b 3dbc 77f5 43be 59d1 6a3e
00000380: a809 2f3d 858d 223e 30c9 92be 395f 3a3d
00000390: 1233 c4bb 4654 4fbc c3e2 a5bc 545f babd
000003a0: d78a 993e 73b2 39c0 9839 82bd 2521 e1bd
000003b0: f2cd c23d 250f bd3d eb18 88bd 8e96 5fbc
000003c0: 9699 13bd 7df8 743c b49a 83bc d6bb 26bd
000003d0: 4527 e63c aa2d 0b3c d4da 66bc 0acb 96bb
000003e0: fccd 82bb 7311 d53b 3986 003d 2d45 d5b9
000003f0: d152 76bd 4f1a 383c e40b 83bd f961 32bf

a2c_network.actor_mlp.0.bias f4 [128]
0.0041085854 -0.5607124 -0.96739775 -1.3687497 -0.0025784634 -0.1825217 -0.6990051 -1.5841354
-0.050254628 -0.040274918 -4.242655 -0.881887 0.10853889 -0.10991909 -1.131049 -3.954906
0.041937433 -0.1125596 -2.2216673 0.015247835 0.054725643 -0.54920477 -0.5570342 -0.14117554
-1.5759939 0.096835904 -0.2551108 0.031835306 -1.6501095 -0.07529274 0.30874503 -0.1629725
-1.3122985 0.020540591 -0.11872299 0.056970857 0.3452149 -0.43171027 0.118990794 -0.5648196
0.014813361 -0.45071784 0.0080029555 -0.024327537 -0.091353506 0.07365411 -0.03886347 -0.47170895
0.06980039 -0.3111011 -0.009848882 0.016998284 -0.1260841 -0.01256768 -0.036018632 -1.2551992
-0.105208 -0.07901858 0.0036425143 -0.049210966 0.053568814 0.043550204 0.01974842 0.07210283
-0.040082835 -1.4177366 -0.94670355 -0.15016606 -0.131085 -0.06448485 -0.049293518 -0.25666848
-0.17140982 -0.73012805 -1.0104218 -0.80527645 -0.09387103 0.046566155 -0.032539636 -1.8058858
-0.012675813 0.005054514 -0.36842087 -0.3152809 -0.4105056 -0.6483364 -0.5166303 -0.030567687
0.013804113 -0.012203829 -1.0363281 -0.02700038 0.0033636002 -0.23101886 0.008649922 -0.23542237
-1.0897942 0.09180539 0.13695568 -0.5218637 -0.25829336 -0.6751819 -1.2185122 0.07328183
-0.0021748354 -0.0010529778 -0.043516833 -0.09947126 0.034559134 0.04638583 -0.018922184 0.020619672
0.055158902 -0.02285742 -0.15066475 -0.10488674 -0.32586125 -0.110686265 -0.8661692 -0.009954591
-0.32084212 0.015198459 -0.77337503 -0.0048659397 -4.2653694 0.049696844 -0.005528822 0.032815743
00000000: 50a1 863b d98a 0fbf 61a7 77bf 3133 afbf
00000010: 70fb 28bb f8e6 3abe 00f2 32bf f3c4 cabf
00000020: ccd7 4dbd 50f7 24bd d4c3 87c0 59c3 61bf
00000030: a349 de3d 431d e1bd 37c6 90bf 2e1d 7dc0
00000040: 96c6 2b3d a685 e6bd cc2f 0ec0 0ed2 793c
00000050: ff27 603d af98 0cbf cb99 0ebf 5290 10be
00000060: 2bba c9bf e751 c63d e29d 82be bd65 023d
00000070: ca36 d3bf 1433 9abd d413 9e3e 43e2 26be
00000080: 66f9 a7bf be44 a83c 0a25 f3bd 465a 693d
00000090: 02c0 b03e 2109 ddbe 72b1 f33d 0498 10bf
000000a0: bdb3 723c 7dc4 e6be d41e 033c 8b4a c7bc
000000b0: 8c17 bbbd f7d7 963d 4d2f 1fbd d683 f1be
000000c0: 82f3 8e3d a548 9fbe 355d 21bc fc3f 8b3c
000000d0: 311c 01be ace8 4dbc 4688 13bd 5eaa a0bf
000000e0: 4b77 d7bd 7ed4 a1bd 40b7 6e3b 7091 49bd
000000f0: f96a 5b3d b361 323d 70c7 a13c a6aa 933d
00000100: e62d 24bd 6578 b5bf 2a5b 72bf 22c5 19be
00000110: 253b 06be a210 84bd 00e8 49bd 0d6a 83be
00000120: 0e86 2fbe ace9 3abf 8055 81bf 9926 4ebf
00000130: 743f c0bd 27bc 3e3d 4848 05bd 4427 e7bf
00000140: 37ae 4fbc 56a0 a53b a9a1 bcbe 806c a1be
00000150: ca2d d2be 60f9 25bf e241 04bf 1669 fabc
00000160: a52a 623c 92f2 47bc 66a6 84bf e72f ddbc
00000170: d96f 5c3b 3590 6cbe 67b8 0d3c 9012 71be
00000180: 607e 8bbf 7704 bc3d 1c3e 0c3e dc98 05bf
00000190: 073f 84be b9d8 2cbf 35f8 9bbf c914 963d
000001a0: af87 0ebb 1204 8aba b53e 32bd 97b7 cbbd
000001b0: e18d 0d3d 11ff 3d3d b202 9bbc 96ea a83c
000001c0: 4dee 613d 7c3f bbbc dc47 1abe dcce d6bd
000001d0: 49d7 a6be 7baf e2bd 44bd 5dbf 9518 23bc
000001e0: 6b45 a4be f502 793c e8fb 45bf 7672 9fbb
000001f0: e87d 88c0 eb8e 4b3d 1f2b b5bb cd69 063d

a2c_network.actor_mlp.2.weight f4 [128, 128]
-0.03626665 -0.000979453 -0.015748868 0.012928979 -0.057199076 0.018891947 0.009922395 0.0001211187
0.03705922 0.013803698 -0.009123428 -0.0066592256 -0.02199154 0.0056223366 -0.002569742 0.00436201
0.04718965 0.010599024 0.0051908055 -0.002692872 -0.042278748 -0.0068399548 0.015015433 -0.022742888
0.003944333 0.056127574 0.006545702 -0.00046780685 -0.013047806 0.03046796 -0.027855558 -0.010041681
-0.0012953684 -0.036491103 0.010869975 0.026429754 -0.015081204 -0.002246765 -0.022224404 0.019461853
-0.029234644 -0.0019519682 -0.0020267935 -0.027036471 0.009134586 0.0038752744 -0.03405739 0.0060184957
-0.065154836 -0.015980503 -0.057021134 -0.026322106 -0.0014510434 0.026377793 -0.055925727 -0.009278899
-0.012185883 -0.011709479 0.021882266 0.016127566 -0.034351386 0.0780566 0.05613591 -0.008500565
-0.00015670636 0.011486431 0.0039816196 -0.016384408 0.040681355 -0.032732606 -0.021347934 -0.025215497
-0.0006620449 -0.0029435921 -0.0014645532 -0.008502356 -0.0012440593 0.044389233 -0.03271753 -0.0036615813
0.030878399 -0.00062892237 -0.015760856 -0.0002856426 0.0008578386 0.022642527 0.00967391 -0.03740378
-0.012145205 -0.061119184 -0.0011754889 -0.035536133 0.029365497 -0.01706656 -0.04709838 -0.0057224487
-0.0011425675 0.015754523 0.021345286 0.004499272 -0.010009591 -0.0041605537 0.0029207387 0.019232769
-0.047380276 0.024575565 -0.025634589 -0.024345674 0.033515975 0.0013873236 -0.026867004 -0.012868695
0.0059647835 -0.040444586 0.021832062 0.037588965 -0.004491306 0.03845705 -0.0039852383 -0.018341815
-0.035917852 -0.06733088 -0.033184495 0.004441385 0.010871828 -0.037357073 -0.021978563 -0.0006544364
0.0072821607 -0.0039904825 -0.020093026 0.004730261 -0.010373337 -0.0032407378 0.0039810054 -0.01373533
-0.033035737 0.04145029 0.010593304 0.0028776035 -0.024581878 -0.036878522 -0.0029917038 -0.008737188
-0.013653088 -0.015052224 0.008290819 -0.013028094 0.0011187545 0.008233373 -0.0140394755 0.0118025625
-0.018538328 -0.026835695 -9.4293944e-05 -0.06739824 -0.0052663195 -0.019188136 0.01517105 0.017560283
0.014672389 -0.09846382 0.008797934 0.0076339296 0.009149691 0.0085351495 -0.007955669 0.015490068
0.03939494 0.014398545 0.027644403 0.03156136 0.014732155 0.06075455 -0.00082683685 -0.0046400004
-0.0069063324 0.013806504 0.022214957 0.029211989 -0.02002943 -0.028069334 0.033749793 -0.025023634
0.021845255 -0.071282364 -0.011785563 -0.046348106 0.045605294 0.11175707 -0.035552975 -0.02744702
0.023538051 -0.020397684 0.012007547 -0.01475459 0.04417841 -0.014538376 0.018413493 0.012136556
0.011392686 -0.007373291 0.006702244 0.0031136423 -0.014821707 0.013194091 0.06683368 -0.012068522
0.0020900683 -0.050217737 -0.029791502 0.011303926 0.01169319 -0.0014651441 0.003375715 0.039786477
-0.029304808 0.008036327 0.010500999 0.005782571 -0.008150178 0.011760994 -0.0062761977 0.00839956
0.008421821 0.06683842 -0.0062308046 -0.009503446 -0.026994646 -0.0128733525 0.030581273 0.021209016
0.017330747 -0.0026412727 0.0017345679 -0.00822687 0.010998754 0.00013522737 -0.03936582 -0.02021888
0.045786824 0.028566567 -0.0013821691 0.010948719 0.020277316 -0.03657931 0.011823338 -0.006809118
-0.028430905 -0.011479901 1.4452635e-05 -0.06595898 -0.04855045 -0.015692063 -0.04435254 0.014980691
00000000: 578c 14bd fd60 80ba c503 81bc 11d4 533c
00000010: 9449 6abd 49c3 9a3c 8b91 223c 1b01 fe38
00000020: 69cb 173d e828 623c 6e7a 15bc a235 dabb
00000030: 9a27 b4bc 943b b83b 1e69 28bb 31ef 8e3b
00000040: ef49 413d 87a7 2d3c a217 aa3b e57a 30bb
00000050: 7b2c 2dbd b321 e0bb 4a03 763c 4b4f babc
00000060: 773f 813b 07e6 653d 547d d63b f943 f5b9
00000070: 77c6 55bc f197 f93c 5731 e4bc dd85 24bc
00000080: 5ac9 a9ba b277 15bd fb17 323c 3683 d83c
00000090: 2717 77bc 763e 13bb f40f b6bc 776e 9f3c
000000a0: 7e7d efbc 2fd9 ffba f4d3 04bb 977b ddbc
000000b0: 3ba9 153c 51f8 7d3b c37f 0bbd cd36 c53b
000000c0: e66f 85bd 8be9 82bc fe8e 69bd 75a1 d7bc
000000d0: f030 beba 3e16 d83c 6012 65bd 8606 18bc
000000e0: 4ca7 47bc 1dd9 3fbc 7042 b33c f51d 843c
000000f0: 0ab4 0cbd 24dc 9f3d c5ee 653d f445 0bbc
00000100: 8b51 24b9 9531 3c3c 3f78 823b 9838 86bc
00000110: 7ea1 263d a012 06bd dde1 aebc bb90 cebc
00000120: 158d 2dba 48e9 40bb 40f6 bfba 774d 0bbc
00000130: b40f a3ba 7cd1 353d d102 06bd 24f7 6fbb
00000140: b2f4 fc3c 44de 24ba e91c 81bc 4dc2 95b9
00000150: 93e0 603a d27c b93c 527f 1e3c b534 19bd
00000160: affc 46bc 1c58 7abd dd12 9aba 568e 11bd
00000170: e98f f03c 2ccf 8bbc 3bea 40bd 6183 bbbb
00000180: 34c2 95ba a10f 813c 4fdc ae3c a16e 933b
00000190: 44ff 23bc 4155 88bb dd69 3f3b 0a8e 9d3c
000001a0: d211 42bd b252 c93c a1ff d1bc 9470 c7bc
000001b0: 0c48 093d dbd6 b53a 3118 dcbc 38d7 52bc
000001c0: 3b74 c33b 39a9 25bd 27d9 b23c e3f6 193d
000001d0: ce2b 93bb 2485 1d3d 9a96 82bb 9341 96bc
000001e0: 991e 13bd c6e4 89bd 77ec 07bd 0a89 913b
000001f0: c01f 323c bb03 19bd 630c b4bc 7c8e 2bba
00000200: 319f ee3b 98c2 82bb 219a a4bc 4e00 9b3b
00000210: eef4 29bc 8f62 54bb 1873 823b 260a 61bc
00000220: 7b50 07bd c7c7 293d 8a8f 2d3c 2d96 3c3b
00000230: ef5f c9bc ef0d 17bd 7610 44bb 6c26 0fbc
00000240: 34b1 5fbc 9a9d 76bc 37d6 073c c973 55bc
00000250: 2ca3 923a 45e5 063c d405 66bc 895f 413c
00000260: b1dd 97bc 88d6 dbbc adbf c5b8 1708 8abd
00000270: 1791 acbb 7030 9dbc ff8f 783c 95da 8f3c
00000280: 7664 703c 66a7 c9bd 3625 103c 0b26 fa3b
00000290: 96e8 153c 03d7 0b3c 7f58 02bc 0eca 7d3c
000002a0: 975c 213d e0e7 6b3c 8476 e23c 7c46 013d
000002b0: 235f 713c c3d9 783d 15c0 58ba 250b 98bb
000002c0: 844e e2bb ad34 623c 24fc b53c fb4d ef3c
000002d0: c214 a4bc a9f1 e5bc 393d 0a3d 5dfe ccbc
000002e0: d2f4 b23c 7dfc 91bd 3c18 41bc 83d7 3dbd
000002f0: 9ecc 3a3d e4e0 e43d ff9f 11bd 93d8 e0bc
00000300: dfd2 c03c 0b19 a7bc 4dbb 443c 3cbd 71bc
00000310: 6cf4 343d 5e32 6ebc e5d7 963c 68d8 463c
00000320: 63a8 3a3c a69b f1bb 7f9e db3b 400e 4c3b
00000330: bfd6 72bc 072c 583c 19e0 883d 0dbb 45bc
00000340: 87f9 083b 1db1 4dbd 4f0d f4bc 1a34 393c
00000350: cb94 3f3c 140a c0ba 1a3b 5d3b 25f7 223d
00000360: a310 f0bc ccaa 033c 620c 2c3c b97b bd3b
00000370: 5388 05bc 2fb1 403c 90a8 cdbb 4f9e 093c
00000380: adfb 093c 95e2 883d c72b ccbb 57b4 1bbc
00000390: e023 ddbc c1ea 52bc 9485 fa3c 88be ad3c
000003a0: 36f9 8d3c 3419 2dbb 715a e33a fec9 06bc
000003b0: 1e34 343c d2cb 0d39 0e3e 21bd 11a2 a5bc
000003c0: f78a 3b3d 6f04 ea3c e629 b5ba 4262 333c
000003d0: 9d1c a63c 30d4 15bd adb6 413c 061f dfbb
000003e0: eee7 e8bc 3216 3cbc 9879 7237 8015 87bd
000003f0: d6dc 46bd a48c 80bc 02ab 35bd 9271 753c

a2c_network.actor_mlp.2.bias f4 [128]
0.006494133 -0.04922048 -0.013949696 0.014008822 -0.009754059 -0.106445946 -1.2848254 -0.039338462
0.02027725 0.012315386 0.038770456 -0.001973377 0.036961343 0.0022825324 -0.038035646 0.014686016
0.005280557 -0.0183102 -0.014835418 -0.8266429 -0.11621081 -0.9232997 0.0036953478 -0.015037704
0.0024544653 0.062381532 -0.0061733024 -0.0023447184 -0.010777563 -0.005030255 -0.9073734 -0.049323242
-0.12607606 -0.027709609 0.030699955 0.017385691 -2.8690536 0.05668333 -1.943677 -0.032819506
-0.0025449821 -0.05769842 0.025093282 -1.7911735 0.053835556 -0.00011689253 -0.007060767 0.009636383
-0.18134181 -1.297798 -0.9618375 -1.9349134 0.01213909 -0.06353936 -0.040538877 0.012043926
-0.3132672 -1.07146 -0.92122227 -0.005143137 -0.0102229 -2.4694893 -1.2057209 -0.025685264
0.06778081 -0.073165156 0.02147132 -0.028172303 -0.011672914 0.012616083 -0.022444168 -2.2294793
-0.033429187 0.020537946 -0.023787783 0.01156703 -0.049797196 -0.03548784 -0.5541898 -2.1617336
-0.021056887 -0.012367667 -0.021377986 -0.025095334 -1.5136563 -1.0506781 -0.027249852 -1.1941582
-1.2661176 0.030218033 0.006977619 0.0065438556 -1.2449633 0.051434997 0.02371991 -2.6963153
0.017339299 0.025286736 -0.028817086 0.009678211 -0.07779112 0.034025006 0.019546937 -0.064035416
-2.6738064 0.0059311693 -0.04420237 0.019836634 -0.10113506 -2.0821538 0.031979345 -1.023116
-1.0803784 -0.7697354 -0.052936777 -0.00091083697 -0.03648004 -0.043548133 -0.05897706 -0.11071754
-1.1147654 -0.76649815 -1.0991477 -0.22046536 -1.191519 0.009962146 -0.0152575895 -0.14287172
00000000: bccc d43b 6a9b 49bd 448d 64bc 4285 653c
00000010: 7dcf 1fbc 5500 dabd 2975 a4bf 5e21 21bd
00000020: 7a1c a63c 79c6 493c c5cd 1e3d c653 01bb
00000030: c764 173d 8a96 153b 44cb 1bbd 9e9d 703c
00000040: 8608 ad3b 46ff 95bc 4110 73bc de9e 53bf
00000050: efff edbd 5e5d 6cbf a62d 723b b460 76bc
00000060: 18db 203b c783 7f3d 6a49 cabb d9a9 19bb
00000070: 6094 30bc d6d4 a4bb a049 68bf 2b07 4abd
00000080: 151a 01be 43ff e2bc 797e fb3c 706c 8e3c
00000090: 939e 37c0 c82c 683d 68ca f8bf bf6d 06bd
000000a0: b7c9 26bb 2e55 6cbd 6d90 cd3c 2c45 e5bf
000000b0: ac82 5c3d 3324 f5b8 025e e7bb ebe1 1d3c
000000c0: abb1 39be 3f1e a6bf fb3a 76bf 3eab f7bf
000000d0: 09e3 463c ed20 82bd 180c 26bd e353 453c
000000e0: 8f64 a0be 9a25 89bf 39d5 6bbf c387 a8bb
000000f0: f37d 27bc 1d0c 1ec0 1055 9abf e769 d2bc
00000100: aad0 8a3d 9dd7 95bd 9fe4 af3c 9ac9 e6bc
00000110: c03f 3fbc b0b3 4e3c d5dc b7bc caaf 0ec0
00000120: 0bed 08bd 323f a83c 99de c2bc a483 3d3c
00000130: 25f8 4bbd b35b 11bd 62df 0dbf d859 0ac0
00000140: 7e7f acbc c1a1 4abc e320 afbc bb94 cdbc
00000150: 7dbf c1bf 9f7c 86bf 153b dfbc 2dda 98bf
00000160: 2410 a2bf cf8b f73c 83a4 e43b d76d d63b
00000170: f55a 9fbf 81ad 523d 4250 c23c 6e90 2cc0
00000180: 250b 8e3c 2126 cf3c cf11 ecbc 5c91 1e3c
00000190: f350 9fbd ce5d 0b3d e620 a03c 0025 83bd
000001a0: a51f 2bc0 415a c23b 8b0d 35bd 7080 a23c
000001b0: e61f cfbd 0242 05c0 c6fc 023d 77f5 82bf
000001c0: d749 8abf 610d 45bf 3cd4 58bd 3cc5 6eba
000001d0: 186c 15bd 875f 32bd ee91 71bd e1bf e2bd
000001e0: a2b0 8ebf 3939 44bf dfb0 8cbf acc1 61be
000001f0: b283 98bf 4538 233c f8fa 79bc f74c 12be

a2c_network.value.weight f4 [1, 128]
0.0036237398 -0.012638228 0.004209193 8.898561e-05 0.0135359885 -0.029659024 0.0029288216 0.009195663
-0.025246846 0.003717056 0.008493548 0.016556228 0.01326563 -0.0061712316 -0.018127477 0.0026551804
-0.016968515 0.023851627 0.002327434 -0.023373853 0.0073945317 -0.008987322 0.003790127 -0.006437234
-0.0050406177 -0.017722694 -0.0019808684 -0.0049904203 0.0031877076 -0.020918451 -0.021832487 0.0010324632
-0.0175496 0.01433263 -0.0013254181 -0.025044236 0.4058741 -0.006344168 0.005409917 3.2819866e-05
0.0019208181 0.00032513248 0.00016635664 0.004881151 -0.005040615 -0.027885195 -0.015985718 -0.009717768
0.15897612 -0.06123874 -0.0143599 -0.026474917 -0.033815376 -0.006680854 0.0032021021 0.0012333803
-0.33811313 0.0064312546 -0.6370755 0.0076871514 -0.027275305 -0.0033825494 0.005821547 -0.017473945
-0.009964559 0.012832288 -0.0026672636 -0.0118912775 -0.031004578 -0.002998879 -0.031281564 0.6002389
-0.02056866 0.0317637 0.010231755 0.027627096 -0.0097979335 0.024579877 -0.032921758 0.024736006
-0.0035366174 -0.011564776 -0.019262915 0.009975308 0.007236201 0.011738965 0.027428238 0.0061041163
0.02083426 -0.017624056 -0.019067544 -0.002911605 -0.026046839 -0.03581672 -0.011281378 -0.021479584
0.003011037 -0.02116678 0.0040445547 0.012575833 -0.0006121629 -0.015619872 0.015515525 0.030867945
-0.02506585 0.0015830247 -0.022599302 -0.0066556023 0.0069081797 -0.027200136 -0.0056789387 -0.04505654
0.31385773 -0.2306979 -0.014630342 0.0009735695 0.028434623 0.00220529 0.01355044 0.024107054
0.002006222 -0.027191186 0.0069546006 -0.043509506 0.019876933 0.020083293 0.002827998 -0.015678825
00000000: 447c 6d3b 9210 4fbc 45ed 893b c99d ba38
00000010: 0dc6 5d3c 7bf7 f2bc 79f1 3f3b 68a9 163c
00000020: 79d2 cebc da99 733b 8628 0b3c eda0 873c
00000030: 1658 593c 0b38 cabb 1380 94bc 8902 2e3b
00000040: 8e01 8bbc 7d64 c33c dd87 183b 867a bfbc
00000050: d44d f23b 903f 13bc c863 783b 6fef d2bb
00000060: c42b a5bb 2f2f 91bc 75d1 01bb ae86 a3bb
00000070: dce8 503b 2c5d abbc 0bda b2bc b753 873a
00000080: 2ec4 8fbc 68d3 6a3c a7b9 adba 9229 cdbc
00000090: bbce cf3e bde2 cfbb ac45 b13b 10a8 0938
000000a0: f6c3 fb3a 8b76 aa39 0570 2e39 10f2 9f3b
000000b0: be2b a5bb 7e6f e4bc 7bf4 82bc 4637 1fbc
000000c0: a3ca 223e 79d5 7abd c945 6bbc ede1 d8bc
000000d0: fe81 0abd 11eb dabb 5cda 513b 60a9 a13a
000000e0: 2a1d adbe 46bd d23b 6117 23bf 80e4 fb3b
000000f0: 7670 dfbc c3ad 5dbb adc2 be3b 8525 8fbc
00000100: 6442 23bc 843e 523c 42cd 2ebb a2d3 42bc
00000110: 50fd fdbc d788 44bb 1921 00bd 42a9 193f
00000120: 9b7f a8bc a71a 023d 17a3 273c 3852 e23c
00000130: 8387 20bc bd5b c93c f7d8 06bd 2aa3 ca3c
00000140: 98c6 67bb 307a 3dbc 43cd 9dbc 796f 233c
00000150: a71d ed3b ca54 403c 2fb1 e03c 0a05 c83b
00000160: 9cac aa3c 5360 90bc 8a33 9cbc a0d0 3ebb
00000170: 2e60 d5bc 8eb4 12bd 87d5 38bc f4f5 afbc
00000180: d154 453b f465 adbc 2f88 843b de0a 4e3c
00000190: 8f79 20ba 7eea 7fbc d434 7e3c c6de fc3c
000001a0: e656 cdbc 7f7d cf3a 2c22 b9bc 3d17 dabb
000001b0: 035e e23b d2d2 debc 6416 babb 358d 38bd
000001c0: f6b1 a03e 123c 6cbe 1ab4 6fbc 2537 7f3a
000001d0: baef e83c a086 103b aa02 5e3c 287c c53c
000001e0: d27a 033b 0dc0 debc 6be3 e33b 0637 32bd
000001f0: f3d4 a23c b885 a43c ef55 393b e170 80bc

a2c_network.mu.weight f4 [3, 128]
0.000796722 0.0010161861 0.000412853 0.00042187367 0.00011381241 0.00085221697 -0.012446196 0.00013958906
-0.00017563412 -0.00041236117 0.0010274703 0.00045196823 7.0602575e-05 0.00043199488 0.00036900258 -0.0005073468
0.0010118061 -0.00078416057 0.00040048652 0.02957854 -0.0012448964 0.0021255217 -0.00027312303 0.0004451296
0.00015677181 -3.3281693e-05 0.0004529737 0.00034217423 0.00035374894 0.0005504878 0.020198703 0.0002891291
-0.00018239873 -0.00039612406 -0.0005681991 0.00018271712 -0.033598334 -0.00056930195 0.010355418 0.00094329467
0.00036098406 2.251363e-05 0.000504582 0.008540619 -6.420559e-05 0.00052764994 0.0004125548 0.000163628
-0.0021564458 0.028266773 -0.030557502 0.0011874288 0.00022714674 0.0013602623 0.0010796969 0.00024844887
0.010315247 0.019161634 -0.0048168655 -4.626059e-05 6.948316e-05 0.03149834 0.006865956 0.00027646695
-0.00017596735 0.000563855 -0.00039211885 -0.0006578603 0.000323305 0.0006396704 0.000652333 0.023847573
-0.0049242172 0.00016911591 -3.1327338e-05 -0.00094479555 0.00088026974 0.00028449876 0.08877701 0.059386294
0.00031180316 0.00027505858 0.0009551265 -1.4266084e-05 0.005201186 -0.03814258 -0.00022932974 -0.004115719
0.09041753 0.0004309625 0.0006443121 -0.00015131177 -0.008989154 0.0004905824 0.00039824875 -0.3958492
-1.6160135e-05 -0.0009898411 0.00068899355 -0.00056211534 0.00064309855 0.00047062855 -0.000294786 0.0007948031
-0.13876364 6.575325e-05 0.0005963522 0.0019483923 0.00015728905 -0.018958492 0.00046929476 -0.06080463
0.0040365835 0.032501142 0.0010423736 -0.00036907155 0.000116933305 0.00042274754 -0.00047372282 0.00061100075
-0.07805357 0.005414624 -0.06354181 0.11575506 0.028015817 0.0010601883 0.00045155518 0.00049308233
7.110498e-05 0.0007242525 0.0005675843 -0.00021519174 -0.00017721453 8.74295e-05 0.016463108 0.00046452336
-0.00036870682 -0.00045590347 0.00032256843 6.336528e-06 -0.0007484193 0.00014836446 0.0006280732 0.0001299977
2.5834124e-05 -0.00066396553 -6.9415682e-06 0.0057260026 8.38563e-05 -0.026740039 -0.000110851994 0.00078213075
-0.0008613904 0.0008877919 0.00021774461 0.0001722047 0.00045632635 0.00034907548 -0.017102392 -0.0003751281
0.00052448467 -2.113353e-05 -0.00046425316 -0.00023552171 -0.0020759043 -0.0005159105 0.01125449 -0.00017910081
0.0006544509 -1.1089545e-05 0.00033725574 -0.009403268 0.0004355409 -0.00028539804 -8.467749e-05 0.000509176
-0.005311796 -0.10083265 0.023320673 -0.043664306 0.00021975212 0.00088053977 0.00036482557 -0.00017685043
0.0033870204 0.035321884 0.0027501476 -0.00025200928 0.00030278854 0.0015261128 0.016188052 0.0010857234
-0.00047972397 4.687114e-05 0.00021462464 0.00034966992 -0.00045798937 0.00044875735 6.780184e-05 0.016055524
0.010911168 -3.2854266e-05 -0.0001766344 0.00014217682 0.00081719196 -0.00051403535 -0.0049241856 0.014061578
0.00044325602 0.00035789778 -0.00011358387 0.0003206839 0.011837961 0.0028976072 -0.0010548297 -0.025901329
-0.006566321 0.00016919916 0.00023905809 0.00022334255 0.03465551 0.00076491694 0.0007105421 -0.071905255
-0.0003220465 0.00094988494 0.00043925384 -0.00043314605 -0.0007807652 1.6273249e-06 -0.0006619425 0.00049514737
0.25800067 -0.00016652426 5.89462e-05 -0.0005055048 -6.574199e-05 0.0060678567 0.0005614053 -0.015063287
0.008531199 0.013632666 0.00025061268 -0.000114729424 -0.0005805501 -0.00017917696 -0.000656984 -0.00019274451
0.0064648134 0.027757386 -0.011144799 0.016440863 -0.023059895 0.000663667 0.00043597704 0.0012958919
00000000: 1cdb 503a 8c31 853a 3174 d839 ed2e dd39
00000010: 93ae ee38 5067 5f3a 21eb 4bbc a75e 1239
00000020: 6d2a 38b9 2e32 d8b9 2fac 863a 26f6 ec39
00000030: 7810 9438 5f7d e239 b076 c139 78ff 04ba
00000040: 949e 843a 2090 4dba 64f8 d139 b24e f23c
00000050: cb2b a3ba 564c 0b3b f431 8fb9 4960 e939
00000060: 1d63 2439 f297 0bb8 1a7d ed39 d965 b339
00000070: 6177 b939 9c4e 103a c077 a53c 4096 9739
00000080: 4942 3fb9 dfae cfb9 32f3 14ba c197 3f39
00000090: 689e 09bd 353d 15ba c5a9 293c 6f47 773a
000000a0: 7642 bd39 a7db bc37 ed45 043a f4ed 0b3c
000000b0: 1da6 86b8 fd51 0a3a 2b4c d839 8f93 2b39
000000c0: 2853 0dbb b88f e73c ba53 fabc 80a3 9b3a
000000d0: 3d2e 6e39 d44a b23a 9e84 8d3a 3e42 8239
000000e0: 4801 293c dcf8 9c3c ccd6 9dbb ee07 42b8
000000f0: 7db7 9138 6704 013d d0fb e03b c4f2 9039
00000100: e083 38b9 abcf 133a 4d95 cdb9 4274 2cba
00000110: 4381 a939 8eaf 273a 5401 2b3a fc5b c33c
00000120: 545b a1bb b554 3139 7965 03b8 28ac 77ba
00000130: e7c1 663a c728 9539 b9d0 b53d 0b3f 733d
00000140: 8379 a339 bd35 9039 7461 7a3a 5d58 6fb7
00000150: b66e aa3b 653b 1cbd 3c78 70b9 27dd 86bb
00000160: d32c b93d cff2 e139 0ee7 283a 72a9 1eb9
00000170: 3f47 13bc 6d9a 003a 0bcc d039 bfac cabe
00000180: a08f 87b7 8ebd 81ba 939d 343a ec5a 13ba
00000190: 9d95 283a b2be f639 828d 9ab9 555a 503a
000001a0: 0e18 0ebe 02e5 8938 8554 1c3a 3261 ff3a
000001b0: f5ed 2439 d74e 9bbc ad0b f639 470e 79bd
000001c0: 5145 843b eb1f 053d 41a0 883a f27f c1b9
000001d0: 173a f538 37a4 dd39 005e f8b9 912b 203a
000001e0: 8dda 9fbd 296d b13b 3522 82bd fd10 ed3d
000001f0: 6d81 e53c 04f6 8a3a b6be ec39 3242 013a
00000200: 321e 9538 c3db 3d3a f0c9 143a 18a5 61b9
00000210: aad2 39b9 5b5a b738 a4dd 863c 458b f339
00000220: fe4e c1b9 5406 efb9 671e a939 5c9e d436
00000230: 9231 44ba 4892 1b39 47a5 243a fe4f 0839
00000240: 5cb6 d837 f90d 2eba 9eeb e8b6 31a1 bb3b
00000250: 02dc af38 ed0d dbbc 3679 e8b8 e807 4d3a
00000260: eece 61ba b5ba 683a 6052 6439 d991 3439
00000270: 163f ef39 1e04 b739 511a 8cbc d7ac c4b9
00000280: 927d 093a e947 b1b7 0167 f3b9 61f6 76b9
00000290: e50b 08bb 2b3e 07ba c164 383c 02cd 3bb9
000002a0: 758f 2b3a 3c0d 3ab7 b3d1 b039 2a10 1abc
000002b0: 4f59 e439 7aa1 95b9 e294 b1b8 397a 053a
000002c0: 930e aebb 5981 cebd ff0a bf3c 58d9 32bd
000002d0: 436d 6639 06d4 663a 0f46 bf39 ed70 39b9
000002e0: c6f8 5d3b aead 103d d23b 343b 1d20 84b9
000002f0: 97bf 9e39 d907 c83a ce9c 843c d54e 8e3a
00000300: 7683 fbb9 8197 4438 dd0c 6139 e753 b739
00000310: 4b1e f0b9 3147 eb39 d630 8e38 e086 833c
00000320: c1c4 323c 00cd 09b8 f036 39b9 4d15 1539
00000330: d338 563a 54c0 06ba 105b a1bb 8862 663c
00000340: d164 e839 3aa4 bb39 e033 eeb8 7721 a839
00000350: 02f4 413c c8e5 3d3b 3642 8aba 062f d4bc
00000360: 4b2a d7bb 0e6b 3139 abab 7a39 0f31 6a39
00000370: f0f2 0d3d b584 483a ac43 3a3a 1043 93bd
00000380: 59d8 a8b9 b301 793a a74b e639 e117 e3b9
00000390: 44ac 4cba 756a da35 3686 2dba c7cc 013a
000003a0: aa18 843e 049d 2eb9 003d 7738 da83 04ba
000003b0: f6de 89b8 dfd4 c63b 462b 133a 01cc 76bc
000003c0: 71c6 0b3c 8c5b 5f3c aa64 8339 e49a f0b8
000003d0: 0f30 18ba 73e1 3bb9 7339 2cba 761b 4ab9
000003e0: c9d6 d33b 7563 e33c ad98 36bc fdae 863c
000003f0: 1be8 bcbc f0f9 2d3a d993 e439 ebda a93a

a2c_network.mu.bias f4 [3]
-0.26636478 0.1531369 -0.0020022646
00000000: f760 88be ebcf 1c3e 6d38 03bb

exp_avg f4 [3]
9.5002974e-08 -8.324867e-05 -0.0002958975
00000000: 7004 cc33 ca95 aeb8 b122 9bb9

exp_avg_sq f4 [3]
9.100007e-07 8.9065657e-07 1.0899691e-06
00000000: c646 7435 7415 6f35 0e4b 9235

exp_avg f4 [128, 15]
3.9386825e-05 6.2865336e-05 -9.562524e-05 -3.6085967e-05 -3.1684052e-05 -1.6657183e-05 -4.616823e-05 2.1443273e-05
4.5510922e-05 -2.616958e-06 -3.802532e-05 -5.5171735e-05 -2.6522925e-05 -2.6750455e-05 8.744634e-08 -0.0002203428
4.239128e-05 -2.7128808e-06 1.9308492e-05 -2.8674112e-05 0.00015840986 8.8847584e-05 -0.00011780796 -0.0004917591
4.5582266e-05 0.00023866117 -0.0007981985 -9.295307e-05 0.00011688552 -0.0001046367 -0.00020593563 0.0003098538
-0.0003481857 -7.424574e-05 5.4072916e-05 -0.00020257977 -0.00020262212 0.00018763551 -0.00024270093 -3.457001e-05
0.00036214918 -0.000822753 -0.0001110326 7.409973e-05 -0.00018424062 0.00016757529 -8.774756e-05 0.00025583518
0.0008645703 0.00083991676 -0.0005749895 0.00048659393 7.728341e-05 -0.0010710196 -3.0707757e-05 -0.00030423285
0.0008084318 0.00056725723 -5.6048728e-05 0.00031061366 3.269794e-05 3.1230873e-05 -8.049843e-06 5.4676173e-05
6.0600487e-05 -1.4404456e-05 -2.9904939e-05 1.852778e-05 -6.9546855e-05 -5.2058298e-05 -3.264655e-05 1.4121953e-05
2.65528e-05 -2.1369551e-07 1.5902724e-05 -0.00024424045 -0.00014273015 0.00011872919 -0.00015957549 -0.00022058413
5.340961e-05 0.0002470568 -0.00015279381 0.00017310295 0.00012050953 0.00024575653 0.000114245064 -6.882754e-05
3.557908e-05 -7.588027e-05 -0.00011270907 -0.000114610724 0.00016888705 -5.0832972e-05 -0.00014126864 0.00024688046
3.708158e-05 4.5443503e-05 8.218348e-06 3.981957e-05 -1.4339106e-05 0.00015281071 3.4538974e-05 -2.24889e-05
4.1158855e-05 -0.00010833191 -0.00026345425 -7.68785e-05 -1.8736135e-05 -9.244022e-05 0.0001236905 0.0002758962
1.708269e-05 0.00015088392 0.00035494592 8.3229e-05 9.1392154e-05 4.0656328e-06 -8.090653e-06 3.4501772e-05
-0.00013228731 1.1860504e-05 0.00011153292 2.5043699e-05 0.00013152792 -0.00012305296 6.826807e-05 0.00018725691
-0.0003310652 -0.00018848467 0.0001603389 -0.00029432817 2.6474796e-05 3.7023277e-05 -3.6243e-05 5.7702596e-06
-6.624952e-06 2.3275672e-05 -1.0652482e-05 -1.4662699e-05 2.9893768e-06 -3.5869638e-05 3.108391e-06 4.1921572e-05
-1.26795e-05 -9.054286e-06 2.0130065e-05 -6.590231e-06 3.2156922e-06 -4.127058e-06 -9.054019e-06 2.3968732e-05
-5.6147887e-06 -1.1889526e-05 -1.6212201e-06 -6.225543e-06 -1.9020566e-05 -8.039418e-06 5.086688e-06 -3.0706284e-05
2.9490761e-06 -1.7975844e-05 -6.655576e-06 1.7499896e-06 -4.0783907e-06 -1.6754494e-06 0.00012670696 -0.00013195604
0.00022823931 0.00016633932 -0.0002434026 -2.3896946e-05 -0.00022641734 -0.00030187785 -0.000102575774 0.00020422686
-0.00028366412 0.00014408666 -4.5648e-06 -3.5811758e-05 5.505206e-05 1.896338e-05 -2.3402692e-06 8.143764e-05
7.0254086e-05 1.9201918e-05 -4.8990525e-05 -2.5654894e-05 -0.00013261387 1.6476844e-05 -4.1669915e-05 1.42255585e-05
5.399915e-05 -3.3117478e-06 3.455632e-05 -0.00011451815 -6.024563e-05 1.5507583e-05 -6.896137e-05 -5.9804217e-05
-1.740735e-05 0.00012867195 4.7759745e-06 2.2655327e-05 -1.7483302e-05 0.00010695312 -6.17872e-05 -4.9832022e-05
2.2473387e-05 -5.014615e-05 -0.00013137881 0.000102678656 0.00015434364 0.00023464258 7.747483e-05 4.6608708e-05
-8.998909e-05 0.0005105659 -0.0005556618 -0.0001655338 0.00019135347 -0.00040572486 0.00018171033 -8.4353377e-07
9.204015e-05 9.92323e-05 0.00020682572 3.109338e-05 -0.00037581119 -0.0002476512 -0.00023458917 -2.9225279e-05
-0.00011449471 0.00031662532 1.3023187e-05 3.5804027e-05 -0.0006271182 -0.00028597738 -5.6827732e-05 -0.0001504131
2.5090178e-06 -1.7290748e-05 5.585374e-06 -5.290914e-06 -4.34899e-06 2.573704e-07 3.0563187e-05 -7.0542033e-06
7.663947e-06 2.1391625e-05 -6.7896445e-07 7.960596e-06 4.449896e-07 -2.142186e-06 4.1772787e-06 9.9030905e-05
00000000: 4833 2538 92d6 8338 698a c8b8 035b 17b8
00000010: 7ee4 04b8 07bb 8bb7 c2a4 41b8 14e1 b337
00000020: fbe2 3e38 ff9e 2fb6 607d 1fb8 3368 67b8
00000030: 8c7d deb7 2a66 e0b7 22ca bb33 d20b 67b9
00000040: 4acd 3138 f00e 36b6 acf8 a137 3089 f0b7
00000050: d31a 2639 af53 ba38 ab0f f7b8 65e9 00ba
00000060: 962f 3f38 1f41 7a39 323e 51ba cdef c2b8
00000070: 7020 f538 6770 dbb8 6df0 57b9 e073 a239
00000080: b28c b6b9 61b4 9bb8 5acc 6238 986b 54b9
00000090: f676 54b9 06c0 4439 897d 7eb9 44ff 10b8
000000a0: d7de bd39 05ae 57ba 2cda e8b8 fd65 9b38
000000b0: b730 41b9 26b7 2f39 1d05 b8b8 9e21 8639
000000c0: 55a4 623a dc2d 5c3a e4ba 16ba 881d ff39
000000d0: 3713 a238 7461 8cba 34cc 00b8 7181 9fb9
000000e0: f1ec 533a fdb3 143a dd15 6bb8 dcd9 a239
000000f0: 2525 0938 e5fd 0238 d00d 07b7 1854 6538
00000100: 472d 7e38 abaa 71b7 5edc fab7 1b6c 9b37
00000110: afd9 91b8 2c59 5ab8 f7ed 08b8 54ed 6c37
00000120: b4bd de37 2d74 65b4 d766 8537 660d 80b9
00000130: d5a9 15b9 40fe f838 b853 27b9 9a4c 67b9
00000140: 2204 6038 6787 8139 4737 20b9 f882 3539
00000150: 10ba fc38 e2d8 8039 da96 ef38 8157 90b8
00000160: bf3a 1538 e921 9fb8 395e ecb8 2a5b f0b8
00000170: 4617 3139 7d35 55b8 8321 14b9 bc6f 8139
00000180: 0b88 1b38 979a 3e38 89e1 0937 f003 2738
00000190: fe91 70b7 d03b 2039 f1dd 1038 8ca6 bcb7
000001a0: fca1 2c38 4030 e3b8 3b20 8ab9 d539 a1b8
000001b0: 8b2b 9db7 77dc c1b8 eab2 0139 29a6 9039
000001c0: cc4c 8f37 9836 1e39 0918 ba39 3b8b ae38
000001d0: caa9 bf38 856b 8836 17bd 07b7 ffb5 1038
000001e0: 9bb6 0ab9 7afc 4637 c8e6 e938 ef14 d237
000001f0: c2ea 0939 c707 01b9 242b 8f38 655a 4439
00000200: d292 adb9 f8a3 45b9 a520 2839 0f50 9ab9
00000210: 3116 de37 7149 1b38 a003 18b8 279e c136
00000220: e84b deb6 2040 c337 10b8 32b7 d0ff 75b7
00000230: 1a9d 4836 bb72 16b8 c099 5036 f2d4 2f38
00000240: 0aba 54b7 dde7 17b7 fcdc a837 a721 ddb6
00000250: 2ccd 5736 297b 8ab6 b7e6 17b7 7610 c937
00000260: ab66 bcb6 2079 47b7 b398 d9b5 02e5 d0b6
00000270: 5b8e 9fb7 0ae1 06b7 51ae aa36 9fca 00b8
00000280: bee8 4536 d5ca 96b7 f652 dfb6 2fe1 ea35
00000290: 1cd9 88b6 01e0 e0b5 a4dc 0439 ae5d 0ab9
000002a0: 8653 6f39 5f6b 2e39 e339 7fb9 4d76 c8b7
000002b0: 716a 6db9 5c45 9eb9 f31d d7b8 bb25 5639
000002c0: c1b8 94b9 f815 1739 552b 99b6 9534 16b8
000002d0: b3e7 6638 8c13 9f37 850d 1db6 80c9 aa38
000002e0: 6055 9338 ce13 a137 2d7b 4db8 7735 d7b7
000002f0: 440e 0bb9 c137 8a37 bbc6 2eb8 4faa 6e37
00000300: 257d 6238 653f 5eb6 91f0 1038 7729 f0b8
00000310: 41b0 7cb8 4816 8237 5b9f 90b8 4ad6 7ab8
00000320: 0006 92b7 1dec 0639 4f41 a036 f20b be37
00000330: 1ba9 92b7 054c e038 c093 81b8 ba02 51b8
00000340: 3b85 bc37 0554 52b8 bbc2 09b9 2f55 d738
00000350: 4ed7 2139 630a 7639 fc79 a238 b87d 4338
00000360: 86b8 bcb8 7fd7 053a d5a9 11ba 2493 2db9
00000370: 0ea6 4839 78b7 d4b9 7f89 3e39 336f 62b5
00000380: ae05 c138 ef1a d038 5bdf 5839 436a 0238
00000390: 8608 c5b9 2ed7 81b9 0dfc 75b9 cf28 f5b7
000003a0: e11c f0b8 bb00 a639 2a7e 5a37 482c 1638
000003b0: 3165 24ba 3cef 95b9 505a 6eb8 36b8 1db9
000003c0: 9960 2836 990b 91b7 ff69 bb36 9b88 b1b6
000003d0: 8aed 91b6 b82c 8a34 f930 0038 25b3 ecb6
000003e0: 6794 0037 2a72 b337 1542 36b5 808e 0537
000003f0: e8e6 ee34 7ac2 0fb6 8d2a 8c36 d0ae cf38

exp_avg_sq f4 [128, 15]
1.4693611e-08 1.2556167e-08 1.7822055e-08 2.2384613e-08 2.773379e-08 2.107147e-08 1.2049596e-08 1.1486513e-08
1.7027746e-08 1.6906883e-08 2.0287409e-08 2.3469932e-08 3.666232e-09 4.382125e-09 6.9015407e-09 1.5795788e-06
3.642874e-06 8.4035155e-06 5.522283e-07 2.133224e-06 3.907969e-06 3.8147177e-06 3.0851902e-06 3.9113465e-06
4.770687e-06 4.0291343e-06 1.2215468e-05 5.179287e-07 2.5658844e-07 5.5151145e-07 7.224958e-07 1.5658807e-06
4.4684584e-06 3.3697688e-07 2.0700309e-06 4.1616727e-06 1.6146944e-06 1.7046993e-06 1.8688663e-06 1.990606e-06
1.7935172e-06 4.0587784e-06 1.523692e-07 1.3881697e-07 3.419137e-07 1.6952123e-06 1.4580139e-06 1.8395976e-06
1.2243572e-06 9.2690465e-07 1.0992198e-06 1.1734348e-06 1.1176548e-06 2.3553566e-06 1.9187912e-06 1.4450438e-06
1.9001149e-06 2.0453712e-07 7.672941e-08 1.6580157e-07 1.2081478e-08 9.802526e-09 2.1147397e-08 3.202365e-09
1.6713301e-08 2.9529449e-08 1.8377401e-08 1.429977e-08 2.4002203e-08 1.6518712e-08 1.7736996e-08 3.6064527e-08
2.8034717e-09 2.555797e-09 4.1362527e-09 8.7299344e-07 6.8363136e-07 1.1680219e-06 3.398754e-07 5.641475e-07
8.561045e-07 6.015301e-07 5.359882e-07 5.7115136e-07 1.0355838e-06 8.2243e-07 1.1386725e-06 6.4965676e-08
7.547336e-08 1.01544465e-07 1.57348e-06 1.9509587e-06 1.7417008e-06 2.8523513e-07 1.0022379e-06 1.5805297e-06
1.3263543e-06 1.7323008e-06 1.4195055e-06 2.2954152e-06 1.7286823e-06 2.4716644e-06 2.2461403e-07 1.4491094e-07
2.9006145e-07 2.6219172e-06 1.1349395e-06 2.6680443e-06 3.196319e-07 5.869983e-07 7.990777e-07 8.2159755e-07
2.701855e-06 1.6577377e-06 1.4169049e-06 3.223409e-06 1.8739354e-06 5.9402158e-08 1.2979044e-07 1.686282e-07
2.8888857e-07 1.9757306e-07 6.5264544e-07 8.548154e-08 1.6149627e-07 1.6994346e-07 3.3317085e-07 3.4783469e-07
2.2405005e-07 2.9306068e-07 4.0754568e-07 4.5282255e-07 4.4605297e-08 2.5322631e-08 3.931174e-08 9.751282e-09
7.271611e-09 1.3315568e-08 4.444107e-09 1.2510865e-08 2.0849193e-08 7.807086e-09 1.0201973e-08 1.3880916e-08
1.1536178e-08 1.2921293e-08 1.3651554e-08 1.6150616e-09 1.1532262e-09 1.8085429e-09 9.113758e-08 3.21274e-08
3.9037435e-08 8.1782034e-08 1.5654126e-07 1.1983414e-07 3.8047826e-08 1.6989776e-07 3.0349586e-08 6.0946356e-08
1.9355369e-07 3.151697e-08 1.5998499e-08 2.043291e-08 1.6196262e-08 1.495644e-06 3.4464178e-06 1.25306915e-05
1.1189608e-06 1.2019093e-06 1.3074379e-06 1.989621e-06 1.6234562e-06 2.455752e-06 3.043206e-06 2.0471668e-06
3.8791495e-06 3.8762937e-07 2.1193623e-07 6.3325746e-07 3.2830734e-08 2.1598808e-08 3.4947075e-08 2.6407676e-08
3.3068932e-08 4.2980933e-08 3.3167215e-08 2.7629738e-08 3.412102e-08 3.5284533e-08 3.464503e-08 4.808084e-08
7.124745e-09 6.0501475e-09 9.654008e-09 3.5142634e-08 3.0551526e-08 5.399427e-08 3.6577184e-08 2.9455778e-08
2.4168855e-08 2.165764e-08 2.1756147e-08 4.3101217e-08 3.199281e-08 3.034624e-08 4.5071527e-08 6.2144565e-09
5.7237566e-09 9.375907e-09 7.6206766e-07 1.2822192e-06 2.128459e-06 1.5190913e-06 1.1850423e-06 1.1853238e-06
1.1931668e-06 1.6307479e-06 1.5400921e-06 2.0168775e-06 1.3013657e-06 2.8954582e-06 3.0070447e-07 9.6144795e-08
2.020967e-07 9.1591755e-07 3.265323e-07 6.301245e-07 2.2385822e-07 1.823049e-07 2.0095112e-07 2.0932546e-07
3.937052e-07 1.3827414e-06 3.5539068e-07 7.110634e-07 6.0443597e-07 4.8947914e-08 3.1921047e-08 5.8157568e-08
2.2114113e-08 1.5738525e-08 2.9492712e-08 7.4247315e-09 3.5216363e-08 6.855457e-08 2.3825677e-08 1.8131042e-08
2.6669927e-08 2.5869884e-08 3.452188e-08 3.8179497e-08 4.687928e-09 3.889223e-09 5.9315486e-09 2.5832801e-07
00000000: 2f6f 7c32 9bb6 5732 1d17 9932 4948 c032
00000010: 403b ee32 a700 b532 af02 4f32 3856 4532
00000020: 6944 9232 a13a 9132 7c44 ae32 ed9a c932
00000030: 09f1 7b31 9491 9631 9822 ed31 ea01 d435
00000040: 1978 7436 d3fc 0c37 d73c 1435 8228 0f36
00000050: 3321 8336 2d00 8036 2a0b 4f36 363e 8336
00000060: e413 a036 0032 8736 09f1 4c37 ca07 0b35
00000070: 3fc1 8934 940b 1435 89f1 4135 402b d235
00000080: c4ef 9536 c0e9 b434 dcea 0a36 7fa4 8b36
00000090: 7ab8 d835 06cd e435 c2d5 fa35 5a96 0536
000000a0: c8b8 f035 a430 8836 ed9a 2334 b80d 1534
000000b0: 4390 b734 0d87 e335 fab0 c335 18e8 f635
000000c0: 9854 a435 67d0 7835 e888 9335 ea7e 9d35
000000d0: 5402 9635 b810 1e36 95c4 0036 54f3 c135
000000e0: 7307 ff35 bc9e 5b34 70c6 a433 3007 3234
000000f0: e78e 4f32 f767 2832 9ea7 b532 9a10 5c31
00000100: f090 8f32 f2a7 fd32 55dc 9d32 0eab 7532
00000110: 672d ce32 08e5 8d32 115c 9832 5ee5 1a33
00000120: 32a7 4031 0ea2 2f31 dd1e 8e31 a757 6a35
00000130: ca82 3735 edc4 9c35 1f78 b634 ec6f 1735
00000140: 0ecf 6535 d578 2135 d4e0 0f35 3951 1935
00000150: 63fe 8a35 f6c4 5c35 7dd4 9835 4283 8b33
00000160: eb13 a233 a910 da33 5c30 d335 37ed 0236
00000170: 62c4 e935 6b22 9934 a284 8635 9622 d435
00000180: 3005 b235 6781 e835 d685 be35 ef0a 1a36
00000190: 1205 e835 dfde 2536 6f2d 7134 d198 1b34
000001a0: beb9 9b34 32f4 2f36 3954 9835 a70c 3336
000001b0: e099 ab34 3792 1d35 3480 5635 c18b 5c35
000001c0: 8451 3536 6f7f de35 7b2c be35 bf51 5836
000001d0: ee83 fb35 5d21 7f33 865c 0b34 2b10 3534
000001e0: 8b18 9b34 7824 5434 7431 2f35 f991 b733
000001f0: c267 2d34 b479 3634 a7de b234 09be ba34
00000200: 6992 7034 f455 9d34 a7cc da34 751b f334
00000210: 0b94 3f33 0e85 d932 b7d7 2833 9786 2732
00000220: c4d9 f931 7dc2 6432 c7b2 9831 5eef 5632
00000230: dc17 b332 ed1f 0632 c044 2f32 ea78 6e32
00000240: a630 4632 73fc 5d32 2b88 6a32 eef8 dd30
00000250: 8a7f 9e30 7290 f830 6ab7 c333 73fc 0933
00000260: 1daa 2733 26a0 af33 bc15 2834 c2ab 0034
00000270: 076a 2333 246d 3634 b959 0233 9de1 8233
00000280: a2d3 4f34 465d 0733 126d 8932 7284 af32
00000290: f51f 8b32 f0bd c835 0249 6736 e93a 5237
000002a0: 332f 9635 4a51 a135 397b af35 6e85 0536
000002b0: 88e5 d935 80cd 2436 e239 4c36 0f62 0936
000002c0: a429 8236 601b d034 9690 6334 1ffd 2935
000002d0: c601 0d33 4888 b932 b718 1633 18d7 e232
000002e0: ad07 0e33 099a 3833 bd73 0e33 7056 ed32
000002f0: 758c 1233 c18b 1733 9dcc 1433 7181 4e33
00000300: ebcd f431 a9e1 cf31 c7da 2532 bcef 1633
00000310: c237 0333 54e7 6733 0a19 1d33 f105 fd32
00000320: e09b cf32 a709 ba32 46e2 ba32 4a1e 3933
00000330: 7768 0933 0b56 0233 ab94 4133 f086 d531
00000340: b2aa c431 ad13 2132 e490 4c35 b718 ac35
00000350: a6d6 0e36 94e3 cb35 be0d 9f35 6a17 9f35
00000360: e624 a035 12e0 da35 29b5 ce35 b159 0736
00000370: 96aa ae35 984f 4236 8270 a134 2978 ce33
00000380: ebff 5834 60dd 7535 424e af34 d325 2935
00000390: ae5d 7034 97bf 4334 06c5 5734 f2c2 6034
000003a0: 6e5e d334 a296 b935 86cc be34 e8df 3e35
000003b0: 8640 2235 cd3a 5233 9019 0933 ecc8 7933
000003c0: 73f5 bd32 6231 8732 2957 fd32 a11c ff31
000003d0: cd40 1733 4638 9333 38a9 cc32 95be 9b32
000003e0: ca17 e532 7a38 de32 3545 1433 cdfa 2333
000003f0: 7313 a131 f8a1 8531 74ce cb31 55b0 8a34

exp_avg f4 [128]
2.8957811e-05 -0.0005380573 -0.0005508293 0.0010947027 4.978917e-05 -0.00027264658 0.00013249893 6.420444e-05
-0.00013178031 -1.8474911e-05 -1.7163075e-05 -2.6711488e-05 8.987148e-05 -0.0001571362 0.00013392049 -0.00032060713
2.0269717e-05 0.00014990625 -0.000482447 0.00012676785 -3.7727055e-05 3.6695936e-05 -0.00043943326 -0.0004570529
-0.00016649238 0.00012742783 0.00042988043 -4.1603715e-05 -0.00031943788 -6.682337e-06 -9.278457e-06 0.00025501347
-6.096476e-05 -1.2002476e-05 -0.00015457127 8.264049e-05 -0.0008995098 -0.00014195136 7.96056e-05 -0.00030033902
3.1112e-05 0.00043126562 3.3057742e-05 2.9501343e-05 -1.3072372e-05 -0.00029384368 2.7463293e-05 -0.00012241746
2.1233918e-05 -0.00021624868 6.691952e-05 2.381381e-05 -0.00020713196 -2.2729322e-05 -2.1913318e-05 0.00015922583
0.00032128886 -0.000104309554 -7.174544e-05 -5.7348454e-05 9.6915865e-05 2.6467109e-05 3.705017e-05 4.0226318e-05
3.2321383e-05 0.00040348046 -0.0001426221 3.115439e-05 -0.0002252825 1.003902e-05 5.358527e-06 0.00052640616
-6.239495e-05 0.0005665072 0.00014058228 7.256176e-05 -0.00043092333 7.5547796e-06 1.3599968e-05 -6.609233e-05
-2.7846869e-05 -3.0116084e-05 0.0002719242 -0.0002450197 -0.001959249 -0.0006261018 0.00013605245 2.3865612e-05
0.0002038779 3.815381e-05 0.00050961383 2.300721e-05 -3.1098814e-05 0.00017294458 0.00010270693 -0.0003148845
-0.00085676543 0.00016543499 0.00011627984 -0.00048271846 -0.0008355524 -2.2170361e-05 2.3001627e-05 -0.00047698457
3.584277e-05 0.00025646077 -0.00029643948 6.161241e-05 -1.3700392e-05 0.00018037876 -1.02099375e-05 -1.7101718e-05
6.80709e-05 -6.3511966e-06 -0.0002283795 0.00035880224 -1.7109624e-05 -0.0001735575 -5.2106854e-05 1.0765811e-05
-0.00024433396 -7.945651e-05 -0.00038289547 -5.2466265e-05 -4.642866e-05 -0.00014818784 -2.1137213e-05 4.2759726e-05
00000000: 6dea f237 6a0c 0dba 8765 10ba 217c 8f3a
00000010: b7d4 5038 01f2 8eb9 69ef 0a39 7fa5 8638
00000020: 822e 0ab9 92fa 9ab7 6cf9 8fb7 7c12 e0b7
00000030: 6279 bc38 edc4 24b9 026d 0c39 2917 a8b9
00000040: e308 aa37 2730 1d39 f1f0 fcb9 fcec 0439
00000050: 1e3d 1eb8 f6e9 1938 bc63 e6b9 9aa0 efb9
00000060: 7594 2eb9 269e 0539 9361 e139 a67f 2eb8
00000070: 3a7a a7b9 d638 e0b6 abaa 1bb7 54b3 8539
00000080: 6ab4 7fb8 3e5e 49b7 6914 22b9 464f ad38
00000090: 15cd 6bba c7d8 14b9 eef1 a638 d276 9db9
000000a0: 417e 0238 7e1b e239 7ba7 0a38 a779 f737
000000b0: 6951 5bb7 080f 9ab9 f960 e637 305d 00b9
000000c0: 7e1f b237 d0c0 62b9 2557 8c38 c4c3 c737
000000d0: 9031 59b9 d9aa beb7 7ed2 b7b7 dcf5 2639
000000e0: a972 a839 c4c0 dab8 0a76 96b8 6f89 70b8
000000f0: 4f3f cb38 af05 de37 5166 1b38 aeb8 2838
00000100: d290 0738 3b8a d339 d48c 15b9 c6ab 0238
00000110: d039 6cb9 436d 2837 65cd b336 85fe 093a
00000120: 09da 82b8 a881 143a 4569 1339 4c2c 9838
00000130: 8ded e1b9 107f fd36 6b2b 6437 0d9b 8ab8
00000140: b298 e9b7 cca1 fcb7 0c91 8e39 fd75 80b9
00000150: be66 00bb fb20 24ba 4da9 0e39 0333 c837
00000160: 0fc8 5539 5707 2038 9b97 053a 9bff c037
00000170: 1970 02b8 7558 3539 5d64 d738 1517 a5b9
00000180: 8e98 60ba 9e78 2d39 44db f338 6015 fdb9
00000190: f908 5bba 7dfa b9b7 9ef3 c037 c913 fab9
000001a0: e255 1638 9575 8639 6f6b 9bb9 e935 8138
000001b0: bcda 65b7 0e24 3d39 594b 2bb7 a975 8fb7
000001c0: 49c1 8e38 5d1c d5b6 2879 6fb9 9f1d bc39
000001d0: a386 8fb7 fdfc 35b9 4f8d 5ab8 ce9e 3437
000001e0: f319 80b9 e4a1 a6b8 5cbf c8b9 390f 5cb8
000001f0: 65bc 42b8 df62 1bb9 d24f b1b7 e858 3338
