training/SavedModels/torque_ctrl_her2.pth (torch, 239490 bytes, 30 tensors)

running_mean f8 [15]
0.044921055094888925 -0.14508778027059685 0.6034019583484254 0.0003176970792376811 -0.0005322144044933377 -0.0027295302700784153 -0.041562142601454556 -0.01768966401133527
0.0421726987730858 -0.04841491373005406 -0.020536955832106792 0.04480187708950066 -0.011826719289130327 -0.0013495065899417676 0.010664127809125724
00000000: e997 117d e4ff a63f 83dd a783 3c92 c2bf
00000010: e85c ae9f 114f e33f 4078 bb90 12d2 343f
00000020: 40eb 1abb 8970 41bf 482b ca67 3d5c 66bf
00000030: c52a 7316 a247 a5bf b3a7 9f41 3d1d 92bf
00000040: ac67 07f4 a897 a53f c6ee 37ee d6c9 a8bf
00000050: 1f18 a2c6 a307 95bf be31 cc89 45f0 a63f
00000060: 66bb 8664 9b38 88bf 18af d9aa 3d1c 56bf
00000070: fac8 7101 13d7 853f

running_var f8 [15]
0.16321566162979742 0.22789493651891707 0.1250575990511365 0.014798697354179382 0.04799498926332423 0.35602849897997246 0.028859007565220113 0.03217020163259903
0.02530856989030739 0.020953365591012463 0.03022253729144223 0.018679881732197225 0.08580297951945484 0.03245881173655207 0.019941752274889653
00000000: c58e 7234 40e4 c43f 4ee9 a249 a92b cd3f
00000010: 9a3c 052d e301 c03f 81dd 4689 c74e 8e3f
00000020: bf04 849a cc92 a83f 6407 e4c1 2bc9 d63f
00000030: e823 c036 378d 9d3f d7e1 d5d7 9c78 a03f
00000040: 2119 f35f 7dea 993f 6070 d18f cc74 953f
00000050: 8956 1325 a8f2 9e3f 1720 88a4 d120 933f
00000060: 7277 ef1e 2ff7 b53f 2043 c0fd 709e a03f
00000070: f2e0 6157 9c6b 943f

count f8 []
1081606145.0
00000000: 0000 4000 001e d041

running_mean f8 [1]
10.636137326907873
00000000: 19ab adca b345 2540

running_var f8 [1]
3.5581983496295195
00000000: 3db8 42b2 3077 0c40

count f8 []
270401537.0
00000000: 0000 0001 001e b041

a2c_network.sigma f4 [3]
-1.7557795 -2.4124224 -3.7477167
00000000: 62bd e0bf 2165 1ac0 97da 6fc0

a2c_network.actor_mlp.0.weight f4 [128, 15]
-0.31600687 0.20890747 0.04277779 -0.15732376 0.19546856 0.25145486 0.07687288 0.21307778
0.28357163 -0.031074852 0.045875624 -0.13068584 -0.037024606 0.09637622 -0.014584826 0.45079094
-0.057674784 0.19821918 -0.061020464 0.107103385 -0.022811292 0.29578224 0.37528872 0.101563714
-0.31547785 -0.12687351 0.17721055 0.03045069 0.022427123 -0.09515295 -0.049817897 0.21595325
0.22768469 0.11290613 -0.030161876 -0.079299115 0.2806674 -0.24575938 0.068044856 0.07188013
0.2417899 -0.08446657 -0.16063185 0.08196482 0.065965675 0.11140997 -0.19090323 -0.039399456
0.0019649065 0.3274193 0.28086266 0.02380987 -0.06403298 -0.3236007 -0.18395971 0.15594646
0.32425776 0.038127787 -0.13406955 -0.10429722 -0.26835516 -0.17676137 0.11640791 -0.051250666
-0.019560197 -0.14261775 -0.21072946 -0.15236485 -0.31995296 0.17993101 0.001000739 0.06798865
-0.06767951 -0.04978534 -0.10288146 0.04636916 -0.12763736 0.29773682 0.09043313 -0.13374728
-0.012025609 0.37976396 0.1972616 -0.08015353 -0.25325683 -0.1810457 0.0322365 -0.073446184
-0.11492575 0.025427757 -0.47031122 -0.3669555 -0.2853341 -0.8995096 0.046596825 0.11293874
-0.11680882 -0.050858773 -0.23858121 -0.088576846 -0.19032441 0.114189096 0.07489279 0.013634067
-0.031098258 0.031406175 -0.19173916 0.13550706 0.06632876 -0.06677748 -0.012015773 -0.27216265
-0.2215371 0.021490952 0.025679013 0.21144356 -0.04295919 -0.08703634 0.052078396 0.0060544
0.039897263 -0.10043465 -0.014308421 -0.015226252 0.13146985 0.1671486 0.15655935 0.18774334
-0.32006362 -0.22355543 -0.16974199 0.36789918 0.01068572 -0.048723508 -0.11497702 0.25457206
-0.21907003 -0.16929924 -0.14266595 -0.18419693 -0.37648582 -0.005273187 -0.025135756 0.111437984
-0.15952401 0.2418917 -0.20759244 0.10455696 -0.10601169 0.09154426 0.0045333924 -0.16213861
0.35393962 0.02698697 -0.04152829 0.05521755 -0.07442836 0.3734984 -0.28853273 -0.075097054
-0.15828855 0.019752508 0.05361414 0.03770529 -0.053299874 0.050096676 0.29441765 0.04034638
-0.06217318 0.2004587 0.26044905 0.26254603 0.0033181466 0.09382081 0.033334818 -0.03840638
-0.058462713 0.086237654 0.14743909 -0.008208268 -0.08766803 0.14836757 -0.01891852 0.012745024
-0.19552633 -0.3099161 0.13462439 -0.003106976 0.21566176 0.1345263 -0.10292139 -0.17704467
0.02480689 0.075352296 0.019960428 0.00093623187 0.02137829 -0.11913965 -0.017135525 -0.1026692
0.20125322 -0.10345289 0.16055061 -0.03172588 -0.056706514 -0.027443511 0.01715718 0.029202124
0.03632508 -0.29297253 0.17694445 0.14510429 0.06575149 -0.0801587 -0.13674091 -0.10456889
0.04966307 0.21233368 0.4183741 0.26814786 0.10654573 -0.07263554 -0.07044593 -0.029739011
-0.03789506 0.09044435 -0.09394456 0.10540773 -0.032165743 -0.015749559 -0.053543855 -0.42136568
0.27885818 -0.0474254 0.16637483 -0.08835211 -0.030076332 0.07561901 -0.08404902 0.0074938596
-0.18229535 0.04392663 -0.32355636 0.029577322 0.1370803 0.0016804595 0.22025914 0.10202471
-0.38908848 0.21212769 0.16280232 -0.1306215 -0.059007443 0.05271237 -0.1615581 0.3120595
00000000: a7cb a1be d7eb 553e c437 2f3d 7b19 21be
00000010: e928 483e b1be 803e 876f 9d3d 1031 5a3e
00000020: 4d30 913e b090 febc 14e8 3b3d 82d2 05be
00000030: 1da7 17bd e560 c53d 32f5 6ebc 12ce e63e
00000040: 653c 6cbd f8f9 4a3e 98f0 79bd 0559 db3d
00000050: bfde babc c570 973e d825 c03e a300 d03d
00000060: 5086 a1be 21eb 01be af76 353e ba73 f93c
00000070: 16b9 b73c 8ddf c2bd da0d 4cbd d922 5d3e
00000080: 2d26 693e 543b e73d 0a16 f7bc 9367 a2bd
00000090: a3b3 8f3e 59a8 7bbe 1a5b 8b3d e435 933d
000000a0: c697 773e cffc acbd ad7c 24be 2cdd a73d
000000b0: 0319 873d e92a e43d 237c 43be 5361 21bd
000000c0: a9c5 003b 81a3 a73e 3bcd 8f3e eb0c c33c
000000d0: b923 83bd feae a5be ef5f 3cbe 6eb0 1f3e
000000e0: 1d05 a63e e22b 1c3d 8749 09be c899 d5bd
000000f0: d965 89be ef00 35be 4567 ee3d 38ec 51bd
00000100: b53c a0bc 630a 12be 77c9 57be 8805 1cbe
00000110: e0d0 a3be d63f 383e 3b2b 833a a23d 8b3d
00000120: 8e9b 8abd b6eb 4bbd 84b3 d2bd 97ed 3d3d
00000130: 5eb3 02be f670 983e 0135 b93d 0cf5 08be
00000140: 0f07 45bc 6c70 c23e f2fe 493e 8927 a4bd
00000150: e1aa 81be 0b64 39be 6c0a 043d f46a 96bd
00000160: 315e ebbd df4d d03c a2cc f0be 97e1 bbbe
00000170: 5017 92be 4346 66bf 50dc 3e3d 6d4c e73d
00000180: 7639 efbd 4a51 50bd a24e 74be c767 b5bd
00000190: 67e4 42be f9db e93d 6461 993d 6c61 5f3c
000001a0: c6c1 febc c3a3 003d 4557 44be 5dc2 0a3e
000001b0: 5fd7 873d a2c2 88bd cedd 44bc e758 8bbe
000001c0: 9fda 62be cb0d b03c cb5c d23c a984 583e
000001d0: faf5 2fbd 1c40 b2bd 2850 553d fd63 c63b
000001e0: 506b 233d afb0 cdbd de6d 6abc 8877 79bc
000001f0: 08a0 063e 0129 2b3e 1851 203e ca3f 403e
00000200: 61df a3be b7eb 64be d8d0 2dbe 485d bc3e
00000210: 2813 2f3c 4d92 47bd 1279 ebbd 4557 823e
00000220: e553 60be c85c 2dbe 0617 12be 1f9e 3cbe
00000230: c0c2 c0be b3ca acbb 80e9 cdbc 9939 e43d
00000240: 435a 23be 75b2 773e 1d93 54be f621 d63d
00000250: a81c d9bd 8f7b bb3d da8c 943b aa07 26be
00000260: 9337 b53e c713 dd3c 9119 2abd cc2b 623d
00000270: e56d 98bd 2f3b bf3e 90ba 93be 7ccc 99bd
00000280: 6516 22be 03d0 a13c 809a 5b3d dd70 1a3d
00000290: f850 5abd 2c32 4d3d e9bd 963e 3f42 253d
000002a0: 4ea9 7ebd 0c45 4d3e 9459 853e 6f6c 863e
000002b0: 4375 593b 2025 c03d 178a 083d 0250 1dbd
000002c0: 9976 6fbd 5e9d b03d 46fa 163e f97b 06bc
000002d0: 4c8b b3bd abed 173e 03fb 9abc 81d0 503c
000002e0: 0e38 48be 53ad 9ebe fada 093e 689e 4bbb
000002f0: 70d6 5c3e 43c1 093e 73c8 d2bd 334b 35be
00000300: d237 cb3c 4e52 9a3d 0d84 a33c 756d 753a
00000310: 8621 af3c 7dff f3bd cd5f 8cbc 3b44 d2bd
00000320: 5315 4e3e 1cdf d3bd 6167 243e fff2 01bd
00000330: 1745 68bd 37d1 e0bc 378d 8c3c 4b39 ef3c
00000340: 9bc9 143d 7f00 96be ed30 353e 3896 143e
00000350: b8a8 863d 3f2a a4bd cf05 0cbe 3728 d6bd
00000360: 816b 4b3d 006e 593e 2135 d63e ad4a 893e
00000370: a634 da3d f1c1 94bd f545 90bd 3a9f f3bc
00000380: da37 1bbd e33a b93d 0166 c0bd 02e0 d73d
00000390: 3ac0 03bd 3805 81bc cd50 5bbd 3ebd d7be
000003a0: 80c6 8e3e 2341 42bd 2a5e 2a3e f3f1 b4bd
000003b0: a462 f6bc 24de 9a3d e521 acbd 0d8f f53b
000003c0: a2ab 3abe 69ec 333d 2ea9 a5be 244c f23c
000003d0: c75e 0c3e dd42 dc3a 9d8b 613e 55f2 d03d
000003e0: 9b36 c7be 0038 593e a7b5 263e a4c1 05be
000003f0: cab1 71bd ede8 573d 7d6f 25be 43c6 9f3e

a2c_network.actor_mlp.0.bias f4 [128]
-0.24605782 -0.28810334 0.05363605 -0.034969516 0.15889513 -0.22808474 -0.17742679 -0.040049184
-0.056475855 -0.07858519 -0.28989586 0.22336896 -0.025784712 0.10572199 -0.0858917 -0.16233955
-0.48163217 0.12138182 -0.18314031 -0.0005761375 0.11184957 -0.04293998 0.19924134 -0.11674878
-0.22302987 0.18166925 -0.39093113 0.028720016 -0.305389 0.105866775 0.026335288 0.017060407
-0.11122877 -0.10596334 0.22692409 -0.010980362 0.05116895 -0.045925107 -0.041757543 -0.30910486
0.02229086 -0.3301023 -0.09127056 0.026664369 -0.44159767 -0.062149268 -0.30017534 -0.03929097
0.14482991 0.070167445 -0.0496593 0.098458245 -0.37830263 -0.014908308 -0.08630337 -0.3133771
0.15775862 -0.04536962 -0.0074056545 0.27902243 -0.25921026 -0.17076415 0.15755956 0.004306086
-0.06857085 0.0053152363 -0.21885557 -0.08376202 -0.21829705 -0.032975458 0.07927804 -0.13010713
0.057091862 0.09765937 -0.03666933 -0.21951146 0.31400344 0.073562205 0.06654017 -0.084367365
0.16673551 0.09114711 -0.14681984 0.16086979 0.18149947 0.22278479 -0.10340193 -0.009364707
-0.006375492 0.119173326 0.13940886 0.15845849 0.0024233316 0.09420058 -0.016997121 -0.17371927
0.048673503 -0.03949271 0.14141053 0.027437963 0.17182347 -0.015738597 -0.24956381 0.06822891
0.03157167 0.18165539 0.013354812 -0.24716955 0.055749457 -0.15292181 -0.31155252 0.10424056
-0.045738302 0.23720908 -0.026185304 0.09279059 0.12692186 -0.054760072 -0.5788682 -0.24283578
0.08789885 0.009975586 -0.031794973 -0.0037335125 -0.1829256 -0.15417671 -0.0004095682 -0.1481756
00000000: 95f6 7bbe 4882 93be 7ab1 5b3d 323c 0fbd
00000010: 68b5 223e 0c8f 69be 5eaf 35be 9d0a 24bd
00000020: 3a53 67bd 46f1 a0bd 3b6d 94be d5ba 643e
00000030: 763a d3bc c584 d83d fde7 afbd 573c 26be
00000040: 7e98 f6be 0897 f83d 2289 3bbe ef07 17ba
00000050: 6311 e53d d5e1 2fbd ec05 4c3e fc19 efbd
00000060: f161 64be 8107 3a3e 2028 c8be 3d46 eb3c
00000070: f25b 9cbe aed0 d83d 1abd d73c 44c2 8b3c
00000080: e9cb e3bd 4f03 d9bd ca5e 683e fae6 33bc
00000090: 8896 513d f71b 3cbd f509 2bbd fe42 9ebe
000000a0: 529b b63c 2b03 a9be 0fec babd 3c6f da3c
000000b0: 1719 e2be 3b90 7ebd 95b0 99be 91ef 20bd
000000c0: 4b4e 143e f3b3 8f3d 8d67 4bbd 7aa4 c93d
000000d0: e2b0 c1be fa41 74bc d2bf b0bd f772 a0be
000000e0: 7a8b 213e 7fd5 39bd 22ab f2bb 07dc 8e3e
000000f0: 35b7 84be ccdc 2ebe 4b57 213e 111a 8d3b
00000100: e06e 8cbd 6f2b ae3b ad1b 60be 6c8b abbd
00000110: 4389 5fbe 4611 07bd 865c a23d ce3a 05be
00000120: 28d9 693d a301 c83d 9432 16bd 9dc7 60be
00000130: 0fc5 a03e c8a7 963d 3646 883d ccc8 acbd
00000140: b7bc 2a3e 56ab ba3d f157 16be 0dbb 243e
00000150: ffda 393e b221 643e 64c4 d3bd 6e6e 19bc
00000160: 81e9 d0bb 2511 f43d 32c1 0e3e f142 223e
00000170: c2d0 1e3b 3cec c03d 8c3d 8bbc 77e3 31be
00000180: de5d 473d 1cc3 21bd eccd 103e 94c5 e03c
00000190: 7ef2 2f3e 3bee 80bc a88d 7fbe 99bb 8b3d
000001a0: 4c51 013d df03 3a3e 24ce 5a3c 041a 7dbe
000001b0: 8b59 643d 8997 1cbe d083 9fbe 137c d53d
000001c0: 1658 3bbd f0e6 723e 9082 d6bc fe08 be3d
000001d0: cef7 013e 194c 60bd b530 14bf f1a9 78be
000001e0: 5004 b43d a470 233c 723b 02bd f2ad 74bb
000001f0: d950 3bbe 80e0 1dbe 50bb d6b9 58bb 17be

a2c_network.actor_mlp.2.weight f4 [128, 128]
-0.008607874 0.13838285 0.029915228 0.025419809 -0.057904698 0.08598329 0.020689225 0.0010687828
0.016708467 -0.16398329 0.085474975 -0.032307092 0.018487256 0.0035066863 0.09961951 0.13783354
0.05692673 -0.1281313 0.056203905 -0.06873548 0.01552014 0.000599209 0.06639735 -0.026015755
-0.11031779 0.035264753 -0.031138517 -0.006870354 -0.059650213 -0.031214211 0.08029615 -0.022652904
-0.054550573 0.07822485 -0.030066065 -0.011360211 -0.016239654 0.040296845 -0.03343468 -0.015637653
-0.041391723 -0.004383222 0.03497188 -0.030881837 0.054932207 0.008854339 0.0022612289 0.08897257
0.02272788 0.013832321 0.026399827 0.13990799 0.05865877 -0.008439191 -0.027562045 0.036582544
0.024369178 0.05697453 0.03138391 0.06301538 0.07901715 0.14215459 -0.0050667366 0.0057136444
-0.051742185 -0.0026805701 0.105973184 0.03558591 0.040088143 -0.14180014 0.044390224 -0.0024687692
0.024007553 0.04311903 -0.0064688786 -0.01443341 -0.026770482 0.07059303 0.011499405 0.07865697
0.07599644 0.10785232 0.0962936 -0.027796045 -0.059580114 0.041423105 -0.009072081 -0.0063573997
-0.09690937 -0.02437389 -0.010303294 0.031980596 0.17222513 0.042236883 0.03257814 -0.02718881
0.039984208 0.038158167 0.013772613 0.0801289 0.028455753 0.0045752316 0.07324168 -0.09075434
0.04932455 0.12591816 0.017583184 0.026770655 -0.037005447 -0.104060456 -0.0049508214 0.06193348
0.024826229 0.060486086 0.026892228 -0.057262912 0.0257244 -0.07245949 -0.05764256 -0.023260394
-0.014550775 -0.014663151 0.050057434 -0.06866504 0.07167232 -0.09095873 -0.06276056 -0.022798315
0.025816584 -0.014260319 -0.013083807 0.1976431 -0.10152669 0.052735943 -0.008136199 0.021107513
0.09335704 -0.12890759 -0.014753715 -0.35257176 -0.04065223 -0.04719226 0.09716992 0.09841821
0.02520992 -0.06030264 0.07974595 -0.2247743 -0.23656738 0.03279223 -0.35486045 0.12785634
0.062397666 -0.21221821 -0.17266348 -0.011636864 0.3674103 -0.15490817 -0.13432623 -0.083121486
-0.024182811 0.058628473 -0.35111427 -0.14548507 0.0535421 -0.082368076 -0.082231656 0.00048885134
-0.14036798 0.10229242 -0.20604146 -0.11385191 -0.14271528 0.10671799 0.015056988 -0.18887581
-0.48797286 -0.0054248287 -0.36111724 0.036073223 0.030478755 0.0864272 -0.07209502 0.06558543
-0.112406604 -0.15492587 0.13062356 -0.43545833 0.2512775 0.07731922 -0.21224608 -0.340232
-0.13476276 -0.22860545 -0.023695791 -0.055755008 0.049511433 -0.14964731 0.008762753 0.043916952
-0.24431092 -0.16141649 0.017348714 0.024037335 -0.48395187 -0.17913805 -0.02477849 0.0162683
0.08921237 0.020061025 0.20837991 -0.061378077 -0.38987878 -0.08167355 -0.26843804 0.23240736
-0.116711855 -0.23111326 -0.040034723 -0.2945594 -0.18719949 -0.187844 -0.38051546 -0.1197086
-0.17677537 -0.21940604 -0.02180066 0.035771668 -0.28871822 -0.10956713 0.0029428545 -0.055854756
-0.048533183 0.009719247 -0.09753441 -0.16873293 0.16173261 -0.101365656 0.20124525 0.12940255
-0.06416407 -0.09697038 -0.30104765 -0.23908359 -0.25632882 -0.25563946 0.13896354 0.091521084
-0.10647483 -0.105662294 -0.15250365 0.015963111 -0.080673 -0.25327873 -0.22728746 0.0934362
00000000: 0a08 0dbc 3cb4 0d3e c810 f53c 343d d03c
00000010: 7a2d 6dbd 0218 b03d 737c a93c 6616 8c3a
00000020: 32e0 883c 3ceb 27be 810d af3d 7154 04bd
00000030: 9672 973c 6fd0 653b 5005 cc3d 3c24 0d3e
00000040: 012c 693d da34 03be 1136 663d 30c5 8cbd
00000050: 2f48 7e3c 3c14 1d3a 55fb 873d fe1e d5bc
00000060: 4bee e1bd c671 103d 3416 ffbc b520 e1bb
00000070: c853 74bd f2b4 ffbc 4f72 a43d 9592 b9bc
00000080: 6c70 5fbd 5a34 a03d 1c4d f6bc 2e20 3abc
00000090: 0609 85bc 4e0e 253d cef2 08bd 891a 80bc
000000a0: 5e8a 29bd 22a1 8fbb ad3e 0f3d e8fb fcbc
000000b0: 9800 613d ca11 113c 2031 143b 4037 b63d
000000c0: d22f ba3c f6a0 623c 7344 d83c 0a44 0f3e
000000d0: 2e44 703d 8844 0abc ccc9 e1bc 94d7 153d
000000e0: dfa1 c73c 205e 693d 6a8c 003d 350e 813d
000000f0: bed3 a13d f990 113e de06 a6bb 8639 bb3b
00000100: 9def 53bd 81ac 2fbb 7808 d93d 88c2 113d
00000110: 7733 243d 0e34 11be 86d2 353d 13cb 21bb
00000120: 7dab c43c 949d 303d e3f8 d3bb 1c7a 6cbc
00000130: c54d dbbc 1493 903d 0068 3c3c e816 a13d
00000140: 06a4 9b3d ade1 dc3d 9435 c53d 88b4 e3bc
00000150: 470a 74bd 46ab 293d 11a3 14bc bc51 d0bb
00000160: 6b78 c6bd c1ab c7bc 26cf 28bc 16fe 023d
00000170: c95b 303e 9500 2d3d a870 053d 11bb debc
00000180: 7bc6 233d bd4b 1c3d 87a6 613c 9f1a a43d
00000190: 0a1c e93c d3eb 953b bcff 953d 69dd b9bd
000001a0: 8a08 4a3d b1f0 003e 9c0a 903c 224e db3c
000001b0: 0693 17bd a61d d5bd 803a a2bb f6ad 7d3d
000001c0: 6060 cb3c 42c0 773d 174d dc3c 848c 6abd
000001d0: fabb d23c a465 94bd 9b1a 6cbd 958c bebc
000001e0: 6066 6ebc b73d 70bc 0609 4d3d 42a0 8cbd
000001f0: f0c8 923d 9248 babd 9c88 80bd 88c3 babc
00000200: 4d7d d33c 1da4 69bc 775d 56bc f462 4a3e
00000210: 3aed cfbd a501 583d b14d 05bc aae9 ac3c
00000220: fa31 bf3d 5a00 04be 91b9 71bc 4984 b4be
00000230: f482 26bd ac4c 41bd 0601 c73d 7d8f c93d
00000240: 0985 ce3c e7ff 76bd d851 a33d 3c2b 66be
00000250: b83e 72be 2551 063d 45b0 b5be c6ec 023e
00000260: b294 7f3d bb4f 59be b2ce 30be 8ca8 3ebc
00000270: 341d bc3e 3fa0 1ebe d18c 09be 993b aabd
00000280: 081b c6bc 6924 703d 40c5 b3be 0afa 14be
00000290: f64e 5b3d 98b0 a8bd 1269 a8bd 4226 003a
000002a0: a0bc 0fbe b07e d13d 88fc 52be 312b e9bd
000002b0: f423 12be f68e da3d 96b1 763c a968 41be
000002c0: 94d7 f9be c3c2 b1bb 5ce4 b8be 84c1 133d
000002d0: 95ae f93c be00 b13d 8ea6 93bd a751 863d
000002e0: 6f35 e6bd e3a4 1ebe 2fc2 053e 65f4 debe
000002f0: 72a7 803e 8a59 9e3d 0957 59be e432 aebe
00000300: 40ff 09be 8c17 6abe ad1d c2bc 5d5f 64bd
00000310: 80cc 4a3d 253d 19be a691 0f3c 43e2 333d
00000320: a42c 7abe 5d4a 25be e41e 8e3c f2e9 c43c
00000330: 8ac8 f7be f76f 37be 43fc cabc 1945 853c
00000340: fab4 b63d 0557 a43c 8b61 553e 9467 7bbd
00000350: 319e c7be 7644 a7bd b670 89be 32fc 6d3e
00000360: a006 efbd f4a8 6cbe 73fb 23bd 7dd0 96be
00000370: 39b1 3fbe 2d5a 40be ecd2 c2be c829 f5bd
00000380: 9a04 35be faab 60be 4c97 b2bc 5085 123d
00000390: e0d2 93be bb64 e0bd e8dc 403b f5c7 64bd
000003a0: bbca 46bd 7a3d 1f3c 1fc0 c7bd 53c8 2cbe
000003b0: 3c9d 253e cc98 cfbd 3c13 4e3e 1a82 043e
000003c0: 7468 83bd 6898 c6bd eb22 9abe 54d2 74be
000003d0: 883d 83be 2de3 82be 754c 0e3e 686f bb3d
000003e0: 7a0f dabd 7965 d8bd eb29 1cbe 12c5 823c
000003f0: e337 a5bd c0ad 81be 0bbe 68be 7a5b bf3d

a2c_network.actor_mlp.2.bias f4 [128]
0.031423137 -0.42596287 0.00023788052 0.05839759 -0.032585558 -0.10878676 -0.10200973 -0.13849303
-0.062541045 0.014773938 0.1540929 0.019955589 0.057854813 -0.15241598 -0.05637521 0.100957826
-0.04704852 -0.08746198 -0.0032977168 -0.22991237 -0.21174377 -0.044826705 -0.028292848 -0.037802186
0.0567485 0.02468861 0.07215044 0.060157534 -0.06530893 -0.017650148 -0.2784855 -0.045535114
-0.4554673 -0.16358703 0.09422556 0.10486187 -0.05145805 0.04848491 -0.0651597 -0.04405154
-0.06876192 -0.16625735 0.026602972 0.06800837 0.08989682 -0.06857665 0.022044348 -0.068023846
-0.034803875 -0.08343867 -0.2616098 -0.04068059 0.07096627 -0.046517782 -0.04850896 -0.057037115
-0.067243524 -0.28365317 -0.24036661 0.03826989 -0.00924052 -0.52205956 -0.3334581 -0.001345168
0.13922808 -0.19823474 0.08537478 -0.08960484 0.02134404 0.040827524 -0.06089981 -0.04371394
-0.028431196 0.029103793 -0.18774402 -0.03994577 -0.12997293 -0.07500528 0.055023752 -0.18590055
-0.05081937 -0.14789638 0.003506928 -0.07480169 -0.13623564 -0.17303422 0.063069925 -0.2825477
-0.32281643 0.09542849 -0.0015211435 -0.041315313 -0.24684782 0.03841754 -0.1561981 -0.14579336
0.059339173 0.049527146 0.01840182 0.031123206 -0.12942038 -0.02831548 0.13005961 -0.15038145
-0.29242507 0.023605669 0.016162971 0.0015534115 -0.07004921 0.066195436 0.08862165 -0.23234117
-0.38236013 0.054528236 -0.07815914 0.014728987 -0.02146945 -0.034301285 -0.018745251 -0.31938297
-0.4146565 0.050675523 -0.082081884 -0.11923405 -0.10242612 0.0655332 -0.05392935 -0.23054262
00000000: 8cb5 003d ce17 dabe 916f 7939 5032 6f3d
00000010: 6f78 05bd 98cb debd 7aea d0bd 1ed1 0dbe
00000020: 8515 80bd 630e 723c 87ca 1d3e e779 a33c
00000030: 2bf9 6c3d ef12 1cbe b1e9 66bd fac2 ce3d
00000040: f3b5 40bd 441f b3bd 821e 58bb 266e 6bbe
00000050: 5cd3 58be 359c 37bd 67c6 e7bc 77d6 1abd
00000060: 1d71 683d c53f ca3c 9cc3 933d bf67 763d
00000070: b0c0 85bd 0b97 90bc a795 8ebe 0783 3abd
00000080: 0333 e9be 5c83 27be 55f9 c03d d2c1 d63d
00000090: adc5 52bd 1d98 463d 7372 85bd 636f 34bd
000000a0: 0dd3 8cbd 5e3f 2abe 7aee d93c f947 8b3d
000000b0: d31b b83d ea71 8cbd 5996 b43c 1650 8bbd
000000c0: 828e 0ebd e5e1 aabd b8f1 85be b1a0 26bd
000000d0: c456 913d 6e89 3ebd 55b1 46bd c09f 69bd
000000e0: f9b6 89bd fd3a 91be aa22 76be e3c0 1c3d
000000f0: 8d65 17bc b2a5 05bf 05bb aabe 5950 b0ba
00000100: ce91 0e3e 0cfe 4abe f9d8 ae3d be82 b7bd
00000110: b2d9 ae3c c33a 273d 1472 79bd 630d 33bd
00000120: 8ae8 e8bc 146b ee3c f83f 40be 2d9e 23bd
00000130: a017 05be 5e9c 99bd 9660 613d b75c 3ebe
00000140: f927 50bd 2672 17be 7dd4 653b a131 99bd
00000150: 5b81 0bbe e22f 31be ce2a 813d 18aa 90be
00000160: 3248 a5be 0370 c33d 1b61 c7ba 3f3a 29bd
00000170: adc5 7cbe b65b 1d3d 65f2 1fbe db4a 15be
00000180: a20d 733d fadc 4a3d 6abf 963c 18f6 fe3c
00000190: c786 04be def5 e7bc 592e 053e 98fd 19be
000001a0: bdb8 95be ad60 c13c 3568 843c d79b cb3a
000001b0: f675 8fbd 7991 873d 457f b53d d8ea 6dbe
000001c0: b5c4 c3be 0059 5f3d e611 a0bd d951 713c
000001d0: b3e0 afbc 817f 0cbd a48f 99bc 2a86 a3be
000001e0: db4d d4be 2391 4f3d 8c1a a8bd fb30 f4bd
000001f0: c9c4 d1bd 4536 863d 06e5 5cbd 5d13 6cbe

a2c_network.value.weight f4 [1, 128]
-0.0068428675 0.0312806 -0.0010124925 -0.008272096 0.0048167543 -0.010329917 -0.13789468 0.03204551
0.04850809 0.022829432 -0.005740769 0.020765826 0.002849047 -0.028884245 0.009082577 -0.1916725
0.0046417103 0.006345595 0.060213566 -0.26037845 0.12370057 0.038094655 -0.012979996 0.0058332044
0.008507589 0.009226539 -0.012121229 -0.0037280845 -0.22058491 -0.002133576 0.012274776 0.010801979
-0.035733815 0.044251956 -0.0008584114 0.008426892 0.028496789 0.01409116 0.009401214 0.018639198
0.017267616 -0.086006515 0.019303098 -0.010296371 -0.029687727 -0.02759365 -0.009094678 0.091916405
-0.0005807834 0.011512247 -0.1394371 0.007268827 0.028103014 -0.0066334894 0.00818473 0.0032796124
-0.023388807 -0.11997664 -0.11370348 0.015705014 0.008994958 -0.2251489 -0.15471831 0.0076755467
-0.026316438 0.0075566247 0.012848149 -0.0011355156 0.04181232 -0.017420001 0.013543387 0.09430298
-0.013993152 -0.0023193813 -0.12183958 0.02085633 0.011578682 0.010631441 -0.01645796 0.0147149945
0.0014937867 0.023102703 -0.0062397346 0.0076533128 0.002111546 0.026445474 -0.0035580243 -0.12930271
-0.0044252384 0.011666221 0.000104622326 0.003566803 -0.0051612495 0.010675067 0.0007544848 0.01858868
-0.077281125 0.008935685 0.02478141 -0.010966433 0.009512803 -0.031337615 -0.0220498 -0.14977323
-0.0116905 0.02312004 0.00053276616 -0.013205753 0.0027830023 0.046990752 -0.0047201896 0.006413731
-0.14808562 -0.0015763904 0.009022133 0.002569004 0.0015146793 0.011718045 0.006882987 -0.1703769
0.00060705515 -0.0019204685 -0.029220155 0.0069725476 -0.07605837 0.0019217521 -0.0017195382 -0.13333882
00000000: 223a e0bb 1620 003d 9cb5 84ba af87 07bc
00000010: ddd5 9d3b d03e 29bc 4334 0dbe 2742 033d
00000020: 6bb0 463d ca04 bb3c 101d bcbb 181d aa3c
00000030: 14b7 3a3b a79e ecbc 17cf 143c cc45 44be
00000040: 7d19 983b b5ee cf3b 80a2 763d 5350 85be
00000050: b956 fd3d 2409 1c3d 0daa 54bc 7724 bf3b
00000060: 6a63 0b3c e92a 173c 1f98 46bc e152 74bb
00000070: 03e1 61be 77d3 0bbb 241c 493c c9fa 303c
00000080: 9f5d 12bd 8a41 353d 0407 61ba f210 0a3c
00000090: 1972 e93c 9cde 663c 8d07 1a3c 3bb1 983c
000000a0: d174 8d3c 2f24 b0bd 8821 9e3c 1cb2 28bc
000000b0: ad33 f3bc 140c e2bc d801 15bc ab3e bc3d
000000c0: b73f 18ba dd9d 3c3c 99c8 0ebe 572f ee3b
000000d0: 4b38 e63c be5d d9bb 3f19 063c c4ee 563b
000000e0: e299 bfbc 50b6 f5bd 5fdd e8bd cda7 803c
000000f0: 975f 133c 6f8d 66be 7a6e 1ebe 2783 fb3b
00000100: 9295 d7bc 909d f73b 0b81 523c 95d5 94ba
00000110: 6543 2b3d 64b4 8ebc 15e5 5d3c ec21 c13d
00000120: 8943 65bc c300 18bb 0887 f9bd e5da aa3c
00000130: 83b4 3d3c 7f2f 2e3c d8d2 86bc 2917 713c
00000140: 2acb c33a e141 bd3c b076 ccbb a4c8 fa3b
00000150: dd61 0a3b 2ea4 d83c be2d 69bb ee67 04be
00000160: 9701 91bb ad23 3f3c af68 db38 06c1 693b
00000170: b31f a9bb 7ae6 2e3c 9ec8 453a 4a47 983c
00000180: 9145 9ebd fb66 123c 6202 cb3c 8eac 33bc
00000190: 96db 1b3c df5b 00bd c8a1 b4bc 275e 19be
000001a0: 8389 3fbc 3d66 bd3c 55a9 0b3a f15c 58bc
000001b0: 0863 363b 6079 403d d2ab 9abb 462a d23b
000001c0: c2a3 17be e29e ceba 92d1 133c bc5c 283b
000001d0: 3488 c63a 0bfd 3f3c ae8a e13b 4877 2ebe
000001e0: c822 1f3a 3bb8 fbba 1b5f efbc f879 e43b
000001f0: 7ec4 9bbd 4de3 fb3a 2162 e1ba f989 08be

a2c_network.mu.weight f4 [3, 128]
0.0034074 0.09312889 0.005652566 -0.0070971744 -0.0075974897 -0.011174405 -0.04195873 0.013720284
0.015619454 0.0038438945 -0.007320336 0.0029282372 -0.0013872555 -0.013487977 -0.00052394305 -0.12822536
-0.004041723 -0.004566653 -0.009602313 0.12150358 -0.01232113 -0.0043919086 -0.00027424726 -0.008475503
-0.01040334 0.012494248 -0.0014774208 -0.002553104 0.0030519573 -0.006298181 -0.083009005 0.008992698
0.040694486 0.04569337 -0.0054248385 0.0013004962 0.16205491 0.0014431378 -0.0042994614 0.024718571
0.0047694873 -0.12386267 -0.0054261344 -0.0095952535 -0.003910292 -0.22065029 -0.015053696 0.034076408
-0.005418127 0.0066815484 0.067127235 -0.004729357 0.0009665456 0.0013049272 0.0068089846 -0.0064370707
0.001554778 0.04734383 0.1448517 0.010701922 0.0085512735 -0.06592078 -0.020223418 -0.010951815
-0.0031021277 -0.14758423 0.0032878208 0.0109472 0.121604376 -0.006009205 0.008046279 -0.007866082
0.006450931 -0.01496236 0.005495186 -0.0030265807 -0.0021978433 -0.0066315243 -0.0034632408 0.0113420645
0.001882275 0.0094075175 -0.015742715 -0.016045067 0.0029134105 -0.05328101 0.0014359471 0.050331578
0.043235376 0.0029866905 -0.005921866 0.009015264 -0.0911806 -0.0025136669 0.0007916891 0.003643689
-0.02304017 -0.0012988667 0.005938028 -0.004300271 -0.0032318432 0.0035618662 -0.022073956 0.022937816
0.14110203 0.00096903334 0.006181297 -0.022717774 0.0018041433 -0.0072821127 -0.011293352 -0.0457692
0.031760942 -0.004662588 0.010836256 -0.0018426238 -0.0066795503 0.008515258 0.009092274 -0.057238903
-0.11185504 -0.0017296785 0.016254209 -0.002046327 0.17115153 -0.0047014477 0.0040391083 -0.0003983075
0.002277004 -0.044545297 -0.0042605177 0.00047502172 -0.005345617 0.001751036 0.009290272 0.0011121669
0.037450876 0.0007590558 0.0021220709 -0.008256655 -0.0005755458 -0.14756176 -0.0013455228 0.062349547
0.004238825 0.0014803252 -0.0088368105 0.041964944 0.01012687 0.0004677143 0.002055661 -0.0008757753
-9.2930415e-05 -0.0070414683 -0.0045949677 0.001184109 0.01717685 0.001123647 0.10964859 -0.011899902
0.09010479 -0.006080772 -0.00093835103 -0.00013893661 0.048526917 -0.0031051687 0.00074930565 -0.011400101
-0.0005794278 0.002482962 -0.0011365277 0.0038482998 -0.0029445707 0.0024397192 0.0015216221 -0.0045144013
0.00020326623 0.0012890596 0.07617365 2.1534019e-05 -0.0006841913 0.0028451607 0.0062478804 0.00045259405
-0.0035781136 0.13376068 0.03224546 0.0017977261 -0.004568544 -0.040756267 -0.015411461 0.0058179465
-0.00073952624 -0.031186145 0.0013207272 -0.0046604136 -0.004126441 6.0283197e-05 0.0017600076 0.015127613
-0.0058435057 -0.0017921379 0.10722715 0.00835997 -0.00023585827 0.0010289557 0.0003135612 -0.007599482
0.00094099384 -0.002142887 0.0037330484 0.0055597397 -0.0031156964 0.0039496566 0.0021884567 -0.007830675
-0.18042879 -0.001679354 -0.0032565815 -0.00080373907 0.08875315 -1.7598e-05 -0.003851547 0.0008987624
-0.03341441 -0.005195924 -0.0045059333 -0.00089850766 0.0016092793 -0.0064609814 -6.098541e-05 -0.022047319
-0.009073359 -0.0020439948 -0.0058362344 -0.0026154073 0.0009525945 0.069392174 -0.0036949513 0.08930783
-0.0809927 -0.0013778663 -0.004386982 0.0004722547 -0.0021354794 -0.003940559 -0.0018609335 -0.028885588
0.12023452 -0.0011274017 -0.043875504 0.0012478549 -0.036592312 -0.0061532273 -0.0037329162 -0.05177823
00000000: b04e 5f3b 5cba be3d 2939 b93b 6a8f e8bb
00000010: 5df4 f8bb da14 37bc ebdc 2bbd 0bcb 603c
00000020: bde8 7f3c d9e9 7b3b 6edf efbb abe7 3f3b
00000030: 92d4 b5ba adfc 5cbc 3959 09ba 824d 03be
00000040: 6e70 84bb dda3 95bb 0553 1dbc ded6 f83d
00000050: 91de 49bc 00ea 8fbb d8c8 8fb9 d6dc 0abc
00000060: c572 2abc adb4 4c3c 04a6 c1ba fa51 27bb
00000070: 5903 483b f960 cebb a000 aabd 1c56 133c
00000080: 43af 263d f928 3b3d d8c2 b1bb 6975 aa3a
00000090: b9f1 253e ab27 bd3a 7fe2 8cbb 9a7e ca3c
000000a0: 5c49 9c3b b6ab fdbd b7cd b1bb 6935 1dbc
000000b0: e821 80bb 26f2 61be c7a3 76bc b493 0b3d
000000c0: 8b8a b1bb e4f0 da3b 017a 893d b9f8 9abb
000000d0: c75f 7d3a 170a ab3a e71d df3b 10ee d2bb
000000e0: b1c9 cb3a 9beb 413d 0154 143e 1d57 2f3c
000000f0: a41a 0c3c 7901 87bd 95ab a5bc 3e6f 33bc
00000100: 114d 4bbb 5220 17be 7b78 573b e25b 333c
00000110: b70b f93d dde8 c4bb 8ad4 033c bde0 00bc
00000120: 5562 d33b b024 75bc f610 b43b 9959 46bb
00000130: b109 10bb 424d d9bb 8af7 62bb 11d4 393c
00000140: abb6 f63a fd21 1a3c def6 80bc f270 83bc
00000150: ebee 3e3b 303d 5abd 6436 bc3a 7c28 4e3d
00000160: 9417 313d 5abc 433b 360c c2bb c2b4 133c
00000170: e5bc babd 55bc 24bb 5b89 4f3a f5ca 6e3b
00000180: bdbe bcbc bc3e aaba ca93 c23b 4ae9 8cbb
00000190: 55cd 53bb 336e 693b 71d4 b4bc 16e8 bb3c
000001a0: 0d7d 103e ba06 7e3a 7a8c ca3b a01a babc
000001b0: 0179 ec3a ca9e eebb c007 39bc 7c78 3bbd
000001c0: c317 023d 9fc8 98bb 8d8a 313c 3284 f1ba
000001d0: 21e0 dabb 9583 0b3c c3f7 143c 5773 6abd
000001e0: 4114 e5bd 61b6 e2ba 8c27 853c ac1b 06bb
000001f0: 5942 2f3e 9a0e 9abb 7f5a 843b edd3 d0b9
00000200: ca39 153b 2175 36bd d09b 8bbb 560c f939
00000210: 492a afbb 0583 e53a 3a36 183c 21c6 913a
00000220: 1766 193d 5ffb 463a 7112 0b3b ec46 07bc
00000230: 3ae0 16ba 6e1a 17be 415c b0ba 3d62 7f3d
00000240: d7e5 8a3b 7907 c23a 45c8 10bc 6fe3 2b3d
00000250: 2ceb 253c 8d37 f539 45b8 063b 4994 65ba
00000260: a3e3 c2b8 1ebc e6bb 6291 96bb 1b34 9b3a
00000270: 77b6 8c3c 5647 933a 718f e03d cef7 42bc
00000280: dc88 b83d 3641 c7bb acfb 75ba 83af 11b9
00000290: 29c4 463d 1680 4bbb 0d6d 443a 7dc7 3abc
000002a0: bee4 17ba 31b9 223b 8bf7 94ba c233 7c3b
000002b0: b3f9 40bb b2e3 1f3b 2a71 c73a 8bed 93bb
000002c0: dd23 5539 aaf5 a83a ee00 9c3d f4a3 b437
000002d0: 4d5b 33ba e075 3a3b 05bb cc3b 254a ed39
000002e0: c97e 6abb 8ff8 083e d113 043d aea1 eb3a
000002f0: bab3 95bb 0bf0 26bd 5a80 7cbc 79a4 be3b
00000300: c4dc 41ba 167a ffbc 401c ad3a 62b6 98bb
00000310: 1937 87bb 97d8 7c38 0eb0 e63a cfd9 773c
00000320: e17a bfbb 2be6 eaba e899 db3d 41f8 083c
00000330: b950 77b9 06de 863a 7965 a439 1305 f9bb
00000340: 07ad 763a ae6f 0cbb 29a6 743b 7a2e b63b
00000350: b630 4cbb 1f6c 813b 366c 0f3b 3b4c 00bc
00000360: 53c2 38be c51d dcba 5f6c 55bb 04b2 52ba
00000370: 36c4 b53d 6b9f 93b7 3c6a 7cbb ec9a 6b3a
00000380: 8cdd 08bd 9242 aabb 82a6 93bb d489 6bba
00000390: 74ee d23a a4b6 d3bb 96ca 7fb8 949c b4bc
000003a0: 6da8 14bc 8bf4 05bb e23d bfbb 4167 2bbb
000003b0: 89b7 793a 7c1d 8e3d ff26 72bb 06e7 b63d
000003c0: 80df a5bd 8599 b4ba acc0 8fbb f498 f739
000003d0: 66f3 0bbb ce1f 81bb 91ea f3ba 78a1 ecbc
000003e0: 843d f63d 53c5 93ba cdb6 33bd 108f a33a
000003f0: d2e1 15bd 03a1 c9bb f1a3 74bb 6915 54bd

a2c_network.mu.bias f4 [3]
0.04850496 0.02827795 0.14812103
00000000: 23ad 463d 29a7 e73c 0aad 173e

exp_avg f4 [3]
0.0015797459 0.0013509117 0.0005745223
00000000: 7a0f cf3a 1311 b13a 8a9b 163a

exp_avg_sq f4 [3]
4.4495737e-05 4.5083452e-05 2.691793e-05
00000000: efa0 3a38 fd17 3d38 d1cd e137

exp_avg f4 [128, 15]
0.0001648435 0.0011918736 -0.0018637159 0.00037312286 -0.00056722725 -8.33014e-06 0.00033173745 0.0010995512
0.0015091777 5.744681e-05 0.0006358594 0.0018414324 -0.00033141093 -0.00081207254 -3.3377302e-05 -0.0009157349
-0.001518816 0.00020179094 -0.00087560114 -7.170009e-05 -0.00041242107 0.0024621396 0.0015617716 -0.00091070577
0.0018521075 0.0011337803 -0.0019252253 0.0014680185 0.0007343025 0.0004174098 0.00018506953 -1.2246211e-05
-0.0005670472 -0.00012537623 -0.00027088574 0.00012417937 0.0002442535 0.00016703345 -0.00051748165 -0.0004438693
-0.00047611207 -0.000884387 -0.0007808511 4.904092e-06 -0.0005047263 -2.2916567e-05 0.00034202228 0.001211101
-0.0015807607 -0.00035291174 -0.00060331944 -7.900192e-05 -0.0010340079 -0.0020725478 0.0007376287 0.00042324665
-0.0026477817 3.4474047e-05 -0.00057860714 0.00084996177 0.0009587532 5.3337917e-05 3.9751423e-05 -0.0004989999
0.00017354445 0.00030689465 -0.0013237671 -0.0028594946 -0.0011529161 -0.001071463 -0.002247869 -0.0010809238
-0.00056772534 0.00010307454 -0.00034520528 -0.00084807235 -0.00073960325 -0.00045101723 -0.00061311637 0.00021545422
-0.0005348657 0.0021484245 0.001560449 0.00066580775 0.0015696877 0.00088069466 -0.0006056395 0.00014277447
0.00037399575 -6.799281e-05 -7.160548e-05 -8.033778e-05 -0.00020429878 0.00031538086 0.0003586726 -0.0002621391
0.0009922717 0.00026209294 -3.7821814e-05 0.0013725542 0.0009337497 -0.0005454168 0.00048182864 3.4639455e-05
0.0005638619 0.0013107394 0.0007966382 -0.00079000264 0.0006688684 -0.0002206796 0.0013409503 -0.0032397686
-0.0045378744 -0.0018282268 -0.0036446173 -0.0053433077 -0.0023524694 -0.00040379394 0.00039596204 -0.00051084836
-0.0010687384 -0.00051286217 0.0013394222 -0.0020662707 -0.00013358505 -0.0011083431 0.0026114774 0.0020353282
-0.0020424172 0.0029316735 0.0029549447 -0.0033473482 0.002028484 -0.00016735907 0.0009447429 0.0013700442
0.00020443065 0.0004747607 0.0019581295 1.850011e-05 0.0002208973 4.7537065e-05 -0.0011097374 0.00093412766
-0.00068720995 -0.0012730397 0.0002321966 -0.00013439723 0.00018968526 0.00020518823 0.00067881675 -0.0012036996
0.00034636457 -0.0005809837 -0.0004713817 0.0010188133 0.0001661258 -0.0022595394 -0.0010743757 -0.00021237055
-0.0035404167 -0.0044423062 0.0013299781 0.0007202452 -0.00037215796 -0.0011056776 3.945421e-05 6.022328e-05
-0.0016702294 -0.0005838661 -0.0010382596 0.0011256058 0.0023995568 -0.00012855876 0.0011155498 0.002618034
0.0023570955 -0.00079889427 -0.0005972383 -0.00024161405 -0.00066121307 -6.3243715e-05 -0.0008301203 0.0006066339
-0.00025886873 -0.00014055154 0.0015918708 0.002784922 0.001275413 0.00043689494 0.0016014555 0.0003188871
-0.000113381284 -0.00011522645 -6.49128e-05 -0.00065184035 0.00050424924 -0.0011925116 -0.000669895 7.7831275e-05
-8.925126e-05 0.00011851844 0.0019337654 0.00017394946 0.0012537644 0.0021533298 0.0026133647 -0.0003817319
-0.00042763187 0.0004893605 -0.0012547963 0.00072366284 -0.002112035 -5.047843e-05 4.6297864e-05 -0.00014419817
0.0005860596 0.0029263413 0.0006558778 0.0003188369 0.0020348104 0.00114456 0.0006349033 -0.00013139418
-0.000110809 0.00058648566 -0.00041371185 -0.0009506197 0.0002598428 0.00038506542 0.0016170704 -0.0020324546
-0.002210277 0.002867576 -0.0017257931 -0.0040583457 -0.00040103868 0.00021434 -3.695275e-05 -0.0014445628
-0.00031019773 -0.0011326326 -0.00058393 0.0002879658 -5.9955677e-05 7.223037e-05 0.0015350657 -0.0009898129
-6.404214e-06 0.0007691127 -0.0020629375 -0.0045378697 0.0005139648 0.0010545126 -0.0004415739 0.00041607095
00000000: d7d9 2c39 a438 9c3a ee47 f4ba b49f c339
00000010: fab1 14ba aec1 0bb7 0ced ad39 d11e 903a
00000020: 9acf c53a 0bf3 7038 cdaf 263a 385c f13a
00000030: 39c1 adb9 44e1 54ba 9bfe 0bb8 ee0d 70ba
00000040: 0213 c7ba d897 5339 9988 65ba b15d 96b8
00000050: 383a d8b9 d95b 213b 5cb4 cc3a 6ebc 6eba
00000060: 6ac2 f23a 5b9b 943a d757 fcba 876a c03a
00000070: 357e 403a ccd7 da39 390f 4239 1375 4db7
00000080: e5a5 14ba 6d77 03b9 ab05 8eb9 2536 0239
00000090: 260f 8039 b325 2f39 9ba7 07ba 21b7 e8b9
000000a0: ae9e f9b9 35d6 67ba 08b2 4cba d48d a436
000000b0: 9c4f 04ba f43c c0b7 7451 b339 cebd 9e3a
000000c0: 8731 cfba 0307 b9b9 1528 1eba d5ad a5b8
000000d0: 8c87 87ba 95d3 07bb 6d5d 413a 34e7 dd39
000000e0: 6886 2dbb 3a98 1038 abad 17ba f8cf 5e3a
000000f0: d754 7b3a 27b7 5f38 c4ba 2638 51cf 02ba
00000100: 7cf9 3539 b4e6 a039 4182 adba 5c66 3bbb
00000110: 721d 97ba 5570 8cba fc50 13bb c9ad 8dba
00000120: 67d3 14ba b929 d838 abfc b4b9 2c51 5eba
00000130: efe1 41ba 8276 ecb9 8bb9 20ba 8deb 6139
00000140: 3b36 0cba 95cc 0c3b fb87 cc3a 9a89 2e3a
00000150: fbbd cd3a 6bde 663a c7c3 1eba bbb5 1539
00000160: dc14 c439 5d97 8eb8 e62a 96b8 047b a8b8
00000170: 0939 56b9 b459 a539 390c bc39 b76f 89b9
00000180: 1d0f 823a 8569 8939 dda2 1eb8 47e7 b33a
00000190: e2c6 743a 4dfa 0eba f29d fc39 d549 1138
000001a0: 22d0 133a 1ecd ab3a 7cd5 503a 2e18 4fba
000001b0: 0057 2f3a 3b66 67b9 d3c2 af3a 4c52 54bb
000001c0: 73b2 94bb 1da1 efba 88da 6ebb ea16 afbb
000001d0: e32b 1abb 4eb4 d3b9 2099 cf39 74ea 05ba
000001e0: e914 8cba 9971 06ba 8d8f af3a 456a 07bb
000001f0: f712 0cb9 d345 91ba 5225 2b3b 2463 053b
00000200: 13da 05bb 5221 403b bfa7 413b 2f5f 5bbb
00000210: 50f0 043b 1c7d 2fb9 9fa8 773a 0e93 b33a
00000220: 6f5c 5639 4de9 f839 f653 003b af30 9b37
00000230: aba0 6739 8962 4738 9c74 91ba 3fe0 743a
00000240: e125 34ba 20dc a6ba cd79 7339 fbec 0cb9
00000250: 40e6 4639 cc27 5739 9ff2 313a 75c5 9dba
00000260: 4498 b539 284d 18ba c823 f7b9 b489 853a
00000270: 0e32 2e39 c814 14bb 11d2 8cba c9af 5eb9
00000280: 5606 68bb c490 91bb a952 ae3a d6ce 3c3a
00000290: 321e c3b9 62ec 90ba a37b 2538 4198 7c38
000002a0: 99eb daba 970e 19ba 3616 88ba 1089 933a
000002b0: e241 1d3b bbcd 06b9 a437 923a 5293 2b3b
000002c0: 8079 1a3b e36c 51ba fc8f 1cba c759 7db9
000002d0: 4255 2dba b6a1 84b8 6e9c 59ba 8306 1f3a
000002e0: c6b8 87b9 0461 13b9 52a6 d03a 3d83 363b
000002f0: c22b a73a 0c0f e539 eee7 d13a 4d30 a739
00000300: 1dc7 edb8 bba5 f1b8 cb21 88b8 44e0 2aba
00000310: 982f 043a 0d4e 9cba e49b 2fba 5939 a338
00000320: 682c bbb8 1a8d f838 6676 fd3a 3466 3639
00000330: 5a55 a43a e11e 0d3b fc44 2b3b 3023 c8b9
00000340: c733 e0b9 6d48 003a fa77 a4ba 31b4 3d3a
00000350: 116a 0abb cdb8 53b8 f42f 4238 e733 17b9
00000360: cba1 193a dcc7 3f3b 37ef 2b3a 9029 a739
00000370: 745a 053b 1005 963a a46f 263a dbc6 09b9
00000380: 2162 e8b8 63be 193a 77e7 d8b9 0233 79ba
00000390: 833b 8839 9be2 c939 e1f3 d33a ee32 05bb
000003a0: 4bda 10bb f1ed 3b3b 0234 e2ba dffb 84bb
000003b0: 8042 d2b9 75c0 6039 b7fd 1ab8 7c57 bdba
000003c0: 09a2 a2b9 d874 94ba e112 19ba 1efa 9639
000003d0: eb78 7bb8 627a 9738 4234 c93a 9cbc 81ba
000003e0: c8e3 d6b6 489e 493a 5932 07bb 69b2 94bb
000003f0: 98bb 063a 9237 8a3a 0c83 e7b9 1924 da39

exp_avg_sq f4 [128, 15]
1.2319495e-05 2.3838793e-05 8.2342685e-06 3.0793892e-06 4.444338e-06 3.4659192e-06 2.057211e-05 1.3929638e-05
1.5728765e-05 2.4790097e-05 1.3889161e-05 1.5448319e-05 4.7104186e-06 3.7345148e-06 1.3176297e-06 2.4302619e-05
1.460017e-05 5.3553117e-06 2.9022433e-06 2.2472857e-06 2.177312e-06 2.1452799e-05 2.8789782e-05 1.6345339e-05
2.6258087e-05 2.9548144e-05 2.1002397e-05 6.1991414e-06 2.956533e-06 1.7773508e-06 3.7444706e-06 6.2244176e-06
1.573758e-06 1.2085934e-06 1.1784068e-06 1.0487701e-06 6.020216e-06 6.2086397e-06 4.443067e-06 7.130493e-06
5.829524e-06 5.6173185e-06 1.443922e-06 1.0264772e-06 4.3457277e-07 1.3108207e-05 1.1717636e-05 1.7283277e-05
4.1035323e-06 2.1097728e-06 2.9261887e-06 1.3967264e-05 1.7794671e-05 1.3250552e-05 1.5290903e-05 1.7477485e-05
1.47371875e-05 3.3563674e-06 1.6483439e-06 1.0571234e-06 2.513068e-05 1.9750754e-05 3.886456e-06 1.945475e-06
1.6444917e-06 1.5009342e-06 2.2329103e-05 2.3695937e-05 1.3161379e-05 2.7585129e-05 2.3960447e-05 1.6974886e-05
4.3263985e-06 1.6593829e-06 1.0645921e-06 9.395316e-06 9.493731e-06 2.8251734e-06 3.243262e-06 2.5615316e-06
2.0086618e-06 1.3595405e-05 1.1376783e-05 5.162078e-06 1.6542668e-05 1.2301658e-05 6.9400458e-06 4.3037057e-06
2.0658388e-06 6.348991e-07 9.239278e-06 5.7336197e-06 3.5187961e-06 1.4957402e-06 1.070317e-06 1.0502063e-06
7.1473264e-06 1.2655328e-05 6.746127e-06 8.796197e-06 1.2743755e-05 7.5771413e-06 3.2288867e-06 1.0966805e-06
7.6669295e-07 2.4752122e-05 2.0994265e-05 6.6490143e-06 2.3418975e-06 3.171179e-06 2.7211695e-06 2.3662724e-05
3.4496014e-05 1.1989466e-05 2.9651645e-05 3.493795e-05 1.5926977e-05 5.5013516e-06 2.6318091e-06 1.4151669e-06
1.1960128e-05 1.1756136e-05 5.79226e-06 3.565543e-06 2.4583253e-06 3.084746e-06 1.91388e-05 1.9681685e-05
1.4941555e-05 2.2847884e-05 1.9004268e-05 1.5242951e-05 4.8711777e-06 1.8221573e-06 9.283253e-07 1.0328915e-05
1.4802825e-05 7.387063e-06 8.202789e-06 2.9375854e-06 4.2108586e-06 1.9912453e-05 9.103086e-06 1.1894021e-05
2.3873352e-05 9.985991e-06 1.1396088e-05 4.085871e-06 2.193382e-06 1.5180232e-06 2.0853759e-05 1.803309e-05
1.1406872e-05 5.3789854e-06 3.6495542e-06 3.8220874e-06 1.7963936e-05 2.4382884e-05 2.1558228e-05 2.3859096e-05
2.5085728e-05 2.423102e-05 6.077269e-06 2.745034e-06 1.4739737e-06 3.177807e-05 4.7045658e-05 2.2253378e-05
1.3399047e-05 1.0124096e-05 1.0944642e-05 5.7585297e-05 4.010764e-05 2.900169e-05 6.762205e-05 3.858467e-05
2.8518729e-05 1.2065255e-05 7.972049e-06 4.2153374e-06 8.789914e-06 1.1554188e-05 9.782485e-06 4.086329e-06
2.5526708e-06 2.8160673e-06 1.9293815e-05 1.0527724e-05 8.088113e-06 2.018712e-05 9.987642e-06 7.638302e-06
2.9047096e-06 1.5240462e-06 1.0897958e-06 4.972273e-06 6.1699106e-06 9.392854e-06 1.6710676e-06 1.554605e-06
1.9613908e-06 1.0792693e-05 7.428118e-06 6.3777306e-06 1.1039156e-05 7.328321e-06 6.110229e-06 1.4242958e-06
9.989996e-07 7.852562e-07 6.6447305e-06 7.0348483e-06 7.692186e-06 1.7400436e-06 1.6962985e-06 1.7987336e-06
7.273649e-06 1.06459165e-05 1.3501206e-05 9.39157e-06 1.0697413e-05 1.2970192e-05 2.981793e-06 2.0206958e-06
8.4716277e-07 2.9863098e-05 4.2313583e-05 4.1775904e-05 3.9925253e-06 6.6087555e-06 5.567952e-06 4.1513857e-05
4.455476e-05 1.946067e-05 4.218105e-05 4.2760952e-05 2.5600855e-05 6.5528143e-06 4.341097e-06 2.8835193e-06
9.433394e-06 1.4067131e-05 2.4047447e-05 3.6964345e-06 2.266912e-06 2.693438e-06 2.2317656e-05 1.1544496e-05
1.3664208e-05 2.3710507e-05 1.1421661e-05 1.5707199e-05 2.2921379e-06 1.498428e-06 1.1645466e-06 9.5889245e-06
00000000: d4af 4e37 6bf9 c737 ea25 0a37 81a7 4e36
00000010: 9320 9536 0a98 6836 4592 ac37 57b3 6937
00000020: 44f1 8337 54f4 cf37 7e05 6937 0397 8137
00000030: 300e 9e36 7a9e 7a36 69d9 b035 7add cb37
00000040: 41f3 7437 c7b1 b336 29c4 4236 13d0 1636
00000050: ef1d 1236 89f5 b337 9681 f137 591d 8937
00000060: d044 dc37 28de f737 4e2e b037 3802 d036
00000070: da68 4636 4f8d ee35 8449 7b36 57db d036
00000080: ea39 d335 f436 a235 c029 9e35 77c3 8c35
00000090: 4301 ca36 cf53 d036 a815 9536 7842 ef36
000000a0: 3b9b c336 667c bc36 c8cc c135 7dc5 8935
000000b0: 3a4f e934 52eb 5b37 dd96 4437 8efb 9037
000000c0: 13b1 8936 9f95 0d36 8a5f 4436 f154 6a37
000000d0: c445 9537 b04e 5e37 f744 8037 9d9c 9237
000000e0: bd3f 7737 f43d 6136 aa3c dd35 7ce2 8d35
000000f0: b9cf d237 6cae a537 6768 8236 028f 0236
00000100: 4eb8 dc35 b573 c935 624f bb37 a3c6 c637
00000110: b1cf 5c37 9d66 e737 abfe c837 4a65 8e37
00000120: 7b2b 9136 f6b7 de35 1be3 8e35 93a0 1d37
00000130: 4447 1f37 1c98 3d36 d1a6 5936 c7e6 2b36
00000140: 8ccc 0636 d217 6437 e9de 3e37 ea35 ad36
00000150: 1cc5 8a37 3863 4e37 8ade e836 8d68 9036
00000160: d7a2 0a36 ef6d 2a35 6602 1b37 6b63 c036
00000170: 7524 6c36 3ec1 c835 d0a7 8f35 d0f4 8c35
00000180: 11d3 ef36 3852 5437 ca5c e236 6193 1337
00000190: 03ce 5537 263f fe36 daaf 5836 a831 9335
000001a0: bdce 4d35 c7a2 cf37 d71c b037 991a df36
000001b0: 7e29 1d36 71d0 5436 569d 3636 507f c637
000001c0: d0af 1038 5d26 4937 6cbc f837 578a 1238
000001d0: ec9a 8537 4098 b836 239e 3036 c4f0 bd35
000001e0: 5ca8 4837 383c 4537 225b c236 9047 6f36
000001f0: b5f9 2436 8803 4f36 438c a037 191a a537
00000200: 7dad 7a37 75a9 bf37 5b6b 9f37 fabb 7f37
00000210: 1973 a336 d990 f435 0732 7935 5a4a 2d37
00000220: a659 7837 63de f736 b69e 0937 5523 4536
00000230: 004b 8d36 ab09 a737 75b9 1837 6e8c 4737
00000240: a243 c837 8189 2737 d331 3f37 5d19 8936
00000250: 0432 1336 e1be cb35 1bef ae37 c445 9737
00000260: 2460 3f37 227d b436 ddea 7436 7b3f 8036
00000270: 42b1 9637 d889 cc37 f1d7 b437 0525 c837
00000280: 316f d237 b843 cb37 58eb cb36 5337 3836
00000290: 5ad5 c535 7149 0538 e452 4538 c4ac ba37
000002a0: 78cc 6037 a9da 2937 e19e 3737 be87 7138
000002b0: 4039 2838 a848 f337 50d0 8d38 f9d5 2138
000002c0: 813b ef37 e06b 4a37 b1bf 0537 7971 8d36
000002d0: 6578 1337 dcd8 4137 741f 2437 4d1d 8936
000002e0: 8d4e 2b36 abfb 3c36 27d9 a137 3ba0 3037
000002f0: 2eb2 0737 8357 a937 9990 2737 4226 0037
00000300: 88ee 4236 d48d cc35 1945 9235 80d7 a636
00000310: 2107 cf36 0096 1d37 7249 e035 d2a7 d035
00000320: 70a0 0336 4312 3537 0c3f f936 4a00 d636
00000330: d034 3937 cce5 f536 7806 cd36 6e2a bf35
00000340: 5d15 8635 65ca 5235 cdf5 de36 e30c ec36
00000350: b00d 0137 718b e935 5fac e335 046c f135
00000360: 2b10 f436 dd9b 3237 3d83 6237 7c90 1d37
00000370: 0a79 3337 8d9a 5937 d01a 4836 4a9b 0736
00000380: 9568 6335 8482 fa37 dd79 3138 8938 2f38
00000390: 88f7 8536 c7c0 dd36 58d4 ba36 2a1f 2e38
000003a0: 4fe0 3a38 783f a337 8feb 3038 395a 3338
000003b0: 6bc1 d637 3fe0 db36 bda9 9136 7c82 4136
000003c0: 1e44 1e37 de01 6c37 80b9 c937 4310 7836
000003d0: 4021 1836 eac0 3436 cd36 bb37 3caf 4137
000003e0: 543f 6537 ede5 c637 a99f 3f37 f4c2 8337
000003f0: a1d2 1936 981d c935 844d 9c35 1ee0 2037

exp_avg f4 [128]
0.00014581798 -0.0008143427 0.0011045345 -0.0024151457 0.0015099287 -0.0002872445 -0.0017133818 0.0039448724
-0.003419388 -0.0013018884 0.0045857485 -0.0007506825 -0.0010429344 -0.0011425976 -0.00030417246 0.007858918
0.003005727 -0.004266871 0.001978339 0.00040295764 -0.0032891373 0.0008300714 -0.0005143767 0.0031164272
3.398787e-05 -0.0040288786 0.0021607655 0.0032491875 -0.0048566246 -0.00067733484 0.0002099264 -0.00019825589
-0.00010954444 -0.0019054195 -0.0028382635 -0.0036638973 -0.0011655558 -0.0031757613 -0.0018111471 0.0020565707
0.0016251846 0.008592034 0.0015403158 -0.0035505737 0.0047718855 -0.0002569388 0.003343999 0.0007436564
-0.00022379128 0.002713047 -0.0003216141 0.0021162143 0.0016203383 0.001715889 -0.00035600044 0.001947677
0.0005912228 0.00032672947 0.0033719756 0.0002761696 0.0013640301 0.0025973932 -0.00082265947 -0.0026264035
-0.0011218161 -0.0027689473 0.010683394 -0.0005575143 0.0013830407 -7.698201e-06 -0.0025411255 4.8873273e-05
0.0003743173 0.0015528391 0.00053981744 0.00020299297 -0.0009336476 -0.0006170313 -0.0009244642 -0.0009825059
-0.001497914 0.00119523 0.004540507 0.0017506058 -0.0005590829 0.0011992716 0.00043576577 -0.0026279052
0.0014894517 -0.0010912045 -0.00036766072 -0.001406011 -0.000701119 0.0011931589 -0.0018881359 -0.00018635503
-0.0020386456 -0.0034724919 0.00259934 0.00025508952 -0.0026515718 -0.004075377 0.0075925104 0.0013353822
0.0036068102 0.001366579 0.0025735253 0.0011877884 -0.0010996488 -0.00028564583 -0.00030170425 0.00029684574
0.0038521735 -0.00031232878 -0.0011535357 0.0014027845 -0.00033337978 -0.0042883744 0.0016243672 -0.0016534969
0.00022631217 0.0001228573 0.00039366272 -0.002554508 -9.926582e-06 -0.00058657036 -0.002013834 -0.00026666
00000000: b7e6 1839 9d79 55ba 07c6 903a 6c47 1ebb
00000010: cde8 c53a 4e99 96b9 8e93 e0ba fd43 813b
00000020: d017 60bb 20a4 aaba 0c44 963b 73c9 44ba
00000030: 12b3 88ba 37c3 95ba 5679 9fb9 b1c2 003c
00000040: bbfb 443b 1cd1 8bbb 05a7 013b 0f44 d339
00000050: 918e 57bb 2699 593a 3cd7 06ba f93c 4c3b
00000060: 338e 0e38 af04 84bb a19b 0d3b 52f0 543b
00000070: 5224 9fbb 2c8f 31ba b01f 5c39 e9e2 4fb9
00000080: 39bb e5b8 45bf f9ba 2902 3abb ff1d 70bb
00000090: 90c5 98ba 6f20 50bb 0364 edba 88c7 063b
000000a0: 2504 d53a 9ac5 0c3c 6ce4 c93a beb0 68bb
000000b0: 7a5d 9c3b beb5 86b9 fe26 5b3b f0f1 423a
000000c0: 84a9 6ab9 60cd 313b 509e a8b9 2fb0 0a3b
000000d0: 8861 d43a aee7 e03a 92a5 bab9 3249 ff3a
000000e0: 4afc 1a3a e34c ab39 5dfc 5c3b dbca 9039
000000f0: 41c9 b23a 0739 2a3b bea7 57ba bd1f 2cbb
00000100: e709 93ba 3a77 35bb 6709 2f3c 2726 12ba
00000110: 2547 b53a 8627 01b7 0389 26bb 47fd 4c38
00000120: 0440 c439 a288 cb3a 8982 0d3a 83da 5439
00000130: 08c0 74ba 45c0 21ba be57 72ba 6dc7 80ba
00000140: a755 c4ba 44a9 9c3a 89c8 943b 9574 e53a
00000150: 6b8f 12ba e130 9d3a 7e77 e439 ef38 2cbb
00000160: b539 c33a bf06 8fba 96c2 c0b9 e749 b8ba
00000170: 4dcb 37ba c563 9c3a 547b f7ba 4c68 43b9
00000180: cc9a 05bb bf92 63bb b059 2a3b 89bd 8539
00000190: fec5 2dbb bd8a 85bb 98ca f83b fe07 af3a
000001a0: 3c60 6c3b c81e b33a 97a8 283b 91af 9b3a
000001b0: 1722 90ba bcc2 95b9 0f2e 9eb9 f6a1 9b39
000001c0: bf74 7c3b 0fc0 a3b9 3c32 97ba a3dd b73a
000001d0: 7ac9 aeb9 7e85 8cbb b8e8 d43a 26ba d8ba
000001e0: 364e 6d39 41d3 0039 8464 ce39 8869 27bb
000001f0: 588a 26b7 12c4 19ba 87fa 03bb 80ce 8bb9
