training/SavedModels/WalkBot_JetTest.pth (torch, 239490 bytes, 30 tensors)

running_mean f8 [15]
0.21209063727344182 -0.07256284968919965 0.31341549854510486 0.0012791667017134356 -0.0001655034944489596 0.0027214043887455732 -0.002216223812635916 -0.0064729028752107485
0.027732616386721032 -0.008192656738142866 -0.05780247004459561 -0.017526081667683324 0.20313450086537913 -0.07329255658591345 0.31928475774610177
00000000: 1d49 7037 c925 cb3f 4ed6 519a 7a93 b2bf
00000010: 82e3 13e1 ff0e d43f 8075 99c9 36f5 543f
00000020: 2e1b 2b31 60b1 25bf fecd 29db 324b 663f
00000030: 76e9 7719 c227 62bf 8a24 8ca2 5483 7abf
00000040: 7067 a761 f065 9c3f 4cb9 0fc6 4fc7 80bf
00000050: e169 f00c 4998 adbf e0e0 5b6e 5bf2 91bf
00000060: a9fa f3b2 4f00 ca3f 6da4 930d 4dc3 b2bf
00000070: dc5e 2856 296f d43f

running_var f8 [15]
0.23317432553106412 0.27257049709381137 0.18734118353895124 0.029145035407050813 0.04713037412452441 0.052165538117853245 0.07593178919344203 0.07620651919808448
0.056415336073109605 0.03424250301489421 0.04014854142071003 0.029082928419878303 0.4177696319823483 0.4635987674765929 0.40068521503212384
00000000: 991d 3603 a8d8 cd3f 1fd5 b786 cb71 d13f
00000010: 8432 3fc0 cbfa c73f 7dfb a737 32d8 9d3f
00000020: 06b2 06ef 7821 a83f 298b 6300 71b5 aa3f
00000030: 8906 5007 4470 b33f fda0 b23b 4582 b33f
00000040: b78c da8e 78e2 ac3f d50f 2abd 3b88 a13f
00000050: 54a2 c480 598e a43f afbb bd49 eac7 9d3f
00000060: b412 a8d6 bcbc da3f b4c8 312a 9aab dd3f
00000070: d06f a399 d3a4 d93f

count f8 []
49283073.0
00000000: 0000 0008 0080 8741

running_mean f8 [1]
2.6727257377249405
00000000: 14a6 1508 be61 0540

running_var f8 [1]
9.7581696501896
00000000: a8c4 f8cf 2e84 2340

count f8 []
12320769.0
00000000: 0000 0020 0080 6741

a2c_network.sigma f4 [3]
-1.378475 -1.3687975 -1.087
00000000: de71 b0bf c234 afbf d122 8bbf

a2c_network.actor_mlp.0.weight f4 [128, 15]
-0.0139215635 0.048258405 0.09526355 -0.049666654 -0.22272104 -0.119940765 0.251199 -0.15683618
0.09923837 -0.27183574 0.013691237 -0.23167956 -0.0034790896 -0.17382924 -0.22509088 0.26162598
-0.08829462 0.047698025 -0.10659475 -0.17713073 0.083572276 0.059214912 0.66494393 0.22698325
0.08690437 -0.3097076 -0.0648086 0.14058115 0.30681232 -0.006191282 0.03596512 0.26797676
0.21230063 0.048449263 -0.15902576 -0.030967124 -0.7695009 -0.8625444 0.067954525 0.01828064
0.028253652 0.13467671 -0.03242045 0.23898874 0.10053317 0.08233215 -0.10351717 0.100315385
-0.14526708 0.118400514 0.111095555 0.72622126 -0.46186626 -0.35136333 -0.2131931 0.2608058
0.2490748 0.17666824 -0.16756462 -0.16629916 -0.16018444 -0.12889963 -0.08469717 0.054388754
0.11554341 -0.047956392 -0.82244223 -0.18802138 -0.33157557 0.173809 -0.23096566 0.32721156
-0.0556275 -0.21401842 0.049279984 0.00054186006 0.047345065 0.09219402 0.049833234 0.061073095
-0.0033295455 0.7610769 0.13394931 -0.12146348 -0.38187417 -0.0872619 0.1680616 -0.010495689
0.021527415 0.015457153 -0.047666933 -0.15986949 -0.030219305 -0.070728235 -0.067635715 0.15318671
-0.05184913 -0.22918786 -1.2756807 -0.23667204 -0.21567778 0.17400338 0.08079887 -0.02764445
-0.17050694 0.101079226 0.06036939 0.113947086 -0.13632675 -0.17002237 -0.060551185 -0.44986427
-0.491852 0.40510264 -0.11959635 0.19272369 0.13455878 0.04767353 0.2424065 0.07101701
-0.022352384 -0.24999025 -0.1418239 -0.027444448 -0.1583237 0.14166571 -0.7013882 0.46925166
-0.64762664 0.012093069 -0.13075306 0.35444286 0.03844474 0.1500658 -0.12203558 -0.038424663
-0.14499183 -0.013478141 -0.058112692 0.06884066 -0.11457512 0.55117625 0.29807195 0.18985915
-0.09584541 0.37615815 -0.03843453 -0.060811043 -0.30780923 0.12473921 0.03568381 -0.07816319
0.21807633 -0.0050677843 -0.15753157 0.166136 0.3898495 0.42906743 -0.059638176 -0.31852975
-0.35105014 -0.012642255 0.1491301 0.29021874 -0.19128439 -0.06817295 0.0707438 0.06895295
-0.09293415 -0.029824343 0.054482874 0.83724797 0.14033471 -0.04022675 0.045503333 0.0051882323
0.14253272 0.07066684 0.04046163 -0.084697135 -0.010632561 0.0007427785 -0.12903969 0.06620548
0.01970267 -0.08084414 -0.57951427 0.22517052 0.5833255 0.15965715 -0.16706471 -0.32685304
-0.05566923 0.0063448814 0.14154954 0.1773583 0.08306041 -0.2242531 -0.113010585 -0.068407014
0.28530324 0.037059825 -0.34142768 0.14833255 -0.108554155 -0.18472199 0.19943021 -0.037961233
-0.09516498 -0.26298237 0.11512393 0.021676578 0.070537955 0.10373858 0.028060595 0.0585673
0.5111518 0.49711537 0.69064534 0.30187407 0.25769955 0.09420817 -0.009004589 -0.14901027
-0.09224213 0.10189683 -0.13576105 -0.062138136 -0.024988443 0.036642764 -0.06678618 -0.605331
0.23170851 -0.14653787 0.21601054 -0.10378437 -0.060845677 0.0737318 -0.076829866 0.021174341
-0.021511896 0.07367697 -0.015335878 -0.030909035 0.2690816 0.15441209 -0.5202576 0.045056462
-0.34527117 0.33106863 -0.1870515 0.014244709 0.04901024 -0.025995273 -0.091363594 0.06289261
00000000: 4517 64bc 9baa 453d 8919 c33d 436f 4bbd
00000010: fc10 64be 81a3 f5bd 289d 803e aa99 20be
00000020: 7d3d cb3d 0e2e 8bbe 3651 603c 683d 6dbe
00000030: 7001 64bb 4b00 32be 397e 66be d7f3 853e
00000040: cfd3 b4bd 015f 433d 594e dabd c261 35be
00000050: f127 ab3d 568b 723d c439 2a3f 4c6e 683e
00000060: ebfa b13d ff91 9ebe 5fba 84bd 81f4 0f3e
00000070: 8116 9d3e 3de0 cabb 2950 133d 4034 893e
00000080: 5665 593e bc72 463d a6d7 22be c4ae fdbc
00000090: 03fe 44bf b6cf 5cbf be2b 8b3d 48c1 953c
000000a0: 3474 e73c b1e8 093e 4ecb 04bd 77b9 743e
000000b0: 56e4 cd3d c29d a83d cf00 d4bd 2772 cd3d
000000c0: e5c0 14be f87b f23d 1186 e33d a3e9 393f
000000d0: bc79 ecbe e5e5 b3be 4b4f 5abe 5688 853e
000000e0: 770d 7f3e 85e8 343e 0f96 2bbe 544a 2abe
000000f0: 6407 24be 44fe 03be b675 adbd bec6 5e3d
00000100: 06a2 ec3d ec6d 44bd 938b 52bf ad88 40be
00000110: 46c4 a9be fdfa 313e 4382 6cbe 4688 a73e
00000120: a9d9 63bd a527 5bbe cfd9 493d 9d0b 0e3a
00000130: e6ec 413d 38d0 bc3d ef1d 4c3d c827 7a3d
00000140: 8134 5abb f0d5 423f 022a 093e d8c1 f8bd
00000150: 0385 c3be 5eb6 b2bd 5718 2c3e 1cf6 2bbc
00000160: 435a b03c 0040 7d3c 673e 43bd d4b4 23be
00000170: 7a8e f7bc f7d9 90bd 9884 8abd fadc 1c3e
00000180: c15f 54bd 39b0 6abe 8149 a3bf 285a 72be
00000190: a3da 5cbe f12d 323e e179 a53d 9d76 e2bc
000001a0: 5f99 2ebe a002 cf3d e545 773d 175d e93d
000001b0: 3d99 0bbe 581a 2ebe 8504 78bd 9c54 e6be
000001c0: 06d4 fbbe 9d69 cf3e eeee f4bd 5c59 453e
000001d0: c7c9 093e 5245 433d 6939 783e 5e71 913d
000001e0: 591c b7bc 72fd 7fbe 493a 11be 2ed3 e0bc
000001f0: 9c1f 22be d110 113e 2d8e 33bf c141 f03e
00000200: dcca 25bf 0222 463c 21e4 05be 8979 b53e
00000210: 3b78 1d3d d9aa 193e caed f9bd 2e63 1dbd
00000220: bd78 14be 6cd3 5cbc 9307 6ebd 55fc 8c3d
00000230: 5ca6 eabd e319 0d3f e39c 983e 706a 423e
00000240: 994a c4bd cd97 c03e 876d 1dbd 0015 79bd
00000250: 2c99 9dbe 4577 ff3d 3029 123d 0614 a0bd
00000260: 674f 5f3e a80f a6bb f54f 21be 8e1f 2a3e
00000270: 5b9a c73e baae db3e 2947 74bd 5516 a3be
00000280: d8bc b3be 7621 4fbc 90b5 183e 8d97 943e
00000290: 0ee0 43be 429e 8bbd 20e2 903d 3437 8d3d
000002a0: 4254 bebd 2e52 f4bc 6f29 5f3d e255 563f
000002b0: e7b3 0f3e cec4 24bd b461 3a3d 0c02 aa3b
000002c0: 19f4 113e c7b9 903d 18bb 253d b175 adbd
000002d0: 3134 2ebc 05b7 423a fb22 04be bd96 873d
000002e0: 7e67 a13c 9d91 a5bd 0c5b 14bf 1a93 663e
000002f0: d254 153f 2a7d 233e 0313 2bbe 4859 a7be
00000300: 6b05 64bd b9e8 cf3b 5df2 103e 6a9d 353e
00000310: 941b aa3d 9ba2 65be 1872 e7bd fa18 8cbd
00000320: 4413 923e 0bcc 173d 9ccf aebe 7de4 173e
00000330: a451 debd c327 3dbe 6f37 4c3e 3d7d 1bbd
00000340: dbe5 c2bd a0a5 86be 18c6 eb3d 1493 b13c
00000350: 3476 903d e574 d43d 55df e53c 44e4 6f3d
00000360: d8da 023f e885 fe3e 22ce 303f 3d8f 9a3e
00000370: 32f1 833e 37f0 c03d fc87 13bc 2696 18be
00000380: 71e9 bcbd 49af d03d f204 0bbe 8f84 7ebd
00000390: 90b4 ccbc b916 163d 31c7 88bd f9f6 1abf
000003a0: ff44 6d3e 060e 16be de31 5d3e e68c d4bd
000003b0: 5139 79bd b300 973d fa58 9dbd d075 ad3c
000003c0: b739 b0bc f4e3 963d 5643 7bbc f234 fdbc
000003d0: 10c5 893e 341e 1e3e 9a2f 05bf 208d 383d
000003e0: 62c7 b0be d481 a93e 6e8a 3fbe a462 693c
000003f0: f6be 483d 0af4 d4bc d61c bbbd d7cd 803d

a2c_network.actor_mlp.0.bias f4 [128]
-0.03187188 -0.23991498 -0.3684341 -0.19616136 -0.18278578 -0.18002506 -0.2140084 -0.4056369
-0.17353871 0.119779974 -0.2633411 -0.16519758 -0.18061818 0.12450715 -0.059316806 -0.12086003
-0.12527134 -0.062051494 -0.23313466 -0.14436191 0.10806554 -0.27645275 -0.09491692 -0.17738105
-0.17414126 0.006971681 -0.22710265 -0.68464535 0.078949265 -0.03128051 -0.20051463 -0.1933206
-0.19874257 -0.18827856 -0.0028704775 0.04345605 -0.21515334 0.28770027 -0.5029986 -0.21127598
-0.07299244 0.009522537 -0.20287763 0.2549414 -0.39132887 -0.21200626 -0.11447586 -0.27050707
0.037779547 -0.40589905 -0.10393409 -0.20094427 -0.0694122 0.045608383 -0.37377265 -0.34219405
-0.19507232 0.2545574 -0.6408977 -0.10608954 0.023790374 0.1244135 0.4822175 -0.33060855
-0.03891227 0.065990604 -0.13186914 -0.22192195 -0.10372039 -0.37650785 -0.1747747 -0.23800284
-0.060665004 -0.14922976 -0.04855104 -0.2398953 0.10792493 0.11240436 -0.13543579 -0.13750634
-0.08614336 0.021346036 -0.123897396 -0.09333134 -0.13212536 0.043774664 -0.07286696 -0.3840534
-0.4037759 -0.030506745 -0.22958809 -0.13272499 -0.27099648 0.19508815 -0.03892895 -0.20597067
-0.043592036 -0.04228436 -0.24999274 0.7117446 0.011255105 -0.36719224 0.13136496 -0.03248949
-0.40211946 -0.06189422 -0.07651558 -0.05593897 -0.19072972 -0.14509307 -0.57272184 -0.26210788
0.083400264 -0.05688204 -0.16085467 0.10436961 -0.28551498 -0.2505566 -0.13788153 0.2860813
0.013484998 0.15314905 -0.15999067 -0.017697068 0.10736212 -0.2025272 -0.11040871 -0.25702116
00000000: 178c 02bd 46ac 75be 65a3 bcbe 86de 48be
00000010: 322c 3bbe 7d58 38be 0525 5bbe a4af cfbe
00000020: 22b4 31be 344f f53d a5d4 86be 8e29 29be
00000030: f9f3 38be 9bfd fe3d 2ef6 72bd 7785 f7bd
00000040: 2147 00be b529 7ebd daba 6ebe 9cd3 13be
00000050: 7751 dd3d 378b 8dbe cd63 c2bd 61a3 35be
00000060: 1652 32be b372 e43b 998d 68be eb44 2fbf
00000070: 27b0 a13d fe1f 00bd b553 4dbe d6f5 45be
00000080: 2c83 4bbe 18cc 40be 9f1e 3cbb f9fe 313d
00000090: 2851 5cbe 734d 933e 84c4 00bf bb58 58be
000000a0: 0f7d 95bd 6a04 1c3c 27bf 4fbe ae87 823e
000000b0: 425c c8be 2b18 59be 5272 eabd e77f 8abe
000000c0: babe 1a3d 00d2 cfbe 65db d4bd 56c4 4dbe
000000d0: fc27 8ebd dbcf 3a3d 215f bfbe 0f34 afbe
000000e0: 0ac1 47be 5955 823e df11 24bf 7945 d9bd
000000f0: 08e4 c23c 81cc fe3d 36e5 f63e 8645 a9be
00000100: 7962 1fbd 1526 873d b408 07be 823f 63be
00000110: 5b6b d4bd a3c5 c0be 24f8 32be 04b7 73be
00000120: de7b 78bd b0cf 18be 75dd 46bd 1da7 75be
00000130: bf07 dd3d 4234 e63d aeaf 0abe 76ce 0cbe
00000140: ee6b b0bd e2dd ae3c ebbd fdbd 8024 bfbd
00000150: df4b 07be 104d 333d 463b 95bd a6a2 c4be
00000160: b7bb cebe 48e9 f9bc 2419 6bbe 0fe9 07be
00000170: 0dc0 8abe 30c5 473e f673 1fbd fae9 52be
00000180: 908d 32bd 5d32 2dbd 19fe 7fbe e534 363f
00000190: 5567 383c 9f00 bcbe 8984 063e b313 05bd
000001a0: 9ae2 cdbe cb84 7dbd 33b4 9cbd 4320 65bd
000001b0: a74e 43be 4793 14be e69d 12bf 0133 86be
000001c0: c2cd aa3d 24fd 68bd 16b7 24be bcbf d53d
000001d0: 052f 92be f448 80be d130 0dbe 4079 923e
000001e0: 2ef0 5c3c 1bd3 1c3e 98d4 23be 71f9 90bc
000001f0: ace0 db3d 4a63 4fbe f61d e2bd 4798 83be

a2c_network.actor_mlp.2.weight f4 [128, 128]
0.012335492 0.04703963 -0.0057810214 0.0508252 -0.086007245 0.02080986 0.00065329287 -0.036681265
0.019215021 -0.097403884 0.06620879 0.036354676 -0.0037827655 0.017790385 -0.031584702 0.010587013
0.053394567 -0.0940535 0.050642785 -0.036078904 -0.025266359 0.024169685 0.06745122 -0.091372855
-0.058454823 0.045136172 -0.026226712 -0.006786022 -0.021119542 0.016727204 0.085637614 -0.022871409
-0.07269913 0.036654066 0.0056350473 -0.030354464 -0.09316231 0.09310587 -0.0102754105 -0.018620163
-0.020427527 -0.022341905 0.08799684 -0.004991372 0.086251125 -0.018323796 -0.013770089 0.04713904
0.008308064 -0.018874533 -0.004951143 0.08502234 0.055037796 0.1154212 0.06840355 0.036428925
0.052863732 0.021313528 -0.0018014945 0.05546316 0.07839482 -0.017827038 -0.033733446 0.06980003
-0.07434926 0.044504374 0.0046839113 0.037976395 -0.030490031 -0.078487396 0.05426628 -0.043298494
0.012236318 0.025694633 -0.085886605 -0.009415667 -0.02393936 0.05892352 -0.09119067 0.055866424
0.011014596 0.032104783 0.06666255 0.048142955 -0.087539725 0.045467913 0.0206172 0.013113587
-0.08778446 -0.012890369 -0.028037466 0.071547404 0.051655963 0.026601585 0.030921781 -0.06257157
-0.014535472 -0.07305489 -0.018431919 0.05186082 0.028485393 0.10870265 0.0048342296 -0.10010577
-0.051864676 0.08756433 0.061296917 0.0552422 0.0025406643 -0.11230955 -0.034574814 0.04701307
-0.01320966 0.03196321 0.055752553 -0.045793872 0.02993345 -0.02100699 -0.010730454 0.0034699754
-0.07698664 0.005582089 -0.0005968375 -0.06715673 0.031099115 -0.068296105 -0.08271995 -0.055760894
-0.02783169 0.02009907 0.0069062947 0.024426354 -0.07961077 0.011853787 0.00031635104 0.05404354
0.1102175 0.03552738 0.008558005 -0.08418039 -0.034592412 -0.027874582 0.049289837 -0.0065143504
0.061217915 0.051183227 -0.028861536 -0.008577098 0.051825847 -0.028189907 0.090776086 -0.043658104
0.060111698 -0.04564719 -0.09377372 0.01312858 0.100142635 0.039803818 0.020992711 -0.024226243
0.011840007 0.01222821 0.014518142 0.045646716 0.070212126 0.009485359 -0.09459419 0.019562174
-0.066468224 -0.034198422 -0.068303935 0.04519188 -0.07312664 0.07871848 0.06587074 -0.053454902
-0.09508987 0.029689522 -0.022414556 -0.014583499 -0.011083878 -0.026034962 -0.08796856 -0.027747493
-0.060746107 0.029105743 0.0676984 -0.07249042 -0.031624053 -0.044493962 -0.06654767 0.022318775
0.044570602 -0.01535865 -0.03615259 0.036550574 -0.070766695 0.025878796 -0.00531703 0.03322123
0.0067838673 0.06414601 -0.038318496 0.04449366 -0.08698933 0.109165 0.09210407 -0.0052501676
0.08837161 0.108812384 -0.020594941 0.060060244 -0.07582584 -0.052885566 -0.052526683 0.038507152
-0.044057358 -0.09593212 -0.03419655 -0.064215764 0.043964744 -0.03347363 -0.025419116 0.052766856
-0.009880154 0.012942916 0.11595837 0.03585039 0.008972525 -0.020617958 -0.07660489 0.03251001
0.066604026 0.046765912 -0.038313325 -0.064160444 -0.04905151 0.012604663 0.030519389 0.012091638
-0.13783224 0.03755265 -0.12957187 -0.060298838 -0.013421443 -0.051189706 0.09102804 0.040430326
0.02725373 0.07693013 0.03648061 -0.004371872 -0.0763493 -0.03867827 -0.04745566 0.0739188
00000000: ce1a 4a3c a1ac 403d b96e bdbb 162e 503d
00000010: 9124 b0bd 7179 aa3c be41 2b3a 183f 16bd
00000020: d268 9d3c b07b c7bd 7998 873d a4e8 143d
00000030: 46e8 77bb 24bd 913c f65e 01bd 2775 2d3c
00000040: 43b4 5a3d 1f9f c0bd cf6e 4f3d 79c7 13bd
00000050: 65fb cebc 81ff c53c dd23 8a3d b121 bbbd
00000060: 536e 6fbd b5e0 383d 67d9 d6bc 475d debb
00000070: e402 adbc 7d07 893c c662 af3d d25c bbbc
00000080: 48e3 94bd 9322 163d 34a6 b83b eda9 f8bc
00000090: e2cb bebd 4aae be3d 325a 28bc 5089 98bc
000000a0: a157 a7bc 5f06 b7bc b037 b43d aa8e a3bb
000000b0: 6ea4 b03d c91b 96bc f09b 61bc de14 413d
000000c0: 8c1e 083c c49e 9abc 333d a2bb 3120 ae3d
000000d0: 506f 613d f361 ec3d 2917 8c3d 7f36 153d
000000e0: a487 583d b599 ae3c 2020 ecba 572d 633d
000000f0: 778d a03d 020a 92bc 152c 0abd 51f3 8e3d
00000100: 6d44 98bd 384a 363d 7f7b 993b 238d 1b3d
00000110: 3bc6 f9bc 00be a0bd 5246 5e3d c359 31bd
00000120: d67a 483c 8d7d d23c 51e5 afbd 2b44 1abc
00000130: 7a1c c4bc ca59 713d 2dc2 babd 31d4 643d
00000140: 9076 343c 4e80 033d 6086 883d 8c31 453d
00000150: 0748 b3bd 903c 3a3d 67e5 a83c 5fda 563c
00000160: 57c8 b3bd 2032 53bc d4ae e5bc 7287 923d
00000170: 3495 533d 91eb d93c ad4f fd3c 8625 80bd
00000180: 3026 6ebc cd9d 95bd 89fe 96bc 036c 543d
00000190: 335a e93c 7f9f de3d 7568 9e3b 4104 cdbd
000001a0: 0e70 54bd ed54 b33d 7a12 7b3d a545 623d
000001b0: 4681 263b 8d02 e6bd 529e 0dbd c790 403d
000001c0: 546d 58bc dbeb 023d ca5c 643d 5b92 3bbd
000001d0: ff36 f53c da16 acbc c9ce 2fbc 8768 633b
000001e0: 2cab 9dbd f5e9 b63b 1675 1cba 7889 89bd
000001f0: 92c3 fe3c d4de 8bbd 1469 a9bd 8965 64bd
00000200: 49ff e3bc cea6 a43c 334e e23b c719 c83c
00000210: f90a a3bd 6336 423c ebdb a539 c25c 5d3d
00000220: b6b9 e13d 2885 113d e036 0c3c c566 acbd
00000230: c6b0 0dbd 3c59 e4bc 24e4 493d 5576 d5bb
00000240: a3bf 7a3d 81a5 513d 076f ecbc f586 0cbc
00000250: 5747 543d 85ee e6bc d0e8 b93d d7d2 32bd
00000260: af37 763d 8cf8 3abd 700c c0bd 4119 573c
00000270: 9517 cd3d 5409 233d e8f8 ab3c 1d76 c6bc
00000280: 97fc 413c d558 483c 80dd 6d3c 0df8 3a3d
00000290: 60cb 8f3d 7b68 1b3c 99ba c1bd da40 a03c
000002a0: 7e20 88bd a513 0cbd efe2 8bbd 1f1b 393d
000002b0: 6bc3 95bd 2837 a13d 3de7 863d 87f3 5abd
000002c0: 7abe c2bd 7137 f33c bb9e b7bc a1ef 6ebc
000002d0: 2799 35bc 4647 d5bc dc28 b4bd b64e e3bc
000002e0: e9d0 78bd 2b6f ee3c 75a5 8a3d db75 94bd
000002f0: 3988 01bd 4d3f 36bd 254a 88bd ddd5 b63c
00000300: aa8f 363d d9a2 7bbc bd14 14bd 0eb6 153d
00000310: 21ee 90bd c5ff d33c 7b3a aebb fc12 083d
00000320: 344b de3b fc5e 833d dbf3 1cbd fc3e 363d
00000330: 7627 b2bd e691 df3d 0fa1 bc3d 9909 acbb
00000340: 2dfc b43d 07d9 de3d b9b6 a8bc bb01 763d
00000350: 944a 9bbd 899e 58bd 3826 57bd adb9 1d3d
00000360: 7d75 34bd 0f78 c4bd ae11 0cbd 8e83 83bd
00000370: 6014 343d a51b 09bd c03b d0bc 0f22 583d
00000380: 5fe0 21bc 860e 543c 957b ed3d dcd7 123d
00000390: 7f01 133c fee6 a8bc 06e3 9cbd 3729 053d
000003a0: b167 883d 9d8d 3f3d 6fee 1cbd 8d66 83bd
000003b0: 3cea 48bd ca83 4e3c cc03 fa3c 011c 463c
000003c0: e523 0dbe cfd0 193d 7dae 04be eafb 76bd
000003d0: 9de5 5bbc 4cac 51bd e96c ba3d 459a 253d
000003e0: 3743 df3c 8b8d 9d3d b16c 153d ec41 8fbb
000003f0: 065d 9cbd 1b6d 1ebd de60 42bd bd62 973d

a2c_network.actor_mlp.2.bias f4 [128]
-0.08028309 -0.02309748 0.015416322 -0.009458919 -0.27740246 -0.06821998 -0.03952116 0.042103626
-0.2729634 -0.008723662 -0.06929461 0.07020666 -0.03447057 -0.020534627 -0.0037210218 -0.066408664
-0.08268081 -0.046039976 0.06534188 -0.08408185 -0.24998182 -0.023477877 -0.17218009 -0.22381523
-0.0156457 -0.066283844 0.041411012 -0.09759926 0.010919745 -0.12169692 -0.03759296 -0.18823533
0.08217146 -0.05267273 -0.05873843 -0.08326578 -0.08175557 0.16329937 0.047697302 -0.0041062203
0.07720683 0.018948017 -0.29425153 -0.09549839 0.25858876 0.047059674 -0.26554802 -0.04165976
-0.45649886 0.037176073 -0.07918974 0.0019475607 -0.06918627 -0.010420849 -0.04838839 -0.39800152
0.017250352 -0.006879832 -0.22815846 -0.08327707 -0.014679509 -0.15861112 -0.014199276 -0.004757448
-0.20231546 -0.2444597 -0.07438963 -0.14091389 -0.06201506 -0.09670902 -0.24217011 -0.16645147
0.017278109 -0.041801933 -0.03819206 0.038247205 -0.048663575 0.0083756475 -0.10304618 -0.015088119
-0.08990557 -0.08462172 -0.008277133 0.008125041 -0.14826913 -0.057370447 -0.08982889 0.052541886
-0.10539969 -0.12814485 0.28914052 0.02885755 -0.1712151 -0.07199994 0.031121526 -0.024140403
0.08277181 -0.074157886 -0.38556704 -0.039430153 -0.13025613 0.010731096 0.0042086383 -0.11397346
-0.054785136 -0.038601775 -0.02051483 0.035536155 -0.0634674 -0.11990324 -0.054867204 -0.20887831
-0.16386181 -0.10588286 0.017865159 -0.015248726 0.004334594 -0.2951052 0.006520144 -0.08083992
-0.1540004 -0.052180063 -0.20046899 -0.07515475 -0.037158363 -0.036368765 -0.22289763 0.037479267
00000000: 766b a4bd ed36 bdbc be94 7c3c 95f9 1abc
00000010: b207 8ebe ebb6 8bbd f1e0 21bd da74 2c3d
00000020: dcc1 8bbe b1ed 0ebc 55ea 8dbd 82c8 8f3d
00000030: 0331 0dbd 3c38 a8bc 63dc 73bb 4401 88bd
00000040: 8e54 a9bd 6a94 3cbd f7d1 853d 1b33 acbd
00000050: 3cfb 7fbe ad54 c0bc fa4f 30be d22f 65be
00000060: 692b 80bc d3bf 87bd 989e 293d 1fe2 c7bd
00000070: bbe8 323c 3c3c f9bd 13fb 19bd c3c0 40be
00000080: 8349 a83d 5cbf 57bd b597 70bd 4087 aabd
00000090: 776f a7bd f337 273e 3f5e 433d 798d 86bb
000000a0: 9d1e 9e3d df38 9b3c 23a8 96be a994 c3bd
000000b0: bf65 843e a5c1 403d e9f5 87be 6da3 2abd
000000c0: 38ba e9be f045 183d 3b2e a2bd 4b45 ff3a
000000d0: 88b1 8dbd 35bc 2abc e832 46bd dbc6 cbbe
000000e0: 9c50 8d3c 3770 e1bb 5fa2 69be 2b8d aabd
000000f0: 5382 70bc f46a 22be 15a4 68bc 5ee4 9bbb
00000100: c92b 4fbe a553 7abe 9759 98bd bb4b 10be
00000110: 8103 7ebd 610f c6bd 71fb 77be 4172 2abe
00000120: d28a 8d3c 8138 2bbd 476f 1cbd 1aa9 1c3d
00000130: 7553 47bd 033a 093c e009 d3bd 2834 77bc
00000140: 6920 b8bd 274e adbd d09c 07bc e41e 053c
00000150: ddd3 17be 46fd 6abd 36f8 b7bd 2936 573d
00000160: cbdb d7bd 6738 03be 3a0a 943e ab66 ec3c
00000170: 0353 2fbe b474 93bd 92f2 fe3c 18c2 c5bc
00000180: 4484 a93d 17e0 97bd 0b69 c5be 8381 21bd
00000190: dd61 05be 7bd1 2f3c 9ee8 893b eb6a e9bd
000001a0: 6166 60bd e51c 1ebd b70e a8bc 5c8e 113d
000001b0: 32fb 81bd d48f f5bd 6fbc 60bd 32e4 55be
000001c0: 64cb 27be 1dd9 d8bd f459 923c cbd5 79bc
000001d0: 3609 8e3b 0718 97be efa6 d53b 668f a5bd
000001e0: 48b2 1dbe c3ba 55bd be47 4dbe bcea 99bd
000001f0: 5e33 18bd 6af7 14bd 473f 64be dc83 193d

a2c_network.value.weight f4 [1, 128]
-0.00189557 -0.0005723875 0.0032583554 0.00057859055 -0.030202491 -0.113728136 0.11400407 0.026276946
0.026222033 -0.019313497 0.061659675 0.01290307 -0.08474159 0.006450602 0.017964346 0.040328924
0.060547914 0.13513485 0.09340155 -0.14310597 -0.0594423 -0.0034760812 0.036258973 0.16826296
-0.0014433288 -0.01834127 0.009883576 0.052397616 -0.0031304294 0.016415102 0.00039828033 0.14553392
0.019157993 -0.0076573803 -0.0102291545 -0.039102018 0.047717072 0.23006178 0.017176958 -0.008552271
0.008035645 0.026550688 -0.15509689 0.05033966 0.51545966 -0.12577549 0.23032165 -0.006313936
-0.06137451 0.011771396 0.037901767 0.021936925 -0.003925616 0.022815812 -0.20137112 -0.13838853
0.01106425 0.14141072 -0.09339341 -0.015906246 0.0174496 -0.0531688 -0.0032563508 -0.0010261377
0.12659442 0.030078832 -0.01437471 0.045436867 -0.11425244 -0.036161 -0.19915678 -0.0011795767
-0.0034427603 -0.009237607 0.08614905 0.024947187 -0.024869012 -0.0014631307 -0.0023980215 0.0038414514
-0.011438296 -0.018786257 0.007994547 0.01619867 -0.021683227 -0.02079946 -0.010873317 0.013518169
-0.057510015 0.041267894 0.22707568 -0.008776683 -0.023539618 -0.0016306224 0.012789524 0.07195473
0.2939655 0.044452246 -0.05767786 -0.0076397476 0.027509749 0.0027820608 0.07281524 -0.12835422
-0.15119316 0.006125226 0.1830032 0.021126559 -0.01256139 -0.053308535 0.1047464 -0.16082996
-0.257068 0.08745011 0.008943976 0.015622385 0.00469551 0.053795934 -0.35464847 0.08845852
-0.29387787 0.029578889 0.13389277 0.06478983 0.03369144 0.15628496 -0.03870545 -0.19239858
00000000: c674 f8ba 460c 16ba 228a 553b 8eac 173a
00000010: 376b f7bc 4cea e8bd f77a e93d c042 d73c
00000020: 97cf d63c 5737 9ebc db8e 7c3d 6667 533c
00000030: 008d adbd 925f d33b f729 933c f12f 253d
00000040: 1701 783d ca60 0a3e 5049 bf3d 5f8a 12be
00000050: c579 73bd f7ce 63bb 4a84 143d 204d 2c3e
00000060: 142e bdba 6e40 96bc b9ee 213c e29e 563d
00000070: e427 4dbb f778 863c 48d0 d039 d806 153e
00000080: 39f1 9c3c c3ea fabb 2f98 27bc 7029 20bd
00000090: fa72 433d 5195 6b3e b1b6 8c3c d31e 0cbc
000000a0: f0a7 033c d480 d93c b8d1 1ebe f630 4e3d
000000b0: 2af5 033f 4acb 00be 70d9 6b3e 22e5 cebb
000000c0: d763 7bbd d0dc 403c e23e 1b3d 11b5 b33c
000000d0: 74a2 80bb 3ae8 ba3c 3b34 4ebe b9b5 0dbe
000000e0: d446 353c f9cd 103e 0b45 bfbd d14d 82bc
000000f0: 77f2 8e3c 87c7 59bd 8068 55bb 787f 86ba
00000100: f8a1 013e e267 f63c e783 6bbc 021c 3a3d
00000110: 2ffd e9bd 8f1d 14bd c1ef 4bbe 079c 9aba
00000120: ef9f 61bb 5559 17bc ea6e b03d 0b5e cc3c
00000130: 19ba cbbc 85c6 bfba 2028 1dbb dcc0 7b3b
00000140: b167 3bbc a3e5 99bc 8ffb 023c 13b3 843c
00000150: 06a1 b1bc a163 aabc ff25 32bc 4f7b 5d3c
00000160: 9f8f 6bbd 8608 293d 8786 683e 14cc 0fbc
00000170: 28d6 c0bc 9cba d5ba 278b 513c 005d 933d
00000180: a582 963e 8f13 363d 9f3f 6cbd d956 fabb
00000190: 205c e13c 3c53 363b 2820 953d 4a6f 03be
000001a0: 61d2 1abe 1fb6 c83b 3165 3b3e 9b11 ad3c
000001b0: 4ace 4dbc 0d5a 5abd 4885 d63d 9cb0 24be
000001c0: 6b9e 83be 0b19 b33d c189 123c 08f5 7f3c
000001d0: cbdc 993b 2059 5c3d 7c94 b5be be29 b53d
000001e0: 2977 96be 6d4f f23c 301b 093e 88b0 843d
000001f0: 0900 0a3d 2a09 203e 9b89 1ebd 2204 45be

a2c_network.mu.weight f4 [3, 128]
0.000122056204 -0.0035595223 -0.0025953897 -0.00042491086 -0.16854572 0.061772037 0.061269622 0.0013576814
0.05190853 0.00850445 0.041419894 0.0004406275 -0.07323445 0.00077978143 -0.011394132 -0.05477023
0.0100262 0.029410934 -0.27609873 0.1824251 0.016588489 0.0016396932 0.022853138 -0.1071905
-0.0033093516 0.0013331439 -0.00072453957 0.11056357 0.0021093152 -0.007332874 0.0043568946 0.0477615
0.0015005838 -0.0024855232 -0.004781442 -0.028562995 0.20963171 0.06929167 -0.0027182328 -0.0012538207
-0.0013910548 0.003537617 0.099653035 0.042126097 0.10684253 -0.040442854 0.14659025 -0.0011121084
0.095556654 -0.0014382176 0.01632351 -0.015599771 0.00013600834 -0.007814224 -0.14771858 0.101673864
-0.0024015207 -0.021464353 -0.18312041 -9.891544e-05 0.0035453825 -0.3002094 0.017093332 0.0011463001
-0.084203236 -0.059186265 -0.00974008 0.0007913238 -0.08173636 -0.21156015 -0.049583606 0.0075071915
-0.0021963106 -0.00356235 0.06589957 0.002153687 0.11911496 -0.006091206 0.05599703 -0.0031827064
-0.007380199 6.2826155e-05 0.0020634627 0.0020994446 0.04906455 0.028589895 0.0040990924 -0.0043554944
0.13985519 0.021849139 -0.025252733 0.04048796 -0.031435646 0.08876635 0.0007482733 0.1043201
0.21476041 -0.029524948 0.022986196 0.0038000876 0.0032874185 0.0005901241 -0.12015623 0.0070431284
0.0023640657 0.003550532 -0.15638083 0.0015781758 -0.00089878833 0.028042668 0.06710752 -0.00806129
0.24153255 -0.038422137 0.00054315716 -0.0051743533 -0.0016637049 0.029501677 0.07423503 0.041881368
-0.015523819 0.007224136 0.032962345 0.0059640766 0.19807106 -0.033675976 -0.2226222 -0.005706123
-0.001759797 -0.00028276927 -0.00051712844 -0.00028204994 -0.34269953 -0.2288431 0.08513025 -0.0022362983
-0.03081072 0.00069351 0.054944903 -0.0025716496 0.040545516 0.0011549763 0.00087993336 0.03371552
0.1872176 0.07138034 0.09974108 0.11416087 -0.180063 -0.0014847836 -0.07992156 -0.09233638
-0.002622202 -0.0042633074 -0.0015617356 -0.037603226 0.0021969825 0.004658118 -0.052189097 -0.051846806
0.0070267185 -0.00078271894 -0.00304307 0.20233394 -0.079594575 -0.008305001 7.614039e-05 -0.0029703188
0.0014225227 -0.0018930853 -0.082553826 2.0273608e-05 -0.007891771 0.0122097945 0.027497262 -0.00018545148
-0.01108911 0.0032565794 0.022764329 0.010136454 -0.00037454892 0.038918976 0.017905353 0.061518926
0.003170614 -0.042649854 0.13226944 -0.002483324 -0.0028345145 -0.179514 -0.025406085 -0.0007671353
0.293601 0.03937194 -0.030663103 -0.04565263 0.15024602 0.04577395 -0.010745212 -0.054935616
0.00019289275 0.000983232 0.040043756 -0.00077353005 -0.053957563 -0.0015737825 0.047812276 0.0034130986
-0.0014723034 0.0020583393 -0.00509949 0.0028410736 -0.20346074 -0.054833647 -0.0002938072 0.00035744035
-0.24383636 0.03658132 0.018275265 -0.012709996 -0.17650363 -0.12914261 -0.0009441832 0.05749469
-0.028374257 0.05652521 -0.026373664 0.00016950362 -0.047144596 0.006222053 -0.04822408 -0.11251979
-0.17963217 -0.0017582984 -0.13800737 0.0009914923 0.0017431976 -0.094026536 0.03951086 0.13197947
0.15689445 -0.015037217 0.0015120285 -0.0008737491 0.0011290523 0.0013428445 -0.008815584 -0.022997487
0.20348203 -0.06839605 0.049426235 -0.04839398 0.120054565 0.05144176 -0.15739933 0.20416316
00000000: 6df8 ff38 e046 69bb 6a17 2abb 92c6 deb9
00000010: 4097 2cbe ad04 7d3d dbf5 7a3d 3af4 b13a
00000020: 0a9e 543d 4056 0b3c e8a7 293d 0604 e739
00000030: f1fb 95bd 3f6a 4c3a 74ae 3abc c056 60bd
00000040: ee44 243c 33ef f03c d05c 8dbe a5cd 3a3e
00000050: 95e4 873c f9ea d63a 8136 bb3c b186 dbbd
00000060: b5e1 58bb e3bc ae3a 07ef 3dba 276f e23d
00000070: 703c 0a3b 9b48 f0bb 48c4 8e3b 90a1 433d
00000080: 3daf c43a 29e4 22bb a5ad 9cbb f1fc e9bc
00000090: b2a9 563e cbe8 8d3d 6124 32bb 3e57 a4ba
000000a0: 0e54 b6ba 5dd7 673b e416 cc3d 6a8c 2c3d
000000b0: 42d0 da3d 68a7 25bd c11b 163e 2ac4 91ba
000000c0: 35b3 c33d 9382 bcba e2b8 853c 2f96 7fbc
000000d0: 769d 0e39 3b07 00bc 8a43 17be 633a d03d
000000e0: d562 1dbb 03d6 afbc eb83 3bbe d370 cfb8
000000f0: a659 683b 0cb5 99be 5107 8c3c 733f 963a
00000100: bf72 acbd 4c6d 72bd db94 1fbc d770 4f3a
00000110: 6565 a7bd 39a3 58be 2e18 4bbd e3fe f53b
00000120: faef 0fbb 5176 69bb 5bf6 863d df24 0d3b
00000130: 8bf2 f33d bd98 c7bb 245d 653d f494 50bb
00000140: 99d5 f1bb 89c1 8338 293b 073b d696 093b
00000150: e9f7 483d 5b35 ea3c ae51 863b 89b8 8ebb
00000160: 3336 0f3e f7fc b23c d2de cebc b4d6 253d
00000170: aac2 00bd 22cb b53d c527 443a c7a5 d53d
00000180: 27ea 5b3e 4ede f1bc 8c4d bc3c e40a 793b
00000190: bb71 573b 8fb2 1a3a 7814 f6bd 0bca e63b
000001a0: 71ee 1a3b 0bb0 683b 4c22 20be cbda ce3a
000001b0: aa9c 6bba bdb9 e53c ab6f 893d 8013 04bc
000001c0: 4f54 773e 8860 1dbd a962 0e3a 9f8d a9bb
000001d0: ac10 daba 80ad f13c 8908 983d cc8b 2b3d
000001e0: 9e57 7ebc 72b8 ec3b 8603 073d 4d6e c33b
000001f0: 24d3 4a3e d2ef 09bd 13f7 63be 6efa babb
00000200: fda8 e6ba a640 94b9 e78f 07ba 1ae0 93b9
00000210: 5076 afbe d855 6abe c558 ae3d dc8e 12bb
00000220: c366 fcbc abcc 353a e80d 613d 1f89 28bb
00000230: 0e13 263d 9362 973a 54ab 663a 4919 0a3d
00000240: f8b5 3f3e db2f 923d 0d45 cc3d 2dcd e93d
00000250: 6f62 38be 129d c2ba eaad a3bd db1a bdbd
00000260: 40d9 2bbb 37b3 8bbb 27b3 ccba d705 1abd
00000270: 40fb 0f3b 20a3 983b 3cc4 55bd 515d 54bd
00000280: 6340 e63b 612f 4dba 3e6e 47bb a130 4f3e
00000290: 7b02 a3bd b311 08bc 90ad 9f38 aea9 42bb
000002a0: f173 ba3a 6721 f8ba fb11 a9bd 3e11 aa37
000002b0: 7d4c 01bc 970b 483c f041 e13c c175 42b9
000002c0: 19af 35bc 566c 553b 427c ba3c 5f13 263c
000002d0: 1b5f c4b9 8169 1f3d 3fae 923c 45fb 7b3d
000002e0: 13ca 4f3b 9db1 2ebd a471 073e 43bf 22bb
000002f0: 43c3 39bb 85d2 37be 6c20 d0bc 9419 49ba
00000300: df52 963e 7944 213d 3031 fbbc 41fe 3abd
00000310: 18da 193e 777d 3b3d b00c 30bc 2b04 61bd
00000320: 4143 4a39 cbdf 803a ec04 243d b9c6 4aba
00000330: 9b02 5dbd 6147 ceba ced6 433d 4bae 5f3b
00000340: 4efa c0ba 34e5 063b 9f19 a7bb 4e31 3a3b
00000350: 0358 50be 3f99 60bd 230a 9ab9 d566 bb39
00000360: 3db0 79be 4bd6 153d 02b6 953c 963d 50bc
00000370: 5ebd 34be f63d 04be 1083 77ba 8d7f 6b3d
00000380: 2171 e8bc fb86 673d 950d d8bc c8bc 3139
00000390: b11a 41bd 5de2 cb3b 9d86 45bd c770 e6bd
000003a0: 7ff1 37be b476 e6ba ce51 0dbe f6f4 813a
000003b0: 017c e43a fc90 c0bd 24d6 213d a025 073e
000003c0: f0a8 203e a95e 76bc 422f c63a 4f0c 65ba
000003d0: b5fc 933a 6202 b03a 3d6f 10bc 3a65 bcbc
000003e0: 985d 503e 3a13 8cbd 2a73 4a3d c438 46bd
000003f0: 2bdf f53d 98b4 523d 4a2d 21be 2610 513e

a2c_network.mu.bias f4 [3]
0.16190965 0.00241496 0.23021641
00000000: a5cb 253e 4e44 1e3b dabd 6b3e

exp_avg f4 [3]
0.002980859 0.0011532324 0.002813853
00000000: 845a 433b 0f28 973a 9f68 383b

exp_avg_sq f4 [3]
0.00015336505 0.00014113837 0.00014383673
00000000: 9ed0 2039 8bfe 1339 e1d2 1639

exp_avg f4 [128, 15]
0.00094688445 0.00010785719 0.0012868422 -0.00045914654 0.0007789878 -3.3279906e-05 -0.0010926621 -0.00036978594
0.0011231307 7.48923e-05 -0.00086375827 -0.00081591704 0.0004755732 0.00039698166 0.0009956756 -0.00012007613
-0.00060769025 -0.0002490515 -0.00014950153 -0.00016545641 -5.916839e-05 0.0006844601 -6.346594e-05 -0.00011826909
0.000102552614 0.00013890614 0.0001279154 -0.00012484226 -0.0004883989 -0.00043102095 -0.00078581244 0.0006182504
-0.001337505 0.00035266185 -0.0001584231 0.00024401626 0.0009776412 0.00013957132 -0.0010481942 0.00018768349
0.0005182628 0.0012136819 -0.00061885937 0.0004168529 -0.0006477385 -0.0010713756 0.0012879793 0.0008047951
-0.00035579634 -3.2692933e-05 -8.331208e-05 -0.0007636202 0.00065339316 -0.00055953406 -0.0012115188 0.0008470033
0.0012298761 -0.001194575 0.000905363 0.00053901924 0.001123776 -0.0020633677 -0.0020549018 0.0016244656
7.701566e-05 0.00037929323 0.0032721637 -0.002891762 -0.0017507275 0.002522254 -0.0008574319 0.0024283305
0.0005633092 -0.001644683 -0.0024018928 -0.00022191541 0.00077837467 0.00073686894 -0.00034388617 -0.00018723907
0.00040124735 -0.00035100378 0.00034051025 -0.000110388806 -0.0010933434 0.00017623162 0.0001983366 -0.00055664405
0.00083489646 0.0005070869 -0.00042880495 0.0002118386 -8.315795e-05 0.000124968 0.00010037556 0.00046737952
0.00040764737 0.0005152888 -0.0006883816 6.91325e-05 0.000451557 0.0013216384 -0.000349755 0.00030144243
-0.00011694977 -0.001863409 0.0019340434 -0.0015178747 0.00041146815 0.00042671562 0.00050922856 0.0006997552
0.000689598 -0.002080517 -0.0010561 0.0013886621 0.0031406851 -0.0015717222 0.0017653513 -0.0008172267
0.0013800678 -0.0007572904 -0.00039319228 0.000954628 -9.091434e-05 0.00012787891 0.00083360274 -0.00123988
-0.00079436164 0.00051493547 -0.0009740173 0.0010457647 0.0013754886 -0.0004999801 -0.00053977274 -0.00056552794
0.00033243457 -0.00014506464 0.00034711542 0.0003309052 -0.00011384099 0.00010031811 -0.00021250074 -0.00063059037
-0.0002750379 0.00060813315 0.00042966334 -0.00021405451 0.00024119367 5.6426008e-05 -0.00014100473 -0.0008429603
0.000179712 -0.00061418785 -0.00041018275 9.431841e-05 0.00073749834 -3.273018e-05 0.0010752097 1.3277881e-05
-0.0005772466 -0.00033778936 -0.00025091445 -0.00074689364 -0.000205038 -0.0011949139 0.0006114619 0.00083718175
0.00033826922 0.00020556727 0.00013896154 -0.00027587512 0.00088246964 -0.00062347436 -0.001148789 0.0010796171
0.0016610023 -0.0010685896 0.00092934107 0.0008904976 0.00019259653 0.00058420957 -0.00017763655 0.0005313916
0.00051754084 0.0003119169 0.00016256206 -0.00045655636 -0.0017367855 -0.00068944687 -0.00016934332 0.0008833378
3.105672e-05 0.00095731154 -0.00061502866 -0.00033127214 0.001001686 -0.00047609885 0.00046280658 0.00014232808
-9.118968e-05 -0.0004075125 6.289935e-05 -0.0003885128 -0.00031435545 -8.479103e-05 4.211113e-05 4.6415862e-05
0.00085186446 -9.349977e-05 -0.000565588 0.000623983 -0.00025866614 0.00017705491 0.0003431464 0.00020073589
-0.00021153156 -0.00026155612 -0.0008339497 -0.000777033 0.0003426593 0.0012910332 -0.0008722326 0.00075424375
1.7906135e-05 0.0004852724 -0.00038259977 -0.0007715596 -0.0003629751 0.00017188612 -0.0004385238 0.00091545435
-0.0013078817 -5.0268434e-05 0.0006487989 -0.00051722623 -7.288715e-06 0.00019264295 -6.237108e-05 -0.0012145503
0.00080169423 -0.0006472513 -0.00042624417 -0.00013367579 -0.00018228198 -0.0004117288 0.00013107446 -0.00079779467
0.0006618987 5.780535e-05 -0.0007550959 -0.00032545667 0.0007828416 -0.0004260009 -0.00020542755 0.00029406414
00000000: 5738 783a 6331 e238 42ab a83a 9bb9 f0b9
00000010: fc34 4c3a 0796 0bb8 a837 8fba d4df c1b9
00000020: 0336 933a 7f0f 9d38 d66d 62ba 44e3 55ba
00000030: 5b56 f939 fa21 d039 5481 823a 62d1 fbb8
00000040: 674d 1fba 2093 82b9 83c3 1cb9 5e7e 2db9
00000050: 932b 78b8 576d 333a 0419 85b8 3c07 f8b8
00000060: 8411 d738 55a7 1139 0721 0639 17e8 02b9
00000070: e507 00ba a7fa e1b9 fbfe 4dba 1512 223a
00000080: 384f afba 79e5 b839 611e 26b9 9ede 7f39
00000090: 3224 803a e459 1239 9063 89ba e7cc 4439
000000a0: 07dc 073a 6814 9f3a f33a 22ba 0d8d da39
000000b0: ffcc 29ba 666d 8cba 6ad1 a83a e3f8 523a
000000c0: 2d8a bab9 c51f 09b8 d5b7 aeb8 af2d 48ba
000000d0: 7948 2b3a b2ad 12ba d3cb 9eba 6e09 5e3a
000000e0: cb33 a13a 4993 9cba e255 6d3a f84c 0d3a
000000f0: aa4b 933a 9139 07bb 88ab 06bb 05ec d43a
00000100: 7883 a138 e0db c639 cc71 563b b783 3dbb
00000110: ab78 e5ba 664c 253b 48c5 60ba a024 1f3b
00000120: 0aab 133a 6792 d7ba 1369 1dbb f7b1 68b9
00000130: d70b 4c3a 702a 413a 9f4b b4b9 9b55 44b9
00000140: 825e d239 ee06 b8b9 8386 b239 8a80 e7b8
00000150: 844e 8fba d1ca 3839 93f8 4f39 c0eb 11ba
00000160: f4dc 5a3a 07ee 043a 3ad1 e0b9 fe20 5e39
00000170: 1665 aeb8 d809 0339 b880 d238 9e0a f539
00000180: 81b9 d539 7214 073a 8274 34ba 3afb 9038
00000190: f4be ec39 d33a ad3a 525f b7b9 eb0a 9e39
000001a0: ee42 f5b8 a13d f4ba ba7f fd3a 6cf3 c6ba
000001b0: 52ba d739 cdb8 df39 c07d 053a c76f 373a
000001c0: 23c6 343a 4859 08bb d66c 8aba c503 b63a
000001d0: f4d3 4d3b 3f02 ceba 5c63 e73a 283b 56ba
000001e0: 64e3 b43a e684 46ba 6025 ceb9 0040 7a3a
000001f0: 44a9 beb8 3c17 0639 2286 5a3a 7883 a2ba
00000200: b53c 50ba bcfc 063a 3255 7fba 0a12 893a
00000210: bd49 b43a 1911 03ba 897f 0dba f03f 14ba
00000220: 9d4a ae39 7e1c 18b9 0bfd b539 587d ad39
00000230: ebbd eeb8 e061 d238 bcd2 5eb9 344e 25ba
00000240: f632 90b9 206b 1f3a 7044 e139 d273 60b9
00000250: efe8 7c39 f7aa 6c38 abda 13b9 1cfa 5cba
00000260: 1371 3c39 7301 21ba cc0d d7b9 d0cc c538
00000270: ad54 413a c347 09b8 0dee 8c3a 11c4 5e37
00000280: 5d52 17ba 5219 b1b9 2b8d 83b9 2fcb 43ba
00000290: 78ff 56b9 a89e 9cba 834a 203a 5176 5b3a
000002a0: ba59 b139 8b8d 5739 34b6 1139 55a3 90b9
000002b0: 8955 673a a870 23ba f692 96ba f081 8d3a
000002c0: fdb5 d93a eb0f 8cba 069f 733a 4870 693a
000002d0: bdf3 4939 a425 193a f343 3ab9 164d 0b3a
000002e0: 94ab 073a c788 a339 6c75 2a39 f55d efb9
000002f0: daa4 e3ba ffbb 34ba c091 31b9 cc8f 673a
00000300: e642 0238 17f4 7a3a e039 21ba 98ae adb9
00000310: 014b 833a e89c f9b9 d9a4 f239 e73d 1539
00000320: 163d bfb8 67a7 d5b9 d5e8 8338 4eb1 cbb9
00000330: 13d0 a4b9 d6d1 b1b8 7ba0 3038 a7ae 4238
00000340: a84f 5f3a 4f15 c4b8 f843 14ba ca92 233a
00000350: 959d 87b9 d1a7 3939 55e8 b339 a17c 5239
00000360: 92ce 5db9 7821 89b9 6b9d 5aba cdb1 4bba
00000370: f4a6 b339 e337 a93a 8aa6 64ba 71b8 453a
00000380: 2235 9637 296c fe39 ac97 c8b9 7d42 4aba
00000390: b14d beb9 543c 3439 abe9 e5b9 1afb 6f3a
000003a0: 3a6d abba 52d7 52b8 2814 2a3a 7796 07ba
000003b0: 9691 f4b6 3300 4a39 38cd 82b8 8c31 9fba
000003c0: ca28 523a 4dac 29ba 8679 dfb9 522b 0cb9
000003d0: f222 3fb9 4edd d7b9 0871 0939 1823 51ba
000003e0: 4583 2d3a 0674 7238 a1f1 45ba 0ea2 aab9
000003f0: 9c37 4d3a df58 dfb9 0a68 57b9 9f2c 9a39

exp_avg_sq f4 [128, 15]
7.28478e-05 7.217385e-05 2.7067777e-05 7.162926e-06 7.5820453e-06 8.808021e-06 6.4399006e-05 6.6174725e-05
4.6360587e-05 5.3835254e-05 5.442514e-05 4.633531e-05 4.3774566e-05 4.4092485e-05 1.6889087e-05 7.128258e-06
1.5654934e-05 1.249615e-05 1.8971535e-06 1.6249037e-06 1.2433229e-06 5.5048117e-06 6.0209177e-06 8.395298e-06
5.8063843e-06 4.5994307e-06 7.051833e-06 4.1820986e-06 9.300818e-06 5.791025e-06 3.0193689e-05 4.5966783e-05
2.8910194e-05 6.1529554e-06 6.207071e-06 4.9218675e-06 4.2882493e-05 3.0228226e-05 3.1149968e-05 3.7215665e-05
2.6827542e-05 3.112177e-05 1.7599836e-05 2.8105485e-05 1.539572e-05 5.4191132e-05 6.925561e-05 4.640576e-05
1.06822245e-05 9.69277e-06 8.762527e-06 3.717796e-05 4.5160257e-05 3.638611e-05 4.9283546e-05 5.1104176e-05
3.8306564e-05 3.095211e-05 4.2589094e-05 2.4926325e-05 0.00031057786 0.00036972342 0.00021700624 3.862222e-05
6.6254506e-05 5.001221e-05 0.00030402158 0.00030670184 0.00016942763 0.00032692298 0.00030899572 0.00021006
0.00017859357 0.00023365153 0.000107502696 7.300177e-05 7.080872e-05 4.861994e-05 1.1248973e-05 1.05333e-05
9.22236e-06 3.5805406e-05 4.8005833e-05 3.5010147e-05 4.9897222e-05 6.677999e-05 3.8688264e-05 4.0369043e-05
4.2625474e-05 2.5774507e-05 5.422819e-05 9.034635e-05 3.4794215e-05 9.185651e-06 7.8664125e-06 8.34537e-06
6.409352e-05 4.2780386e-05 2.4031964e-05 7.435053e-05 4.2252763e-05 3.0006251e-05 3.0363304e-05 5.342008e-05
1.9854782e-05 9.710455e-05 0.00013207301 6.9221685e-05 2.4406274e-05 2.675873e-05 2.0199072e-05 0.00012657483
0.0001177498 0.00013393219 0.000114941366 0.00010623221 0.00011034965 5.8452464e-05 8.5296655e-05 4.097888e-05
0.00012856319 0.00015529891 9.237312e-05 1.5936528e-05 1.946923e-05 1.7862858e-05 9.711627e-05 7.792191e-05
5.6931465e-05 0.00012363258 0.00011655073 6.642676e-05 6.6595174e-05 9.204336e-05 4.4619053e-05 4.2480202e-05
5.1422023e-05 2.8196086e-05 7.7720215e-06 7.011024e-06 6.896166e-06 3.5386838e-05 3.5563477e-05 2.9855424e-05
4.084747e-05 3.7178663e-05 2.453274e-05 2.5819976e-05 3.0693496e-05 1.7071412e-05 3.6021822e-05 4.1135467e-05
3.4566e-05 3.9486918e-06 5.232956e-06 3.2915727e-06 3.7791517e-05 2.4935713e-05 2.741694e-05 2.7867229e-05
2.3820958e-05 2.0160634e-05 2.0445725e-05 2.4241028e-05 1.7056786e-05 5.3752658e-05 5.8604397e-05 4.8459908e-05
1.0796927e-05 9.2963965e-06 8.862451e-06 3.1970674e-05 4.075939e-05 3.5987887e-05 4.1099458e-05 5.4174263e-05
3.8152662e-05 3.126934e-05 3.545379e-05 2.677156e-05 0.00012356963 0.00017819242 0.000101946905 1.4018259e-05
2.096552e-05 1.5881986e-05 0.000113392154 9.4725445e-05 8.063735e-05 0.00014099298 0.0001208206 8.9947105e-05
6.2536645e-05 0.000102611375 4.8662285e-05 9.360719e-06 8.249145e-06 9.185992e-06 1.8595756e-06 2.7269468e-06
2.1070373e-06 6.87976e-06 7.438779e-06 6.235541e-06 6.9337334e-06 7.3576334e-06 8.384634e-06 5.416574e-06
5.4512893e-06 4.896709e-06 2.879783e-05 2.7652894e-05 1.8370956e-05 4.3279742e-06 4.534577e-06 3.6913038e-06
1.923888e-05 2.2021306e-05 2.0838703e-05 2.2112732e-05 2.9815454e-05 1.8164073e-05 1.5605852e-05 1.7075008e-05
1.0276684e-05 8.54244e-05 7.8187615e-05 4.0717987e-05 9.670745e-06 1.0022623e-05 1.0580249e-05 6.050318e-05
8.8712666e-05 5.0706047e-05 5.8088637e-05 7.1245566e-05 4.9278035e-05 4.900843e-05 4.673049e-05 2.4149684e-05
3.7590224e-05 4.3486e-05 3.3126325e-05 6.53253e-06 6.0745165e-06 5.55456e-06 3.1918702e-05 2.9347817e-05
2.484261e-05 3.7305417e-05 3.1051506e-05 2.3139548e-05 2.2541208e-05 2.6715697e-05 1.7853532e-05 4.0826686e-05
00000000: ddc5 9838 0a5c 9738 9c0f e337 1159 f036
00000010: 4669 fe36 2ac6 1337 f40d 8738 49c7 8a38
00000020: 4d73 4238 2acd 6138 8d46 6438 2958 4238
00000030: 959a 3738 f2ef 3838 0aad 8d37 452f ef36
00000040: b752 8337 8ea6 5137 b3a1 fe35 4417 da35
00000050: 40e0 a635 f9b5 b836 4a07 ca36 88d9 0c37
00000060: 76d4 c236 cf54 9a36 c99e ec36 f453 8c36
00000070: b60a 1c37 8750 c236 7448 fd37 75cc 4038
00000080: 2b84 f237 7c75 ce36 5546 d036 8526 a536
00000090: badc 3338 9f92 fd37 06a7 0238 0418 1c38
000000a0: b50b e137 bf88 0238 5ca3 9337 12c4 eb37
000000b0: 0f26 8137 494b 6338 533d 9138 cea3 4238
000000c0: ce37 3337 219e 2237 c402 1337 88ef 1b38
000000d0: 756a 3d38 4a9d 1838 ceb5 4e38 b158 5638
000000e0: 5cab 2038 93d2 0138 b1a1 3238 e018 d137
000000f0: 0ed5 a239 70d7 c139 2b8c 6339 4bfe 2138
00000100: 1ef2 8a38 34c4 5138 1665 9f39 d3cc a039
00000110: 62a8 3139 dc66 ab39 b400 a239 8d43 5c39
00000120: d944 3b39 5b00 7539 1273 e138 8718 9938
00000130: 247f 9438 43ed 4b38 f9b9 3c37 2eb8 3037
00000140: bcb9 1a37 c32d 1638 df59 4938 dcd7 1238
00000150: bc48 5138 3c0c 8c38 3545 2238 ee51 2938
00000160: c1c8 3238 5536 d837 1373 6338 5478 bd38
00000170: 01f0 1138 121c 1a37 fcf9 0337 1703 0c37
00000180: f269 8638 176f 3338 4098 c937 a3ec 9b38
00000190: 8f38 3138 efb5 fb37 b3b4 fe37 600f 6038
000001a0: d28d a637 9ca4 cb38 147d 0a39 1c2b 9138
000001b0: 13bc cc37 ef77 e037 2d71 a937 2cb9 0439
000001c0: 71f0 f638 2670 0c39 ad0c f138 fcc8 de38
000001d0: 846b e738 db2a 7538 4be1 b238 bde0 2b38
000001e0: ebce 0639 bcd7 2239 71b8 c138 6faf 8537
000001f0: da51 a337 32d8 9537 e7aa cb38 026a a338
00000200: b2c9 6e38 5ea3 0139 b26c f438 984e 8b38
00000210: 03a9 8b38 6707 c138 5825 3b38 c52c 3238
00000220: faad 5738 a286 ec37 9464 0237 3d40 eb36
00000230: 9d65 e736 546c 1438 fe29 1538 0972 fa37
00000240: a353 2b38 49f0 1b38 a8cb cd37 fa97 d837
00000250: e4bc 0038 9434 8f37 2316 1738 df88 2c38
00000260: f6fa 1038 017f 8436 c096 af36 cae4 5c36
00000270: 5582 1e38 092d d137 6efd e537 6bc4 e937
00000280: 1ed3 c737 a21e a937 dc82 ab37 3659 cb37
00000290: 2b15 8f37 7a74 6138 fecd 7538 6e41 4b38
000002a0: 7324 3537 b8f7 1b37 f0af 1437 4018 0638
000002b0: 10f5 2a38 b3f1 1638 3562 2c38 2c39 6338
000002c0: 1c06 2038 3327 0338 38b4 1438 7d93 e037
000002d0: 7892 0139 2ad9 3a39 54cc d538 f72f 6b37
000002e0: 1ddf af37 4e3a 8537 f3cc ed38 56a7 c638
000002f0: d91b a938 84d7 1339 1161 fd38 fca1 bc38
00000300: 1b26 8338 1031 d738 bb1a 4c38 fb0b 1d37
00000310: cf65 0a37 891d 1a37 8896 f935 9700 3736
00000320: a066 0d36 b0d8 e636 a09a f936 e43a d136
00000330: 51a8 e836 97e1 f636 bbab 0c37 04c0 b536
00000340: 38ea b636 694e a436 de92 f137 23f8 e737
00000350: 541b 9a37 0439 9136 b827 9836 1eb8 7736
00000360: 2e63 a137 65ba b837 c6ce ae37 bb7e b937
00000370: 331c fa37 0d5f 9837 50e9 8237 4d3c 8f37
00000380: 066a 2c37 e025 b338 a8f8 a338 9bc8 2a38
00000390: 893f 2237 d726 2837 d381 3137 cbc4 7d38
000003a0: 400b ba38 34ad 5438 33a4 7338 ac69 9538
000003b0: e3af 4e38 678e 4d38 7b00 4438 0d95 ca37
000003c0: 32aa 1d38 bd64 3638 1ff1 0a38 0132 db36
000003d0: b3d3 cb36 4f61 ba36 72e0 0538 f52f f637
000003e0: 1965 d037 6378 1c38 4d3d 0238 cd1b c237
000003f0: e016 bd37 861b e037 2bc4 9537 523d 2b38

exp_avg f4 [128]
0.0009402974 -0.00040416434 -0.00041295803 -5.683229e-06 -0.00293916 0.0008046979 0.000799668 -0.0004971182
-0.00052400416 -0.00017108326 -0.00021900887 0.00024523394 -0.0009307396 -0.00053066405 -5.1049086e-05 -0.0009815951
-0.0010681752 0.0004071118 -0.0005419006 -0.00068921 0.0013639744 -0.00024970062 0.001346277 0.0003968993
0.00032309524 0.00057009846 0.0007089083 0.0005430471 0.0010827004 -0.0004923578 -0.00036249933 -0.00022681475
-0.0011084027 -0.00022404864 -6.99183e-05 0.0004647176 0.0005710146 0.00083166367 -0.00047416508 -0.001425393
-0.00018033269 -0.0013619957 0.00014697344 0.000105784515 0.0004695524 -0.00013982442 -0.0005252026 0.00078843447
0.00051172177 -0.0009204626 0.0004663905 9.566305e-05 0.0013706704 0.0003229339 -4.498219e-05 -0.0006117425
0.00083161687 0.00075083115 -0.00086290203 0.00045161208 -0.00050149305 -0.00018204452 -6.189692e-05 -4.3830405e-05
0.0010466003 0.0003362991 -0.001965268 -0.00054132275 0.0015528258 0.00045534445 0.0005754684 -0.0004708362
0.00071363506 -8.6754546e-05 -0.00015357324 0.0006290637 6.6206994e-05 0.00023459604 0.0019521607 -0.00050023623
0.00034819165 -4.6279816e-05 -0.0023621793 0.00042697816 0.000657649 0.000857256 -0.00075252977 -0.0008473223
0.00044641097 -0.0009178084 0.0007199735 0.00011148234 -0.0005001464 -0.0018884417 -0.00084570784 -5.3873307e-05
0.0005041357 -0.00032451787 -6.4307795e-05 0.0011273026 0.00036404925 -0.00032095567 0.00022573565 -0.0014165525
-0.00022745894 -0.0008725668 8.019804e-05 0.0009798838 -0.0009448953 0.0006517482 -2.6749321e-05 0.00012360772
-0.00089898397 0.0005429939 -0.00012402864 3.1917276e-05 0.00012316823 -8.958962e-05 0.00047267057 -7.091213e-05
6.580032e-05 -8.7220724e-05 -0.0005629646 -0.00020416924 -0.001664977 0.00059731724 -0.00020748825 -0.00029941284
00000000: 4a7e 763a 05e6 d3b9 4a82 d8b9 91b2 beb6
00000010: ec9e 40bb 5df2 523a d0a0 513a 0a51 02ba
00000020: 535d 09ba d064 33b9 bfa5 65b9 be92 8039
00000030: e1fc 73ba 431c 0bba 8a1d 56b8 dea8 80ba
00000040: 0302 8cba 9f71 d539 550e 0eba 1aac 34ba
00000050: 63c7 b23a 40ea 82b9 8f75 b03a ec16 d039
00000060: 1c65 a939 a972 153a 08d6 393a 465b 0e3a
00000070: 66e9 8d3a 9311 01ba d60d beb9 1fd5 6db9
00000080: d347 91ba 99ee 6ab9 1aa1 92b8 57a5 f339
00000090: 24b0 153a 0104 5a3a 5c99 f8b9 41d4 baba
000000a0: b017 3db9 fe84 b2ba e21c 1a39 a1d8 dd38
000000b0: 422e f639 d59d 12b9 c0ad 09ba f1ae 4e3a
000000c0: 1125 063a 334b 71ba e085 f439 b59e c838
000000d0: 11a8 b33a 744f a939 42ab 3cb8 585d 20ba
000000e0: dd00 5a3a 6dd3 443a 6034 62ba 59c6 ec39
000000f0: a176 03ba 34e3 3eb9 a8ce 81b8 8ad6 37b8
00000100: 142e 893a 4d51 b039 bacb 00bb 8ee7 0dba
00000110: 3088 cb3a 4cbb ee39 08db 163a 91da f6b9
00000120: 3d13 3b3a feef b5b8 8108 21b9 c0e7 243a
00000130: 9cd8 8a38 e5fd 7539 a5df ff3a 4922 03ba
00000140: 7e8d b639 931c 42b8 cbce 1abb 0adc df39
00000150: 1466 2c3a 7ab9 603a 6b45 45ba d61e 5eba
00000160: 440c ea39 1499 70ba 9bbc 3c3a a0cb e938
00000170: 421c 03ba 9785 f7ba 7eb2 5dba 06f6 61b8
00000180: f927 043a 0d24 aab9 fcdc 86b8 00c2 933a
00000190: dddd be39 f145 a8b9 74b3 6c39 9dab b9ba
000001a0: 0b82 6eb9 f7bc 64ba ff2f a838 726f 803a
000001b0: dab2 77ba 15da 2a3a bb63 e0b7 b29c 0139
000001c0: cba9 6bba b457 0e3a af0d 02b9 eade 0538
000001d0: b826 0139 10e2 bbb8 c5d0 f739 a9b6 94b8
000001e0: 47fe 8938 45ea b6b8 ea93 13ba 4316 56b9
000001f0: 5c3b daba 4895 1c3a 3491 59b9 83fa 9cb9
